resources/models/1L-128.pth (torch, 401910 bytes, 3 tensors)

fc1.weight f4 [128, 768]
0.033849344 -0.009083179 -0.004880026 0.017247811 0.0021856187 -0.025695046 -0.020922508 -0.00928109
-1.1795412 -1.2293105 -1.0624237 -1.189248 -1.5789347 -2.629304 -2.6630466 -1.1364801
-1.1978805 -1.0963359 -0.4679767 -1.6596909 -1.7088525 -2.6328716 -2.539442 -1.5155675
-1.2546648 -0.9195841 -1.3162112 -1.5268137 -1.5761765 -2.4165347 -2.9533265 -1.7295395
-2.1294873 -1.4789859 -2.1399226 -1.7365122 -2.0996318 -3.2410202 -2.7136316 -2.2164965
-2.9906225 -1.8670583 -2.5325105 -1.233395 -2.7871788 -3.0336869 -4.697525 -4.5025167
-6.944909 -4.301979 -8.238144 -3.4104993 -2.5936913 -12.562572 0.833388 -0.68035614
0.010697657 0.007961636 -0.03489415 0.033028334 -0.032176886 0.007694727 -0.0134850005 0.014506126
-0.5990303 -0.75352824 -0.22131598 -0.3415874 -0.56863135 -1.2277619 -0.038345315 -0.5456213
0.03166275 0.4434295 -0.020042038 -0.289009 -0.018650869 -0.08219593 -1.2762628 -0.7651855
0.20787454 -0.726591 -0.062341433 0.42478263 -0.04016552 -0.169835 -0.1219054 0.3908513
-0.31104428 -0.22780669 -0.16088463 0.090760544 0.61616534 0.5608811 0.515081 -0.33062884
-0.37116018 0.065978594 -0.50811285 -0.24308677 -0.008415599 -0.12387577 0.472224 -0.1920881
-0.114167646 -0.95626205 -0.60082096 -0.064719595 0.14049853 -1.5850024 -7.4125614 -4.073589
-1.1180308 -1.5945423 -0.08250485 -0.33960325 -1.1605098 -1.937143 -0.119877174 -1.1341383
-1.4049716 -1.2527957 -1.6349558 -0.26651043 -1.78063 -3.016837 0.059854828 0.44205427
0.51090974 -0.61750805 -0.43394494 -0.18634294 -0.09276806 -1.2230912 -0.9367678 -0.8231915
-0.6405511 -0.13970003 -0.48781794 -0.054222453 -0.57367647 -0.8807251 -1.3455083 -1.425905
-0.28302965 -0.3152004 -0.30937785 -0.61454767 -0.51517326 -0.5498487 -1.1256841 -1.3560109
-0.21750607 -0.3557965 -0.548974 -0.64100635 -0.10653507 -1.1763692 -0.042083558 -1.8636644
0.038297147 -0.17611088 -0.096061796 -0.9783324 -0.13246796 0.0065654097 -1.0156331 -0.24184209
-1.6287621 -0.60659176 -0.14030617 -0.29817325 0.14098309 -1.2310201 -1.2861313 -1.3277384
-0.7535571 -0.20104624 -0.3742615 -0.026109278 -0.8408153 -0.92999715 -0.73646677 -2.7716484
-0.68354267 -2.0144746 -0.082442954 -1.2355381 -0.668127 -1.4159456 -0.33418924 -0.13932069
-4.8801136 -4.2611475 -4.171167 -4.5696545 -4.562214 -4.6739078 -4.618299 -4.567677
-4.7837806 -4.465323 -4.392129 -4.6056576 -4.347748 -4.446906 -4.544243 -4.3884296
-4.4412966 -3.897087 -3.6131437 -3.863967 -3.8575861 -3.835062 -3.5313056 -3.2676702
-3.9402225 -4.103863 -3.843358 -4.267398 -3.8544362 -3.6694756 -3.02103 -2.9720201
-4.8988028 -4.166625 -4.624135 -4.5305014 -3.483121 -3.7237067 -3.462042 -2.597
-4.65489 -4.552016 -4.7193213 -4.3822865 -4.2145233 -4.417379 -3.4571066 -2.9515483
-5.234719 -5.089751 -5.1282578 -5.430615 -4.5805964 -5.5439386 -7.9738703 -4.030217
-5.512495 -6.173234 -6.06592 -6.1462426 -5.672049 -5.294766 -5.054106 -4.483466
00000000: 9ca5 0a3d 9dd1 14bc a0e8 9fbb 484b 8d3c
00000010: 993c 0f3b 6b7e d2bc ae65 abbc b70f 18bc
00000020: 35fb 96bf 0c5a 9dbf 80fd 87bf 4739 98bf
00000030: 881a cabf 8446 28c0 5b6f 2ac0 2e78 91bf
00000040: 2654 99bf bc54 8cbf a49a efbe c070 d4bf
00000050: aebb dabf f880 28c0 3886 22c0 1efe c1bf
00000060: db98 a0bf dd69 6bbf 9c79 a8bf a26e c3bf
00000070: 27c0 c9bf 81a8 1ac0 4d03 3dc0 8d61 ddbf
00000080: 8549 08c0 694f bdbf 7ef4 08c0 0846 debf
00000090: 5e60 06c0 e06c 4fc0 24ac 2dc0 14db 0dc0
000000a0: 5c66 3fc0 c4fb eebf a714 22c0 e3df 9dbf
000000b0: 2361 32c0 ed27 42c0 2052 96c0 9e14 90c0
000000c0: b23c dec0 d0a9 89c0 70cf 03c1 9f45 5ac0
000000d0: 0aff 25c0 4b00 49c1 ea58 553f d22b 2ebf
000000e0: 3a45 2f3c 8671 023c 2bed 0ebd b848 073d
000000f0: e9cb 03bd 0c24 fc3b 31f0 5cbc 1aab 6d3c
00000100: 0d5a 19bf 3ae7 40bf a8a0 62be 8be4 aebe
00000110: d391 11bf 4d27 9dbf fa0f 1dbd d6ad 0bbf
00000120: cdb0 013d 3109 e33e 332f a4bc fdf8 93be
00000130: b5c9 98bc 5756 a8bd 945c a3bf 32e3 43bf
00000140: 10dd 543e de01 3abf bb59 7fbd 1c7d d93e
00000150: 9a84 24bd 3ae9 2dbe 8aa9 f9bd a91d c83e
00000160: 3241 9fbe 2846 69be f1be 24be aae0 b93d
00000170: 03bd 1d3f e795 0f3f 59dc 033f 2f48 a9be
00000180: b508 bebe c91f 873d af13 02bf bdeb 78be
00000190: 95e1 09bc 94b2 fdbd 58c7 f13e beb2 44be
000001a0: bad0 e9bd 97cd 74bf 67cf 19bf b58b 84bd
000001b0: d9de 0f3e 5ce1 cabf b433 edc0 d75a 82c0
000001c0: a21b 8fbf f619 ccbf 4ef8 a8bd 7ae0 adbe
000001d0: 968b 94bf 4df4 f7bf 2a82 f5bd 722b 91bf
000001e0: 1cd6 b3bf 9c5b a0bf 3b46 d1bf 0e74 88be
000001f0: afeb e3bf db13 41c0 562a 753d f054 e23e
00000200: fbca 023f 0215 1ebf 082e debe afd0 3ebe
00000210: 2efd bdbd 418e 9cbf 04d0 6fbf aebc 52bf
00000220: 28fb 23bf 860d 0fbe 46c3 f9be 5d18 5ebd
00000230: 76dc 12bf 3377 61bf 9e39 acbf 0e84 b6bf
00000240: 43e9 90be f261 a1be c666 9ebe ff52 1dbf
00000250: 65e2 03bf e2c2 0cbf 6b16 90bf c491 adbf
00000260: e9b9 5ebe f52a b6be 8f89 0cbf fe18 24bf
00000270: 0f2f dabd 4493 96bf cf5f 2cbd 8e8c eebf
00000280: 78dd 1c3d 6956 34be 0cbc c4bd fe73 7abf
00000290: aea5 07be a622 d73b 4400 82bf 74a5 77be
000002a0: 477b d0bf 9949 1bbf 6cac 0fbe 2aaa 98be
000002b0: df5d 103e 1192 9dbf f39f a4bf 55f3 a9bf
000002c0: 1ee9 40bf 11df 4dbe 349f bfbe 20e3 d5bc
000002d0: ac3f 57bf 4b14 6ebf 1689 3cbf b062 31c0
000002e0: a7fc 2ebf 27ed 00c0 dad7 a8bd 1d26 9ebf
000002f0: 5f0a 2bbf b53d b5bf da1a abbe 15aa 0ebe
00000300: e429 9cc0 525b 88c0 337a 85c0 9c3a 92c0
00000310: a8fd 91c0 a790 95c0 1bc9 93c0 692a 92c0
00000320: bb14 99c0 ede3 8ec0 528c 8cc0 8c61 93c0
00000330: c020 8bc0 0e4d 8ec0 706a 91c0 046e 8cc0
00000340: 1a1f 8ec0 e069 79c0 bf3d 67c0 3c4b 77c0
00000350: b1e2 76c0 a871 75c0 e900 62c0 8221 51c0
00000360: 9b2c 7cc0 d852 83c0 94f9 75c0 868e 88c0
00000370: 15af 76c0 b0d8 6ac0 8e58 41c0 9435 3ec0
00000380: fec2 9cc0 fe54 85c0 eaf8 93c0 def9 90c0
00000390: 74eb 5ec0 3651 6ec0 1992 5dc0 3f35 26c0
000003a0: dcf4 94c0 1daa 91c0 ae04 97c0 b13b 8cc0
000003b0: 60dd 86c0 2b5b 8dc0 3c41 5dc0 2be6 3cc0
000003c0: d182 a7c0 3ddf a2c0 b01a a4c0 99c7 adc0
000003d0: 3f94 92c0 f267 b1c0 f229 ffc0 8af7 80c0
000003e0: 5c66 b0c0 228b c5c0 041c c2c0 05ae c4c0
000003f0: 6d81 b5c0 b96e a9c0 3dbb a1c0 8e78 8fc0

fc1.bias f4 [128]
-6.2042365 -23.722387 -11.276365 -10.877662 -26.7202 -9.3415 -12.313225 -11.236364
-12.04345 -9.712859 -10.858441 -10.3984995 -6.375705 -9.848838 -19.352768 -13.664267
-18.038036 -9.976747 -10.060096 -12.6378565 -12.073099 -11.200442 -9.644751 -16.435904
-7.9250197 -4.9754753 -14.660119 -23.151335 -5.742486 -16.831896 -13.148964 -3.418734
-15.176373 -6.8021193 -10.017726 -6.358018 -10.0502825 -13.630879 -14.348749 -13.090432
-2.9925234 -15.625921 -8.165288 -0.9738263 -16.507458 -8.3106165 -0.7454111 -9.2823515
-0.27460933 -19.366352 -11.430996 -8.024076 -16.851011 -23.585764 -8.361225 -16.76026
-17.065813 -6.180402 -4.209939 -7.780197 -11.556534 -5.3553505 -10.194068 -31.025635
-6.2154055 -14.158835 -21.378061 -16.226273 -4.001586 -13.035491 -22.016836 -11.359058
-5.8626075 -8.031411 -8.309248 -12.202373 -10.155269 -7.0616226 -26.404625 -7.2967715
-6.867293 1.509687 -8.167911 -15.10712 -9.69848 -8.7719555 -4.1402283 -13.164251
-9.768046 -5.1849656 -12.331841 -7.6619916 -6.975662 -4.9224257 -15.668119 -12.165023
-14.479574 -13.521317 -28.298347 -17.666506 -13.450329 -14.919056 -5.755248 -7.177956
-9.186113 -11.029123 -13.961602 -20.591782 -9.039993 -14.574321 -12.063302 -12.602503
-13.494011 -19.660217 -8.573412 -8.68945 -5.883001 -3.282984 -4.0823975 -10.370887
-9.734898 -9.9977045 -10.366276 -11.297333 -7.94653 -9.534605 -11.5196905 -14.52615
00000000: 1b89 c6c0 73c7 bdc1 fe6b 34c1 e70a 2ec1
00000010: f8c2 d5c1 c976 15c1 f802 45c1 26c8 33c1
00000020: f9b1 40c1 df67 1bc1 2dbc 2dc1 4160 26c1
00000030: c605 ccc0 d794 1dc1 78d2 9ac1 d6a0 5ac1
00000040: e64d 90c1 c1a0 1fc1 27f6 20c1 a934 4ac1
00000050: 6a2b 41c1 0335 33c1 e650 1ac1 bb7c 83c1
00000060: c399 fdc0 1837 9fc0 d98f 6ac1 ef35 b9c1
00000070: 72c2 b7c0 b9a7 86c1 2862 52c1 8acc 5ac0
00000080: 6cd2 72c1 f6aa d9c0 9b48 20c1 e274 cbc0
00000090: f5cd 20c1 1518 5ac1 7a94 65c1 6972 51c1
000000a0: 8185 3fc0 c603 7ac1 05a5 02c1 ae4c 79bf
000000b0: 460f 84c1 49f8 04c1 43d3 3ebf 8384 14c1
000000c0: 9899 8cbe 4aee 9ac1 5ce5 36c1 9e62 00c1
000000d0: dfce 86c1 a5af bcc1 94c7 05c1 0315 86c1
000000e0: c986 88c1 dac5 c5c0 d2b7 86c0 60f7 f8c0
000000f0: 90e7 38c1 085f abc0 e71a 23c1 8034 f8c1
00000100: 9ae4 c6c0 978a 62c1 4506 abc1 68cf 81c1
00000110: fe0c 80c0 5f91 50c1 7b22 b0c1 b4be 35c1
00000120: 7b9a bbc0 a980 00c1 aef2 04c1 eb3c 43c1
00000130: fb7b 22c1 d0f8 e1c0 ac3c d3c1 277f e9c0
00000140: ddc0 dbc0 6c3d c13f c3af 02c1 c3b6 71c1
00000150: f92c 1bc1 ee59 0cc1 c07c 84c0 c6a0 52c1
00000160: eb49 1cc1 3deb a5c0 394f 45c1 092f f5c0
00000170: a038 dfc0 8384 9dc0 9eb0 7ac1 efa3 42c1
00000180: 56ac 67c1 5057 58c1 0463 e2c1 0155 8dc1
00000190: 8c34 57c1 74b4 6ec1 fe2a b8c0 d1b1 e5c0
000001a0: 52fa 12c1 4a77 30c1 b962 5fc1 f8bb a4c1
000001b0: d0a3 10c1 6b30 69c1 4903 41c1 daa3 49c1
000001c0: 78e7 57c1 2048 9dc1 b22c 09c1 fd07 0bc1
000001d0: 8b41 bcc0 691c 52c0 00a3 82c0 27ef 25c1
000001e0: 24c2 1bc1 99f6 1fc1 44dc 25c1 e0c1 34c1
000001f0: f949 fec0 be8d 18c1 a750 38c1 1c6b 68c1

fc2.weight f4 [1, 128]
-0.05936275 0.051558692 0.037139222 0.06482063 -0.06036795 0.049918804 0.050354492 0.02964252
-0.035380457 0.031706527 0.034142174 -0.04459473 -0.08568456 0.033447016 -0.027629754 0.036700606
-0.030967569 -0.030675208 0.16622804 0.039441727 -0.044328302 0.19719031 -0.050893348 -0.055755198
-0.034682956 -0.062268533 -0.045819543 -0.032248717 0.0992181 -0.046508953 -0.03899927 0.05070551
0.042915676 -0.049543843 -0.093557715 -0.036224883 -0.054384388 0.050564248 -0.035993204 0.13166271
0.07930332 -0.03193602 0.04317216 0.040141102 -0.0323446 0.040504657 -0.14074856 -0.050252706
-0.18769915 0.062489443 -0.23279989 -0.025421206 -0.04432613 -0.027890243 0.032018214 0.055052623
-0.04043585 0.059910182 0.14212711 0.028185584 -0.02793815 0.06007207 0.05149921 0.11707599
0.03442478 -0.03157289 0.026944533 -0.03585465 0.06907622 0.04055111 -0.068757355 0.031468734
-0.06156947 0.036797162 0.08567296 -0.055055354 0.032785803 0.03733607 -0.04868122 -0.17888328
-0.040305708 0.088449426 -0.042832617 0.026324432 0.04791746 -0.037235208 0.046504248 -0.041827183
0.041338526 0.030920517 -0.026727678 0.0338714 -0.0280249 -0.07237869 -0.03447803 0.022340009
-0.02817857 0.04195995 -0.037706755 0.039941713 -0.037866242 -0.018850809 0.03555611 0.032180898
-0.032694418 0.035208575 0.06284966 0.08378782 -0.038264308 -0.02823487 0.042861346 -0.21090299
0.2893927 0.06720613 0.0446095 -0.16964078 -0.07630955 -0.12275867 0.04968486 0.05475107
-0.043097865 -0.05213302 -0.03906704 -0.055126484 -0.07146517 -0.10780046 0.029914146 0.051610466
00000000: 5b26 73bd 352f 533d 4c1f 183d aec0 843d
00000010: 6244 77bd a977 4c3d 8340 4e3d dfd4 f23c
00000020: 19eb 10bd b4de 013d aad8 0b3d f7a8 36bd
00000030: 637b afbd bdff 083d cb57 e2bc 6053 163d
00000040: b3af fdbc 934a fbbc af37 2a3e a68d 213d
00000050: 9891 35bd 42ec 493e 8b75 50bd 905f 64bd
00000060: b70f 0ebd 4a0d 7fbd 46ad 3bbd 3b17 04bd
00000070: dc32 cb3d 2c80 3ebd b3bd 1fbd 95b0 4f3d
00000080: 59c8 2f3d 7cee 4abd 309b bfbd 8b60 14bd
00000090: 2ac2 5ebd 751c 4f3d 9c6d 13bd 97d2 063e
000000a0: c769 a23d 58cf 02bd 4ad5 303d ff6a 243d
000000b0: c57b 04bd 36e8 253d 6420 10be c8d5 4dbd
000000c0: 3534 40be eef4 7f3d 1863 6ebe 2240 d0bc
000000d0: 518f 35bd 147a e4bc 8825 033d dc7e 613d
000000e0: 10a0 25bd 6164 753d c589 113e 74e5 e63c
000000f0: 8cde e4bc 220e 763d d6f0 523d 89c5 ef3d
00000100: 0001 0d3d 9352 01bd c8ba dc3c 53dc 12bd
00000110: d577 8d3d ec18 263d a8d0 8cbd 5ce5 003d
00000120: 4530 7cbd 9fb8 163d 4e75 af3d b981 61bd
00000130: 684a 063d b5ed 183d f565 47bd 2e2d 37be
00000140: 9917 25bd f924 b53d 4171 2fbd 56a6 d73c
00000150: 1945 443d f283 18bd 3d7b 3e3d fb52 2bbd
00000160: 9652 293d 064d fd3c 01f4 dabc bdbc 0a3d
00000170: 7a94 e5bc 473b 94bd d638 0dbd 6502 b73c
00000180: bfd6 e6bc 32de 2b3d 6672 1abd ec99 233d
00000190: a219 1bbd 036d 9abc 49a3 113d 1ed0 033d
000001a0: 95ea 05bd de36 103d 53b7 803d f398 ab3d
000001b0: 09bb 1cbd d04c e7bc 618f 2f3d f4f6 57be
000001c0: 482b 943e 5ea3 893d 73b8 363d 50b6 2dbe
000001d0: 2e48 9cbd e668 fbbd 5a82 4b3d a842 603d
000001e0: 6387 30bd 6f89 55bd c304 20bd 4fcc 61bd
000001f0: 555c 92bd 7dc6 dcbd 830e f53c 7f65 533d
