resources/models/1L-128.pth (torch, 401910 bytes, 3 tensors)

fc1.weight f4 [128, 768]
0.033849344 -0.009083179 -0.004880026 0.017247811 0.0021856187 -0.025695046 -0.020922508 -0.00928109
-1.1540996 -1.2258778 -1.0520368 -1.1357931 -1.4433016 -2.6089964 -2.6362479 -1.1047425
-1.1712908 -0.96213955 -0.5667483 -1.643393 -1.4791634 -2.6085422 -2.5002997 -1.5499564
-1.309534 -0.99894565 -1.2295498 -1.3449029 -1.4297619 -2.3458588 -2.7780626 -1.4938563
-1.9643189 -1.6912075 -2.1101894 -1.9205942 -1.8823614 -2.8178296 -2.8496077 -2.3327632
-3.2734852 -1.81091 -2.4689317 -1.4914429 -2.8468575 -2.6813438 -4.900926 -4.5813966
-7.2006683 -4.3136954 -8.615796 -3.1648746 -2.2467382 -12.293206 0.77635086 -0.51297194
0.010697657 0.007961636 -0.03489415 0.033028334 -0.032176886 0.007694727 -0.0134850005 0.014506126
-0.90989023 -0.7526614 -0.3122692 -0.33446485 -0.5604769 -1.2929405 0.263904 -0.61755425
-0.2199806 0.17055546 -0.33130062 -0.38807473 -0.07271096 -0.64450806 -1.3886167 -0.7708723
-0.20961995 -0.73081243 -0.24838015 -0.037269007 -0.07103208 0.0024208326 -0.41537014 0.1411277
-0.45062715 -0.086579405 -0.348919 0.032158077 0.25531465 0.19005525 0.11525811 -0.33460715
0.056976214 -0.08366871 -0.50517607 -0.63351077 0.020017613 -0.25328842 0.5981976 -0.56867766
-0.0044167205 -0.59049237 -0.8406834 -0.2696098 0.27955437 -1.8065641 -7.6086187 -4.273583
-1.3128362 -2.3898706 -0.22563668 -0.82060355 -1.0483167 -1.9428061 0.42545995 -1.1321095
-0.94450796 -1.8458422 -1.5088557 -0.45706284 -1.4547724 -2.8499005 0.20520705 0.34586424
0.4521284 -0.5421717 -0.5248514 -0.4409792 -0.087412655 -1.3632286 -1.1744881 -1.0646363
-0.98077023 -0.10676982 -0.45993158 -0.096157566 -0.52368915 -0.7636165 -1.4180492 -1.9014149
-0.21186176 -0.4687719 -0.31124926 -0.5253212 -0.53894144 -0.30264518 -1.4225892 -1.2100794
0.355144 -0.24901773 -0.7582868 -0.46115613 -0.3433472 -1.0689626 -0.3699926 -1.919168
-0.008455237 0.14122252 -0.44318125 -1.0734893 -0.38960883 -0.2592409 -1.0577804 -0.60383195
-1.2937294 -0.26549593 -0.22189383 -0.4500943 -0.127755 -0.8979427 -1.0685923 -1.4137851
-0.3068333 -0.17980805 -0.71955144 -0.12410562 -0.6405338 -1.536897 -0.3649671 -2.741691
-0.31525055 -2.2282798 0.20087367 -1.1301947 -0.3065311 -1.4132897 -0.4118287 0.35261652
-4.7015033 -4.1438613 -4.239335 -4.451301 -4.443464 -4.6183376 -4.510424 -4.4426956
-4.8751197 -4.5167437 -4.5839295 -4.405866 -4.326966 -4.265212 -4.704992 -4.224557
-4.4287424 -3.7737343 -4.057632 -3.6406138 -3.7875593 -3.5281622 -3.196065 -3.1144826
-4.3841085 -3.6822066 -3.53643 -4.004521 -3.5854003 -3.3820658 -2.513012 -2.7257483
-4.8121257 -4.53087 -4.352056 -4.4909267 -3.3380127 -3.5986993 -3.3042908 -2.9386384
-4.427592 -4.2384734 -4.398386 -4.638251 -4.3941936 -4.327397 -3.1567407 -2.9981265
-5.1427546 -5.0042644 -5.2617497 -5.166073 -4.4770947 -5.185695 -7.569034 -4.4205317
-5.3154984 -6.6758275 -6.561476 -6.4995728 -5.5385084 -4.6781254 -5.1785693 -4.446506
00000000: 9ca5 0a3d 9dd1 14bc a0e8 9fbb 484b 8d3c
00000010: 993c 0f3b 6b7e d2bc ae65 abbc b70f 18bc
00000020: 89b9 93bf 90e9 9cbf 24a9 86bf ab61 91bf
00000030: 1bbe b8bf ccf9 26c0 49b8 28c0 3468 8dbf
00000040: dbec 95bf c74e 76bf 6b16 11bf b45a d2bf
00000050: 3a55 bdbf 5bf2 26c0 e904 20c0 f964 c6bf
00000060: cf9e a7bf e7ba 7fbf e361 9dbf c725 acbf
00000070: 7002 b7bf 8d22 16c0 c7cb 31c0 af36 bfbf
00000080: cd6e fbbf 7d79 d8bf 580d 07c0 08d6 f5bf
00000090: 38f1 f0bf 5257 34c0 f95f 36c0 fe4b 15c0
000000a0: c880 51c0 e6cb e7bf fa02 1ec0 9ae7 bebf
000000b0: ea32 36c0 239b 2bc0 63d4 9cc0 cd9a 92c0
000000c0: e06b e6c0 cb09 8ac0 4dda 09c1 4e8d 4ac0
000000d0: 8fca 0fc0 f9b0 44c1 eebe 463f 2152 03bf
000000e0: 3a45 2f3c 8671 023c 2bed 0ebd b848 073d
000000f0: e9cb 03bd 0c24 fc3b 31f0 5cbc 1aab 6d3c
00000100: 91ee 68bf 6bae 40bf c0e1 9fbe fa3e abbe
00000110: 6a7b 0fbf 137f a5bf 6d1e 873e 0918 1ebf
00000120: 9842 61be 17a6 2e3e 3ca0 a9be bbb1 c6be
00000130: 7ce9 94bd 7bfe 24bf 31be b1bf e357 45bf
00000140: 9da6 56be 8616 3bbf 5e57 7ebe 63a7 18bd
00000150: 4479 91bd d5a6 1e3b 65ab d4be c883 103e
00000160: 9ab8 e6be 8b50 b1bd 83a5 b2be 30b8 033d
00000170: 9ab8 823e d89d 423e 720c ec3d a151 abbe
00000180: e45f 693d 805a abbd 3853 01bf c32d 22bf
00000190: fafb a33c 05af 81be 7a23 193f dc94 11bf
000001a0: 23ba 90bb 822a 17bf 0737 57bf 4c0a 8abe
000001b0: c021 8f3e 7e3d e7bf ce79 f3c0 31c1 88c0
000001c0: 040b a8bf a4f3 18c0 4d0d 67be 1313 52bf
000001d0: 3e2f 86bf dfad f8bf e3d5 d93e f7e8 90bf
000001e0: 46cb 71bf 8f44 ecbf 2f22 c1bf 2404 eabe
000001f0: fb35 babf c564 36c0 cc21 523e 1e15 b13e
00000200: 607d e73e c4cb 0abf a95c 06bf 07c8 e1be
00000210: 6805 b3bd 467e aebf a055 96bf 0146 88bf
00000220: c213 7bbf 23aa dabd 277c ebbe 42ee c4bd
00000230: 7e10 06bf 5f7c 43bf a382 b5bf 9061 f3bf
00000240: 4af2 58be df02 f0be 105c 9fbe 737b 06bf
00000250: 11f8 09bf 4ff4 9abe 6717 b6bf e2e3 9abf
00000260: 6fd5 b53e 81fe 7ebe 151f 42bf a81c ecbe
00000270: 34cb afbe c4d3 88bf ac6f bdbe 4ca7 f5bf
00000280: d687 0abc a39c 103e a7e8 e2be 1968 89bf
00000290: cf7a c7be 39bb 84be 5965 87bf bb94 1abf
000002a0: ed98 a5bf 15ef 87be 2338 63be c372 e6be
000002b0: 35d2 02be 93df 65bf a2c7 88bf e9f6 b4bf
000002c0: 4119 9dbe 9a1f 38be 8634 38bf 162b febd
000002d0: 06fa 23bf 0ab9 c4bf f8dc babe de77 2fc0
000002e0: 8568 a1be 239c 0ec0 d4b1 4d3e 38aa 90bf
000002f0: a5f1 9cbe ade6 b4bf 36db d2be 278a b43e
00000300: b772 96c0 839a 84c0 a2a8 87c0 0f71 8ec0
00000310: db30 8ec0 6cc9 93c0 6555 90c0 902a 8ec0
00000320: fb00 9cc0 2a89 90c0 8daf 92c0 dbfc 8cc0
00000330: 8176 8ac0 9e7c 88c0 4b8f 96c0 922f 87c0
00000340: 42b8 8dc0 dd84 71c0 1fd8 81c0 d1ff 68c0
00000350: 5f67 72c0 69cd 61c0 548c 4cc0 af53 47c0
00000360: 9e4a 8cc0 46a9 6bc0 de54 62c0 0925 80c0
00000370: 3377 65c0 c473 58c0 30d5 20c0 a972 2ec0
00000380: effc 99c0 e3fc 90c0 0b44 8bc0 acb5 8fc0
00000390: 00a2 55c0 1751 66c0 8079 53c0 a712 3cc0
000003a0: d5ae 8dc0 93a1 87c0 94bf 8cc0 8d6c 94c0
000003b0: 3c9d 8cc0 097a 8ac0 0a08 4ac0 4ee1 3fc0
000003c0: 7291 a4c0 ef22 a0c0 4160 a8c0 7850 a5c0
000003d0: 5c44 8fc0 37f1 a5c0 8735 f2c0 ff74 8dc0
000003e0: 9018 aac0 61a0 d5c0 9df7 d1c0 80fc cfc0
000003f0: 763b b1c0 34b3 95c0 d7b6 a5c0 c749 8ec0

fc1.bias f4 [128]
-6.0402765 -23.037394 -10.914738 -10.597654 -26.072649 -9.263739 -12.063032 -11.069239
-12.028651 -9.378714 -10.568378 -10.318084 -6.230439 -9.577878 -18.826962 -13.1929035
-17.654327 -9.79249 -9.9009285 -12.403909 -11.8298025 -10.582931 -9.482197 -16.007378
-7.7952785 -4.7175694 -14.342188 -22.593323 -5.944017 -16.508686 -12.802424 -3.296034
-14.842404 -6.7593265 -9.880907 -6.398185 -10.067125 -13.3583 -13.934076 -12.628599
-2.8588228 -15.168061 -7.8882017 -0.9642596 -16.26893 -8.2128935 -0.3090137 -9.016474
-0.21893202 -19.162508 -11.093525 -7.750923 -16.84451 -23.40941 -8.1870165 -16.620268
-16.830273 -6.110649 -4.30085 -7.7957625 -11.546053 -5.198388 -9.955788 -28.967115
-6.0111375 -13.828344 -21.185225 -15.807651 -3.8648994 -12.804315 -21.598755 -11.341147
-5.907458 -7.7081122 -8.207374 -12.099992 -10.001502 -6.7995358 -26.07421 -7.4069924
-6.8835135 1.5832729 -8.049187 -14.796802 -9.537631 -8.66428 -4.332013 -12.787755
-9.553506 -5.0615554 -12.22246 -7.4535666 -7.014946 -4.9117785 -15.287656 -11.834312
-13.962878 -13.149315 -27.579004 -17.23433 -13.427838 -14.461437 -5.705286 -7.0072513
-9.102394 -10.644066 -13.647576 -20.181265 -8.970476 -14.070848 -11.562098 -12.207571
-12.250536 -19.212368 -8.339185 -8.541529 -5.7951107 -3.2331614 -4.08496 -10.284194
-9.535853 -9.849158 -10.157793 -11.26744 -7.770112 -9.447003 -11.271124 -14.416651
00000000: f249 c1c0 954c b8c1 c4a2 2ec1 fe8f 29c1
00000010: c994 d0c1 4638 14c1 2e02 41c1 9a1b 31c1
00000020: 5b75 40c1 360f 16c1 1418 29c1 df16 25c1
00000030: c25f c7c0 fd3e 19c1 9e9d 96c1 2216 53c1
00000040: 103c 8dc1 0aae 1cc1 346a 1ec1 6976 46c1
00000050: df46 3dc1 af53 29c1 14b7 17c1 1c0f 80c1
00000060: ec72 f9c0 54f6 96c0 9a79 65c1 20bf b4c1
00000070: 6335 bec0 ca11 84c1 bbd6 4cc1 39f2 52c0
00000080: 7d7a 6dc1 674c d8c0 3218 1ec1 eebd ccc0
00000090: f212 21c1 99bb 55c1 faf1 5ec1 be0e 4ac1
000000a0: f4f6 36c0 61b0 72c1 266c fcc0 b8d9 76bf
000000b0: c526 82c1 0368 03c1 0b37 9ebe 7a43 10c1
000000c0: b72f 60be d14c 99c1 147f 31c1 9007 f8c0
000000d0: 8ec1 86c1 7946 bbc1 05fe 02c1 4ff6 84c1
000000e0: 66a4 86c1 708a c3c0 90a0 89c0 e376 f9c0
000000f0: a2bc 38c1 3259 a6c0 e84a 1fc1 a7bc e7c1
00000100: 3d5b c0c0 e640 5dc1 577b a9c1 23ec 7cc1
00000110: 835a 77c0 79de 4cc1 40ca acc1 5775 35c1
00000120: e509 bdc0 dba8 f6c0 6751 03c1 9199 41c1
00000130: 2706 20c1 cc95 d9c0 fb97 d0c1 1506 edc0
00000140: be45 dcc0 b0a8 ca3f 78c9 00c1 b3bf 6cc1
00000150: 239a 18c1 e4a0 0ac1 da9f 8ac0 a59a 4cc1
00000160: 29db 18c1 43f8 a1c0 328f 43c1 9e83 eec0
00000170: 707a e0c0 4a2d 9dc0 3d9a 74c1 5859 3dc1
00000180: f367 5fc1 9863 52c1 cda1 dcc1 e8df 89c1
00000190: 6dd8 56c1 0c62 67c1 b491 b6c0 673b e0c0
000001a0: 68a3 11c1 184e 2ac1 795c 5ac1 3b73 a1c1
000001b0: 1287 0fc1 3222 61c1 5afe 38c1 3652 43c1
000001c0: 3202 44c1 eeb2 99c1 4d6d 05c1 1aaa 08c1
000001d0: 8c71 b9c0 1eec 4ec0 feb7 82c0 0f8c 24c1
000001e0: db92 18c1 2796 1dc1 5286 22c1 6f47 34c1
000001f0: c2a4 f8c0 ed26 17c1 8656 34c1 9aaa 66c1

fc2.weight f4 [1, 128]
-0.057729773 0.08131621 0.032715064 0.06052183 -0.06272972 0.042610012 0.031689312 0.032368064
-0.049324304 0.019190352 0.034393996 -0.034058686 -0.061804276 0.031045133 -0.041168846 0.033406734
-0.027819091 -0.031745873 0.17456381 0.032234456 -0.03776217 0.19319658 -0.05914935 -0.045484588
-0.038994957 -0.04548604 -0.045037188 -0.03560894 0.1122506 -0.03191732 -0.033071093 0.054485295
0.027879154 -0.032108545 -0.06844917 -0.046598647 -0.0384861 0.046061017 -0.026918812 0.14311756
0.07131048 -0.02265498 0.043437425 0.037279893 -0.02351325 0.044504944 -0.13114649 -0.054224826
-0.19804691 0.04464553 -0.2887791 -0.03440509 -0.052328322 -0.046136223 0.04573294 0.050632462
-0.057444245 0.03890743 0.122305356 0.013303707 -0.030414166 0.059528552 0.035076715 0.11691247
0.03745964 -0.03811448 0.025503267 -0.022669252 0.08979659 0.043570016 -0.061543193 0.025760207
-0.059743386 0.0407494 0.08320399 -0.019441077 0.03153463 0.040986057 -0.053265728 -0.15910657
-0.043674063 0.10107043 -0.03603947 0.02864649 0.045608256 -0.03136684 0.038944572 -0.025376214
0.03780279 0.026788162 -0.027067924 0.03809253 -0.04443859 -0.061767906 -0.047027044 0.02589854
-0.052795958 0.036213074 -0.030026738 0.03316596 -0.054258645 -0.020716237 0.048090525 0.048833806
-0.036121137 0.035186607 0.073467456 0.09284799 -0.032705583 -0.02507545 0.04452963 -0.19204383
0.3182837 0.07091833 0.019881723 -0.1835521 -0.07649502 -0.12528257 0.04632113 0.05344055
-0.03836791 -0.04519497 -0.04153378 -0.06388234 -0.06388239 -0.12006528 0.032283396 0.04221865
00000000: 0e76 6cbd 1d89 a63d 3b00 063d bde5 773d
00000010: 7078 80bd d687 2e3d a7cc 013d 6094 043d
00000020: 4808 4abd 1635 9d3c b8e0 0c3d 1f81 0bbd
00000030: 7b26 7dbd 5d52 fe3c aaa0 28bd 80d5 083d
00000040: dde4 e3bc f607 02bd dbc0 323e 4708 043d
00000050: 81ac 1abd 53d5 453e 9746 72bd 0c4e 3abd
00000060: 2db9 1fbd 924f 3abd ea78 38bd aeda 11bd
00000070: a4e3 e53d bcbb 02bd 8e75 07bd f92b 5f3d
00000080: d362 e43c 4084 03bd 142f 8cbd 39de 3ebd
00000090: 9aa3 1dbd 7aaa 3c3d d784 dcbc 698d 123e
000000a0: 3b0b 923d f096 b9bc 71eb 313d cdb2 183d
000000b0: dc9e c0bc d14a 363d 444b 06be da1a 5ebd
000000c0: cfcc 4abe 3bde 363d dbda 93be 5aec 0cbd
000000d0: 3956 56bd 56f9 3cbd 7752 3b3d fc63 4f3d
000000e0: a84a 6bbd 665d 1f3d 3b7b fa3d cbf7 593c
000000f0: 2127 f9bc 36d4 733d 9aac 0f3d ce6f ef3d
00000100: 486f 193d ee1d 1cbd 3aec d03c deb4 b9bc
00000110: 46e7 b73d 7976 323d b714 7cbd 1207 d33c
00000120: 7bb5 74bd d8e8 263d da66 aa3d e542 9fbc
00000130: 752a 013d ffe0 273d 2a2d 5abd d5ec 22be
00000140: 93e3 32bd 03fe ce3d 209e 13bd 0bac ea3c
00000150: b9cf 3a3d 847a 00bd 5884 1f3d c7e1 cfbc
00000160: 19d7 1a3d d972 db3c 8dbd ddbc ea06 1c3d
00000170: 3d05 36bd 5800 7dbd 6e9f 40bd 2d29 d43c
00000180: 9340 58bd 2954 143d a2fa f5bc 08d9 073d
00000190: 503e 5ebd 19b5 a9bc 92fa 443d f505 483d
000001a0: c2f3 13bd d51f 103d 1b76 963d 1627 be3d
000001b0: 4af6 05bd 086b cdbc b464 363d 23a7 44be
000001c0: 15f6 a23e a13d 913d ffde a23c 15f5 3bbe
000001d0: 6ca9 9cbd 134a 00be 3abb 3d3d 7ae4 5a3d
000001e0: ab27 1dbd 5c1e 39bd 531f 2abd bfd4 82bd
000001f0: c5d4 82bd c9e4 f5bd 983b 043d 77ed 2c3d
