resources/models/1L-128.pth (torch, 402220 bytes, 3 tensors)

fc1.weight f4 [128, 768]
0.033849344 -0.009083179 -0.004880026 0.017247811 0.0021856187 -0.025695046 -0.020922508 -0.00928109
-0.71613157 -0.97856146 -0.6445239 -0.6950834 -1.0881265 -2.6045592 -2.2460082 -1.350678
-0.77965593 -0.63690317 -0.46988595 -1.1416675 -1.1657735 -2.4609675 -2.2858987 -1.7523528
-0.97189605 -0.7367486 -1.0712156 -1.0776618 -1.1051881 -2.261304 -2.9250083 -1.7135574
-1.2009882 -1.4469261 -1.2827172 -1.7319698 -1.4668825 -2.3770115 -2.818919 -1.7810308
-2.399995 -2.6763594 -2.0703943 -2.0755281 -1.7004955 -2.0605464 -5.681121 -5.2893634
-6.07975 -5.633045 -8.9085655 -7.959364 -2.365555 -9.261718 2.6499014 -1.2067347
0.010697657 0.007961636 -0.03489415 0.033028334 -0.032176886 0.007694727 -0.0134850005 0.014506126
-0.5913851 -0.86647326 -0.5437922 -1.2902199 -1.2557834 -1.1883762 -0.709124 -1.371053
-1.0927083 -0.55276227 -0.95100516 -0.8966728 -0.8214092 -1.1371683 -1.1104155 -1.2329124
-0.3604258 -1.0159922 -0.53275573 -0.6867426 -1.2705235 -0.77866966 -1.3131981 -0.27260154
-0.7493473 -0.26040795 -0.9597243 -0.6531316 -0.39029214 -0.88027614 -0.7315249 -1.1192839
-0.32513097 -0.8960998 -0.75091904 -1.4871411 -0.5692725 -1.4177109 -0.60204333 -1.5319556
-0.7046454 -1.3413494 -0.8043938 -0.61944634 -0.57872415 -2.3105834 -6.0465126 -3.4208186
-1.5648812 -2.3979104 -1.176494 -1.7219566 -2.1032808 -2.5330734 -0.7544812 -1.5853187
-1.2750251 -1.6898413 -1.2211632 -1.033162 -1.65033 -3.4870746 -1.048899 -2.6865547
-0.29864815 -1.5082514 -0.8159221 -1.0609293 -0.66293514 -1.644238 -0.7496913 -1.2008858
-2.4138675 -0.81256324 -1.3602036 -0.3349501 -1.3205253 -0.88613963 -1.1164179 -1.713226
-0.582962 -1.7224276 -0.79319143 -1.4339491 -0.50769293 -0.6588011 -1.3878318 -2.0632253
-1.2018813 -0.614916 -1.9894601 -0.6959146 -1.2433329 -1.2593601 -1.1224369 -2.1871567
-0.24095364 -0.7433592 -0.8165885 -1.3230187 -0.7029568 -0.8418066 -1.2540505 -1.5856937
-2.271822 -0.42518565 -0.6990359 -0.7799559 -0.6647212 -1.4777718 -3.095116 -2.7127361
-1.1865844 -0.93139666 -1.1728277 -1.0845821 -1.0335203 -3.6293406 -1.4833068 -3.4410017
-1.3697891 -1.8478625 -1.2418855 -1.4307001 -1.624366 -1.5379229 -1.6753149 -1.3587738
-3.597607 -3.420634 -3.2923622 -3.4538996 -3.4959877 -3.5898051 -3.438919 -4.0676556
-3.568573 -2.9529324 -3.1414607 -3.3332467 -2.8857217 -3.0122926 -3.1405916 -3.1361952
-3.2883823 -2.6909342 -2.3479176 -2.9424849 -2.6858366 -2.3743267 -1.7701861 -2.1622827
-3.0304887 -2.5931225 -2.698842 -3.0966415 -2.528992 -1.7852087 -1.7053497 -1.1047513
-3.512222 -3.0670469 -3.1834297 -3.0925708 -2.4588068 -1.6560004 -2.4736972 -1.5114765
-3.049512 -3.3258693 -2.8495977 -3.4686882 -2.972756 -3.1443908 -1.584226 -1.2003806
-3.5345352 -3.4490216 -3.4215283 -3.35078 -2.876893 -2.971988 -3.5831468 -2.3878295
-3.665063 -3.5482023 -3.8688982 -4.1031504 -2.76214 -3.4445179 -2.6809893 -2.2953162
00000000: 9ca5 0a3d 9dd1 14bc a0e8 9fbb 484b 8d3c
00000010: 993c 0f3b 6b7e d2bc ae65 abbc b70f 18bc
00000020: 6654 37bf 0183 7abf 85ff 24bf fcf0 31bf
00000030: bb47 8bbf 19b1 26c0 99be 0fc0 04e3 acbf
00000040: 8897 47bf 160c 23bf e494 f0be 2922 92bf
00000050: 1138 95bf 7e80 1dc0 2a4c 12c0 194d e0bf
00000060: 2ece 78bf 8e9b 3cbf 981d 89bf d2f0 89bf
00000070: ce76 8dbf 34b9 10c0 5633 3bc0 d955 dbbf
00000080: fbb9 99bf e034 b9bf 1430 a4bf 30b1 ddbf
00000090: cec2 bbbf f520 18c0 2b69 34c0 d1f8 e3bf
000000a0: 8599 19c0 7949 2bc0 5781 04c0 74d5 04c0
000000b0: d6a9 d9bf fedf 03c0 becb b5c0 7742 a9c0
000000c0: 508d c2c0 e841 b4c0 7c89 0ec1 1cb3 fec0
000000d0: 4165 17c0 ff2f 14c1 fc97 2940 4876 9abf
000000e0: 3a45 2f3c 8671 023c 2bed 0ebd b848 073d
000000f0: e9cb 03bd 0c24 fc3b 31f0 5cbc 1aab 6d3c
00000100: 0465 17bf 31d1 5dbf f735 0bbf ed25 a5bf
00000110: 83bd a0bf b61c 98bf 2789 35bf aa7e afbf
00000120: dedd 8bbf d481 0dbf 1375 73bf 598c 65bf
00000130: e047 52bf bb8e 91bf 1822 8ebf 13d0 9dbf
00000140: bb89 b8be 080c 82bf ae62 08bf 5dce 2fbf
00000150: 84a0 a2bf e556 47bf e016 a8bf 6e92 8bbe
00000160: 3ad5 3fbf 3154 85be 7eb0 75bf a233 27bf
00000170: 5fd4 c7be c759 61bf 3745 3bbf b244 8fbf
00000180: 9177 a6be cc66 65bf 3b3c 40bf a45a bebf
00000190: d8bb 11bf 8d77 b5bf 831f 1abf 1f17 c4bf
000001a0: a463 34bf 56b1 abbf c1ec 4dbf 0994 1ebf
000001b0: 4427 14bf 99e0 13c0 087d c1c0 b1ee 5ac0
000001c0: 074e c8bf 5d77 19c0 5b97 96bf 1369 dcbf
000001d0: 279c 06c0 e01d 22c0 ae25 41bf b9eb cabf
000001e0: 0634 a3bf b84c d8bf 134f 9cbf a73e 84bf
000001f0: 033e d3bf 3b2c 5fc0 5342 86bf 83f0 2bc0
00000200: 69e8 98be 620e c1bf 45e0 50bf 88cc 87bf
00000210: 1eb6 29bf 6476 d2bf c5eb 3fbf a0b6 99bf
00000220: ce7c 1ac0 2504 50bf 271b aebf 947e abbe
00000230: f906 a9bf 0cda 62bf c8e6 8ebf fd4a dbbf
00000240: ff3c 15bf 8278 dcbf 980e 4bbf a58b b7bf
00000250: 2af8 01bf 30a7 28bf 79a4 b1bf e20b 04c0
00000260: 3fd7 99bf 236b 1dbf a1a6 febf 7627 32bf
00000270: 8825 9fbf b632 a1bf 03ac 8fbf 60fa 0bc0
00000280: 8dbc 76be ca4c 3ebf f20b 51bf ad58 a9bf
00000290: faf4 33bf a380 57bf ba84 a0bf 03f8 cabf
000002a0: 8865 11c0 efb1 d9be 04f4 32bf 31ab 47bf
000002b0: 2b2b 2abf a027 bdbf 6116 46c0 789d 2dc0
000002c0: ffe1 97bf 0370 6ebf 381f 96bf 96d3 8abf
000002d0: 654a 84bf 1e47 68c0 ffdc bdbf 5f39 5cc0
000002e0: 4055 afbf c286 ecbf 1bf6 9ebf 2e21 b7bf
000002f0: 3aeb cfbf a8da c4bf b870 d6bf 4dec adbf
00000300: 313f 66c0 abeb 5ac0 10b6 52c0 b10c 5dc0
00000310: 43be 5fc0 5ebf 65c0 4017 5cc0 3c2a 82c0
00000320: 8063 64c0 d8fc 3cc0 b10d 49c0 ea53 55c0
00000330: aaaf 38c0 67c9 40c0 74ff 48c0 6cb7 48c0
00000340: db74 52c0 4438 2cc0 4844 16c0 ac51 3cc0
00000350: bfe4 2bc0 f8f4 17c0 7595 e2bf d762 0ac0
00000360: 87f3 41c0 b8f5 25c0 d4b9 2cc0 602f 46c0
00000370: 01db 21c0 b881 e4bf e648 dabf 7e68 8dbf
00000380: 3fc8 60c0 7f4a 44c0 50bd 4bc0 aeec 45c0
00000390: 175d 1dc0 d2f7 d3bf 0e51 1ec0 1078 c1bf
000003a0: 342b 43c0 0bdb 54c0 cf5f 36c0 fdfe 5dc0
000003b0: a241 3ec0 b33d 49c0 ebc7 cabf 12a6 99bf
000003c0: d335 62c0 c5bc 5cc0 52fa 5ac0 2e73 56c0
000003d0: 041f 38c0 0d35 3ec0 4752 65c0 33d2 18c0
000003e0: 6490 6ac0 bf15 63c0 079c 77c0 024d 83c0
000003f0: e7c6 30c0 fb72 5cc0 5495 2bc0 76e6 12c0

fc1.bias f4 [128]
-4.967003 -15.983454 -7.5026274 -7.730068 -20.601952 -7.733309 -11.315998 -7.9229345
-9.6247635 -5.7150326 -7.649651 -8.219734 -4.634099 -6.8940377 -13.939233 -9.222688
-14.62822 -8.303996 -7.248063 -10.134008 -9.409706 -4.928835 -7.708811 -12.253914
-5.6082497 -3.7468107 -12.145906 -17.696955 -5.959583 -13.742564 -9.860341 -2.6031387
-12.300891 -4.9711637 -7.7958927 -5.630922 -8.732099 -10.7613945 -11.2761345 -7.4824195
-3.062744 -10.914301 -7.319113 0.58646333 -12.844243 -6.913236 -4.6602955 -7.6228166
0.5154618 -15.237205 -6.898736 -5.507491 -15.362635 -19.370775 -6.5616503 -12.66243
-12.450136 -5.228304 -5.0556283 -5.774893 -10.444744 -3.8307571 -7.8774962 -12.900804
-5.0758915 -11.042668 -17.763033 -12.620145 -3.1144257 -9.912385 -17.806782 -9.109072
-5.670795 -4.8751316 -7.6035876 -10.045056 -7.0863113 -5.732513 -19.294605 -7.399448
-5.5281405 2.7514992 -6.8646092 -11.3142805 -5.6516213 -7.2162733 -3.6268938 -9.920458
-7.5315943 -3.9938684 -10.416559 -5.1480074 -6.5901113 -4.5028596 -11.228531 -8.916423
-8.940665 -9.419165 -20.007875 -13.512762 -12.219978 -11.328897 -4.272013 -4.921471
-7.156427 -7.198133 -10.933817 -13.860441 -7.545843 -7.6216245 -7.468112 -7.598103
-1.0992315 -15.789009 -6.1419816 -6.395401 -4.340867 -3.646892 -4.1747994 -8.753106
-7.143052 -8.121167 -8.535511 -9.558023 -7.078497 -8.62598 -8.35869 -11.30056
00000000: b0f1 9ec0 3abc 7fc1 8615 f0c0 b85c f7c0
00000010: ccd0 a4c1 4477 f7c0 540e 35c1 ae88 fdc0
00000020: 08ff 19c1 8ce1 b6c0 f1c9 f4c0 0884 03c1
00000030: 8a4a 94c0 f59b dcc0 1907 5fc1 2190 13c1
00000040: 300d 6ac1 2bdd 04c1 22f0 e7c0 e624 22c1
00000050: 288e 16c1 04b9 9dc0 94ae f6c0 0810 44c1
00000060: c876 b3c0 bfcb 6fc0 a255 42c1 5d93 8dc1
00000070: e7b4 bec0 8be1 5bc1 f5c3 1dc1 d399 26c0
00000080: 73d0 44c1 c613 9fc0 f477 f9c0 8330 b4c0
00000090: adb6 0bc1 ac2e 2cc1 0c6b 34c1 fb6f efc0
000000a0: ff03 44c0 faa0 2ec1 2c36 eac0 7622 163f
000000b0: 0582 4dc1 3b39 ddc0 2421 95c0 1dee f3c0
000000c0: 4ef5 033f 97cb 73c1 72c2 dcc0 5e3d b0c0
000000d0: 5acd 75c1 59f7 9ac1 0af9 d1c0 5099 4ac1
000000e0: c233 47c1 444e a7c0 b5c7 a1c0 eccb b8c0
000000f0: ac1d 27c1 202b 75c0 7314 fcc0 b169 4ec1
00000100: b46d a2c0 c5ae 30c1 b11a 8ec1 1dec 49c1
00000110: c052 47c0 2199 1ec1 4a74 8ec1 c2be 11c1
00000120: 2777 b5c0 1401 9cc0 9750 f3c0 8db8 20c1
00000130: 10c3 e2c0 bf70 b7c0 5a5b 9ac1 47c8 ecc0
00000140: 87e6 b0c0 9018 3040 e1aa dbc0 4b07 35c1
00000150: 15da b4c0 b6eb e6c0 071f 68c0 32ba 1ec1
00000160: d202 f1c0 8a9b 7fc0 3aaa 26c1 7abc a4c0
00000170: 31e2 d2c0 6d17 90c0 10a8 33c1 aba9 0ec1
00000180: f70c 0fc1 e6b4 16c1 2110 a0c1 4634 58c1
00000190: 0885 43c1 2a43 35c1 55b4 88c0 b17c 9dc0
000001a0: 7301 e5c0 1b57 e6c0 eaf0 2ec1 5ec4 5dc1
000001b0: 8c77 f1c0 59e4 f3c0 c6fa eec0 a923 f3c0
000001c0: 9eb3 8cbf c89f 7cc1 1d8b c4c0 20a7 ccc0
000001d0: 62e8 8ac0 ae66 69c0 f597 85c0 b90c 0cc1
000001e0: e293 e4c0 4df0 01c1 7491 08c1 aaed 18c1
000001f0: 0c83 e2c0 0404 0ac1 32bd 05c1 18cf 34c1

fc2.weight f4 [1, 128]
-0.07205654 0.07509214 0.053619333 0.07820009 -0.08718026 0.05585663 0.04108098 0.035699107
-0.041740317 0.062997445 0.032732554 -0.04066397 -0.072482 0.03808394 -0.026459405 0.025899896
-0.0326264 -0.033219267 0.22455886 0.04291079 -0.03066361 0.1670116 -0.059414096 -0.027290689
-0.04850887 -0.0537894 -0.051935684 -0.019013654 0.08965549 -0.045576174 -0.02658701 0.06458416
0.02563943 -0.061165113 -0.10902592 -0.043513246 -0.0666568 0.040738285 -0.027024575 0.15943193
0.12952031 -0.020455288 0.055077374 0.0414447 -0.0323033 0.04802825 -0.03981469 -0.05781538
-0.19146182 0.051438227 -0.22560567 -0.0432312 -0.053911764 -0.06042226 0.04122756 0.083962
-0.041158866 0.06026187 0.06310391 0.042380776 -0.03221467 0.06265164 0.035175707 0.08459762
0.04498626 -0.040663727 0.03190189 -0.037215933 0.073711336 0.04076078 -0.075658515 0.025101822
-0.04936609 0.05178715 0.10716558 -0.029804971 0.037871968 0.05017723 -0.05286125 -0.18359688
-0.05554305 0.084725656 -0.042750172 0.04268315 0.050153416 -0.034041617 0.053094275 -0.037795715
0.03199156 0.036678106 -0.04512755 0.04135959 -0.05725625 -0.06469305 -0.052038524 0.040666565
-0.04710789 0.032674614 -0.043582957 0.035073195 -0.047633726 -0.03228835 0.05089141 0.046556618
-0.048376665 0.042144965 0.084748425 0.08738951 -0.04340684 -0.03977615 0.032451574 -0.25222993
0.09535482 0.08111116 0.041897662 -0.23074695 -0.089577354 -0.17793544 0.060342114 0.04036673
-0.05255907 -0.05423118 -0.043579843 -0.055154108 -0.060990673 -0.12075147 0.032769766 0.04793797
00000000: 6192 93bd e8c9 993d f29f 5b3d 5e27 a03d
00000010: 908b b2bd ecc9 643d 8844 283d 3a39 123d
00000020: e5f7 2abd ce04 813d 9212 063d 438f 26bd
00000030: 7171 94bd e8fd 1b3d 65c1 d8bc 052c d43c
00000040: 43a3 05bd ed10 08bd c2f2 653e 39c3 2f3d
00000050: 4032 fbbc 1705 2b3e 325c 73bd b990 dfbc
00000060: 3db1 46bd 4652 5cbd 83ba 54bd 86c2 9bbc
00000070: 4c9d b73d 15ae 3abd 00cd d9bc b344 843d
00000080: c809 d23c 4588 7abd fb48 dfbd f23a 32bd
00000090: 5c83 88bd 30dd 263d a462 ddbc 2042 233e
000000a0: f9a0 043e d991 a7bc d098 613d ebc1 293d
000000b0: 7750 04bd 45b9 443d ba14 23bd d2cf 6cbd
000000c0: 910e 44be e4b0 523d 2c05 67be 3313 31bd
000000d0: 95d2 5cbd 557d 77bd 3bde 283d 45f4 ab3d
000000e0: 3396 28bd 27d5 763d 9f3c 813d 7797 2d3d
000000f0: 88f3 03bd 814f 803d 6714 103d 8441 ad3d
00000100: 8343 383d 028f 26bd 8eab 023d bc6f 18bd
00000110: f8f5 963d c7f4 263d daf2 9abd 56a2 cd3c
00000120: 1934 4abd c31e 543d a179 db3d 8e29 f4bc
00000130: a31f 1b3d a486 4d3d 0a85 58bd d200 3cbe
00000140: 1c81 63bd a584 ad3d ce1a 2fbd 87d4 2e3d
00000150: ab6d 4d3d 396f 0bbd 6279 593d aecf 1abd
00000160: 9509 033d c83b 163d aad7 38bd ac68 293d
00000170: 8885 6abd ca7d 84bd 5926 55bd fc91 263d
00000180: 34f4 40bd d1d5 053d 0b84 32bd e9a8 0f3d
00000190: 951b 43bd ca40 04bd 8373 503d 27b2 3e3d
000001a0: 9c26 46bd 33a0 2c3d 9590 ad3d 45f9 b23d
000001b0: 5fcb 31bd 51ec 22bd f1eb 043d 4824 81be
000001c0: 6349 c33d 9c1d a63d e29c 2b3d ee48 6cbe
000001d0: 5574 b7bd b534 36be 4b29 773d 9657 253d
000001e0: 2e48 57bd 8421 5ebd c780 32bd 46e9 61bd
000001f0: 5bd1 79bd 8c4c f7bd 9739 063d 9b5a 443d
