resources/models/1L-128.pth (torch, 401910 bytes, 3 tensors)

fc1.weight f4 [128, 768]
00000000: 9ca5 0a3d 9dd1 14bc a0e8 9fbb 484b 8d3c
00000010: 993c 0f3b 6b7e d2bc ae65 abbc b70f 18bc
00000020: 5035 3dbf 6877 7ebf 7aed 3fbf 63eb 28bf
00000030: cf51 9dbf 4fc1 27c0 116c 0ec0 f236 adbf
00000040: b39c 47bf cb73 3abf adc1 b1be c8db 8bbf
00000050: 3d71 a0bf f73f 19c0 6391 19c0 129b dabf
00000060: c769 6cbf eeb6 37bf eb56 81bf 2d35 8abf
00000070: bb75 87bf 990f 11c0 762a 35c0 f17f debf
00000080: 495d 8fbf b89c b8bf b52d b1bf 53a6 c9bf
00000090: 8cfc aebf 4141 13c0 2cd4 2bc0 56aa e4bf
000000a0: 9d26 24c0 9c2b 34c0 e0c0 01c0 3bd5 08c0
000000b0: 7aa5 c9bf c07b fdbf aa0e b4c0 4064 a4c0
000000c0: a0f6 c2c0 86a2 b3c0 3cac 0fc1 e351 fec0
000000d0: 926c 23c0 b703 15c1 9a35 2c40 b883 83bf
000000e0: 3a45 2f3c 8671 023c 2bed 0ebd b848 073d
000000f0: e9cb 03bd 0c24 fc3b 31f0 5cbc 1aab 6d3c
00000100: 140d 0fbf 95ba 68bf cd8a 0fbf 964d 9bbf
00000110: 0566 94bf 1d9b 96bf 078b 25bf 026c c0bf
00000120: 5da3 92bf ec93 d8be 456a 75bf cf2d 55bf
00000130: 776d 50bf fff1 88bf 9b99 9dbf f204 96bf
00000140: 6e53 d1be cd3d 88bf d54c 01bf f55a 3cbf
00000150: 962b a3bf 9498 3abf 2e77 b7bf eabc a7be
00000160: a1d0 4abf 7f67 a6be 5978 44bf 3d2f 1fbf
00000170: 4b9e b7be 5f19 60bf 384c 40bf 63c1 8fbf
00000180: 404c 89be ac2d 85bf 604f 2dbf a054 c6bf
00000190: f4ce 2abf c614 aebf 5fa6 efbe cabb d0bf
000001a0: 3e11 46bf e1b5 a6bf fffe 41bf 1282 1fbf
000001b0: 3692 0ebf 33b4 17c0 a424 c2c0 1e43 56c0
000001c0: af51 b8bf a759 1cc0 b033 8bbf a253 babf
000001d0: 4d60 07c0 4cb6 22c0 0abb 62bf 5f8d cabf
000001e0: 6de6 9abf e21b e2bf 166a 9fbf 9483 7ebf
000001f0: 2ea7 d9bf 1e26 64c0 54f9 80bf 8324 27c0
00000200: 8616 bbbe 912b cdbf 2985 3dbf 191a 88bf
00000210: 85d0 12bf 0530 dcbf 54bd 41bf 242f 92bf
00000220: 7bae 1ac0 0ced 65bf 3ee0 9ebf b809 8ebe
00000230: e7ac a4bf 9ab1 65bf 3dc2 a3bf 1a01 e2bf
00000240: b7ea 21bf e9bc d4bf e53f 30bf 9e89 adbf
00000250: ef90 11bf 0a6c 29bf 941b bdbf f644 fbbf
00000260: cfa2 83bf 884f 26bf 2939 f0bf 045d 1bbf
00000270: 2fa0 95bf 1f3b aabf 4361 89bf bdb5 06c0
00000280: c5f2 57be d041 5bbf 87a1 52bf 053b aabf
00000290: b2eb 1dbf e625 71bf 3b6e a5bf 2ad6 cebf
000002a0: 2661 10c0 bb05 d5be fc55 29bf 2c1d 36bf
000002b0: f8ab 23bf 11e6 b4bf 535c 41c0 575e 2cc0
000002c0: be1a 9dbf 8128 3ebf b22b 9fbf b916 8dbf
000002d0: ed47 68bf 0b15 67c0 ba94 c3bf 572e 5ac0
000002e0: 0dd9 aebf 3def ecbf 58d3 8dbf aa44 b7bf
000002f0: 219e c8bf a2e3 c4bf 4386 cfbf a009 9bbf
00000300: 9715 6bc0 1866 56c0 a40b 4fc0 ba17 61c0
00000310: 857d 60c0 9359 6ac0 72e3 58c0 e3df 83c0
00000320: 83c3 61c0 6f4e 3cc0 7944 49c0 f646 56c0
00000330: fe06 32c0 5f7e 38c0 447e 40c0 044c 43c0
00000340: 0e4a 46c0 dd5b 2bc0 5b68 27c0 ee29 39c0
00000350: e34b 20c0 5e58 19c0 c575 f7bf c6cd 0ac0
00000360: 22ba 3fc0 e51f 25c0 86ce 23c0 b156 4ac0
00000370: 357a 1bc0 39c8 eebf f9fd d0bf 7294 8ebf
00000380: b8be 5bc0 55a0 4bc0 81ca 4ac0 ce71 46c0
00000390: 63ff 18c0 03a0 d0bf f573 1bc0 1a01 c3bf
000003a0: 3150 45c0 18de 49c0 1b6e 35c0 a846 63c0
000003b0: 7af5 38c0 4e44 49c0 20a3 cfbf bbb7 9fbf
000003c0: a6d8 61c0 4ecf 5fc0 b77a 5bc0 9af6 53c0
000003d0: 8dcc 2bc0 d0b8 4ac0 4ffc 63c0 6515 1bc0
000003e0: e95f 67c0 240e 69c0 f05f 75c0 53e1 81c0
000003f0: bdd3 30c0 d83b 58c0 0419 2ac0 105f 1cc0
0.033849344 -0.009083179 -0.004880026 0.017247811 0.0021856187 -0.025695046 -0.020922508 -0.00928109
-0.73909473 -0.9940095 -0.74971735 -0.6598417 -1.2290591 -2.6211736 -2.2253458 -1.3532393
-0.7797348 -0.72832936 -0.34718075 -1.0926447 -1.2534558 -2.394529 -2.3994987 -1.7078574
-0.92348903 -0.71763504 -1.010465 -1.0797478 -1.0582803 -2.266577 -2.8307166 -1.7382795
-1.1200343 -1.4422827 -1.3842074 -1.5753883 -1.3670821 -2.3008578 -2.684825 -1.7864482
-2.5648568 -2.8151617 -2.0273972 -2.1380146 -1.5753624 -1.980339 -5.62679 -5.1372375
-6.0926056 -5.6135893 -8.979549 -7.947496 -2.5535016 -9.313407 2.6907716 -1.0274572
0.010697657 0.007961636 -0.03489415 0.033028334 -0.032176886 0.007694727 -0.0134850005 0.014506126
-0.5587933 -0.909097 -0.5607117 -1.2133052 -1.1593634 -1.1766087 -0.64665264 -1.5032961
-1.1456105 -0.42300355 -0.9586528 -0.83273023 -0.8141703 -1.0698851 -1.2312502 -1.1720259
-0.40883964 -1.064386 -0.5050786 -0.7357629 -1.2747676 -0.72889066 -1.4333246 -0.32761317
-0.7922459 -0.32500836 -0.76746136 -0.62181455 -0.35862955 -0.87538713 -0.751163 -1.1230892
-0.26815987 -1.0404563 -0.6769924 -1.5494576 -0.66722035 -1.360009 -0.4680662 -1.6307309
-0.7737006 -1.3024255 -0.7577972 -0.62307847 -0.5569185 -2.3703735 -6.0669727 -3.3478465
-1.4399928 -2.442972 -1.0875149 -1.4556773 -2.1152527 -2.5423765 -0.8856665 -1.5824393
-1.210157 -1.7664759 -1.245425 -0.9941952 -1.7004144 -3.5648265 -1.0076089 -2.6116035
-0.36540622 -1.602892 -0.7403131 -1.0632964 -0.57349426 -1.7202154 -0.75679517 -1.1420636
-2.4168994 -0.8981483 -1.2412183 -0.2774179 -1.2865266 -0.89724123 -1.2793652 -1.7656586
-0.6324877 -1.6620151 -0.68847495 -1.3557622 -0.56861776 -0.6618048 -1.4774041 -1.963042
-1.028406 -0.64965105 -1.8767444 -0.60688806 -1.1689509 -1.3299292 -1.0732807 -2.1048424
-0.21088703 -0.85647297 -0.8227772 -1.3299261 -0.6168777 -0.94198453 -1.2924265 -1.6159108
-2.2559295 -0.41605935 -0.66146827 -0.7113826 -0.6393428 -1.4132711 -3.02126 -2.693258
-1.2273786 -0.74280554 -1.243521 -1.102256 -0.9073475 -3.6106594 -1.5279763 -3.4090784
-1.3659989 -1.851051 -1.1080122 -1.431783 -1.5673257 -1.5381968 -1.6212848 -1.2112312
-3.6731927 -3.3499813 -3.2350855 -3.5170732 -3.507661 -3.6617172 -3.3888822 -4.12108
-3.527558 -2.9422872 -3.1448042 -3.348081 -2.7816768 -2.882713 -3.0077066 -3.0515146
-3.09827 -2.677482 -2.6157444 -2.8931842 -2.5046318 -2.3960185 -1.9332815 -2.1688094
-2.9957356 -2.5800717 -2.5594802 -3.1615412 -2.429334 -1.8654853 -1.6327506 -1.1139052
-3.4335155 -3.181661 -3.1686099 -3.100696 -2.3905876 -1.6298832 -2.4289525 -1.5234711
-3.0830195 -3.1541805 -2.8348453 -3.5511875 -2.8899827 -3.144794 -1.6221657 -1.2477945
-3.5288482 -3.4970279 -3.429365 -3.3119264 -2.6843598 -3.16753 -3.5622747 -2.4231808
-3.615229 -3.641488 -3.8339806 -4.0587554 -2.7629235 -3.3786526 -2.6577768 -2.4433022

fc1.bias f4 [128]
00000000: 124e 9ec0 d390 80c1 4be2 ecc0 c75b f8c0
00000010: 2949 a5c1 ad3a f8c0 ee16 34c1 b4ff fdc0
00000020: 554b 19c1 07f6 b7c0 0bf8 f2c0 8ccc 03c1
00000030: ded7 95c0 5167 dec0 0d37 60c1 d75e 13c1
00000040: 6b30 69c1 1bbd 04c1 86c6 eac0 0131 24c1
00000050: 3231 17c1 b8b8 9fc0 5c02 f5c0 660b 46c1
00000060: c98f b3c0 0c24 74c0 e3c4 42c1 8faa 8dc1
00000070: 3592 bec0 0fa7 5bc1 8cde 1cc1 2afa 25c0
00000080: c9ca 45c1 3447 9fc0 1a6c f7c0 5a8f b4c0
00000090: f094 0bc1 804b 2cc1 49aa 33c1 4466 efc0
000000a0: b897 43c0 d02c 2ec1 7d42 e8c0 d902 223f
000000b0: 9e41 4ec1 a360 dcc0 e637 92c0 d00f f2c0
000000c0: 2b86 053f 75fa 73c1 c5b9 ddc0 036f b1c0
000000d0: 656a 74c1 1c37 9bc1 a979 d0c0 c531 4bc1
000000e0: b236 47c1 85e6 a6c0 b747 a3c0 48af b8c0
000000f0: 29a1 27c1 08ab 78c0 1d3d fbc0 8b24 4fc1
00000100: e0d8 a5c0 ddc2 2ec1 88da 8ec1 2e2e 4bc1
00000110: ccb6 49c0 f14b 1ec1 1a04 8ec1 8b00 12c1
00000120: 2883 b5c0 5bdf 99c0 d00c f1c0 d582 20c1
00000130: cc7f e2c0 ef68 b7c0 abdf 9ac1 c799 ecc0
00000140: 5ae3 b0c0 431f 3140 7a27 ddc0 123d 35c1
00000150: 7247 b5c0 8d8d e5c0 c1b6 66c0 6064 1ec1
00000160: 848b f0c0 bc35 82c0 28fc 27c1 b8e8 a4c0
00000170: f84a d1c0 261e 8dc0 692f 34c1 47f9 0ec1
00000180: d737 0ec1 a5e0 16c1 51cb a0c1 637b 59c1
00000190: d882 43c1 6308 35c1 3c89 8ac0 950b 9cc0
000001a0: a458 e5c0 4c6a e5c0 1082 30c1 e792 5dc1
000001b0: b4df f0c0 a405 f3c0 a46e efc0 95cf f3c0
000001c0: 052b 9dbf e79b 7dc1 f707 c3c0 5967 cdc0
000001d0: 9e00 8cc0 da57 69c0 0ad0 85c0 7824 0cc1
000001e0: 118a e5c0 f2ef 00c1 7009 09c1 1cbe 18c1
000001f0: 45e2 e3c0 8b52 0bc1 b33e 05c1 4330 35c1
-4.94703 -16.070715 -7.4026237 -7.7612033 -20.660723 -7.7571626 -11.255598 -7.9374638
-9.580892 -5.7487826 -7.5927787 -8.237438 -4.682601 -6.950112 -14.01344 -9.210654
-14.574321 -8.296168 -7.336734 -10.261964 -9.449511 -4.9912987 -7.656538 -12.377783
-5.611302 -3.8147001 -12.173068 -17.70828 -5.9553475 -13.728286 -9.804333 -2.5933938
-12.362008 -4.977442 -7.731946 -5.642499 -8.723862 -10.768433 -11.229074 -7.4812336
-3.0561352 -10.885941 -7.2581162 0.63285595 -12.89102 -6.8867965 -4.5693235 -7.56443
0.5215785 -15.248647 -6.928927 -5.544801 -15.275975 -19.401909 -6.514851 -12.699651
-12.450853 -5.2156396 -5.1025043 -5.7713966 -10.476846 -3.885439 -7.85121 -12.946422
-5.182724 -10.922574 -17.856705 -12.698774 -3.151782 -9.89354 -17.752003 -9.125133
-5.6722603 -4.808515 -7.532814 -10.031941 -7.0781 -5.7315593 -19.359213 -7.3937716
-5.527753 2.767533 -6.911069 -11.32741 -5.6649714 -7.173529 -3.6049044 -9.899506
-7.5170307 -4.0690594 -10.499062 -5.153408 -6.5404015 -4.40993 -11.261575 -8.935859
-8.888633 -9.429845 -20.099276 -13.592624 -12.219444 -11.314548 -4.3292522 -4.876414
-7.1670704 -7.1692257 -11.031754 -13.848365 -7.5273075 -7.5944386 -7.482256 -7.6190896
-1.2278754 -15.850562 -6.0947223 -6.4188657 -4.3750753 -3.645987 -4.1816454 -8.7589035
-7.173104 -8.05858 -8.564804 -9.546413 -7.121371 -8.707652 -8.327807 -11.324283

fc2.weight f4 [1, 128]
00000000: 9128 83bd 84bd 913d 4e12 083d f6d6 8a3d
00000010: a5d5 6ebd cf1f 293d 720e 433d b089 0c3d
00000020: b54f 30bd a7c6 2e3d 1835 293d 392d 0fbd
00000030: 6c24 63bd c414 093d 58fd d9bc 789f 683d
00000040: f4a2 11bd b0c7 2fbd 031f 843e 06d9 103d
00000050: 4660 6cbd 815e 313e aa50 80bd 9506 0abd
00000060: e399 36bd 33e1 38bd 9e27 3ebd 011d 18bd
00000070: 2055 b53d ce0f 13bd 173c e7bc b980 a93d
00000080: 8252 133d d17f 8ebd 3604 e4bd f189 43bd
00000090: f47c 45bd 0fe8 243d 7f30 cfbc 52f0 253e
000000a0: b102 093e 705c c1bc 5bb2 0c3d 989a 2c3d
000000b0: e85a 29bd 6c27 2a3d b852 31bd 54f6 67bd
000000c0: a595 42be d321 3e3d 3fa4 73be f074 26bd
000000d0: 72ee 3cbd 04bb 69bd d785 1b3d c691 9d3d
000000e0: a9e8 fcbc b2ac 503d 9d40 883d 36aa 093d
000000f0: a768 f0bc a9c8 773d b84f ef3c c285 a83d
00000100: de8b 6a3d 4ee1 cdbc aa14 623d 5c39 4dbd
00000110: f081 8b3d 0e20 233d 80b1 b2bd 2f00 0b3d
00000120: 0fa0 73bd 7c45 343d 0ea4 a93d d1ba a5bc
00000130: 6094 0c3d 8085 4b3d a850 74bd 725a 2ebe
00000140: 46a7 5dbd c7f3 9a3d c56b 50bd bf91 883d
00000150: 6d72 373d 42e8 02bd b0e6 1d3d 52ec 42bd
00000160: eb5d 2c3d 483b 153d 9346 dabc c1a5 493d
00000170: f9f5 27bd a3fc 68bd dd84 4cbd 2653 2a3d
00000180: 4d32 bebc 765f 373d fe7b 09bd f398 353d
00000190: eec9 60bd 6a38 abbc eebc 5e3d 423f 093d
000001a0: ee8a 4cbd 4bc7 833d b406 863d 9d59 8b3d
000001b0: 086f 25bd 86ff 35bd d262 423d f80b 78be
000001c0: 212e a73d 8818 9d3d 5611 7f3d 6395 6ebe
000001d0: 6eee c2bd 97a9 42be 7825 853d a6cf 323d
000001e0: bbcc 66bd 43c6 3abd 380f 0bbd f6a3 a2bd
000001f0: 5a95 6abd b4e6 03be 580a 433d 944c 403d
-0.06404222 0.07116225 0.03322058 0.06779282 -0.058309216 0.0412901 0.047621198 0.034310997
-0.043044765 0.04266992 0.0413104 -0.034955237 -0.055454656 0.03346707 -0.026610062 0.056792706
-0.035555795 -0.042915046 0.2580491 0.03536322 -0.057709 0.17321207 -0.062653854 -0.033697683
-0.04458035 -0.04513664 -0.0464245 -0.037137035 0.08854127 -0.035903744 -0.028226895 0.08276505
0.035967357 -0.06957973 -0.11133616 -0.047738973 -0.048214868 0.04026037 -0.02529168 0.16204956
0.13379933 -0.023603648 0.03434978 0.04213962 -0.04134646 0.041541502 -0.043291777 -0.0566314
-0.19002397 0.046418976 -0.23793124 -0.040638864 -0.046125837 -0.057063118 0.037969436 0.0769382
-0.03087266 0.050945945 0.06652949 0.03360959 -0.029346777 0.0604941 0.029212818 0.08228637
0.057262294 -0.025131848 0.055195488 -0.05010353 0.06811893 0.03982549 -0.08725262 0.033935722
-0.059478816 0.044011578 0.08283244 -0.020230683 0.03432119 0.049687862 -0.059647232 -0.1702669
-0.054114603 0.07566028 -0.050884027 0.06668424 0.04478686 -0.03195978 0.03855008 -0.047588654
0.042081755 0.036433488 -0.02664498 0.04923034 -0.041006062 -0.05688156 -0.049931396 0.041583203
-0.023217345 0.044768773 -0.033565514 0.044335317 -0.054880075 -0.020900924 0.054379396 0.033507593
-0.04993718 0.064344965 0.06544247 0.06804202 -0.04038909 -0.04443314 0.047457524 -0.24223316
0.08163095 0.076706946 0.062272392 -0.23299174 -0.09518133 -0.19010006 0.06501287 0.04365506
-0.05634759 -0.045599233 -0.03395006 -0.07941429 -0.05727134 -0.12880975 0.047617286 0.04694803
