resources/models/1L-256.pth (torch, 795330 bytes, 3 tensors)

fc1.weight f4 [256, 768]
00000000: bfec 5d3c 7535 e03b 6d18 13bc 096a b0bb
00000010: 2725 1a3c c47f 573b d246 393c 0234 e43c
00000020: 0ace 0d3f 59c5 583f d346 6a3f 3b09 783f
00000030: d81c d63e 96a4 50bf ab49 1fc1 e8f7 a23d
00000040: 0997 6a3f 5233 763f afe1 2d3f 474b d83e
00000050: e061 56be 39cd 1ebe c11a 19c1 c46c cf3f
00000060: 586c a33e 364c 833f 6217 163f 1899 8d3e
00000070: 378b b7bd e3f0 afbe 5b68 93c0 a112 da3f
00000080: cd0b cb3e fc4b 483f 3703 d13f f9bd 473f
00000090: 29c8 b13e d27d f7bf 815e 613f 96ef a13d
000000a0: 535c 743e 92f0 1a3e 3bf9 b93e 688d 8b3f
000000b0: a75f 8b3f 63dc 8abf d5b7 843c f3fe 943d
000000c0: 22f9 85be 4c96 e73e 997a 0e3f 2d6d 35bf
000000d0: 602a 13c0 6d1b 82bf 9e3a f13e c2d7 13be
000000e0: e043 fcbb 79cd 953c 07f2 ef3b b7cc d4bb
000000f0: 6242 133d fb89 0b3d 59c5 063d 157f 593c
00000100: b5d4 5a40 dd87 a23f 5ca9 b13f 59d4 623f
00000110: 04dd 04bf bf31 0f3e 58aa 22bd fc0d 443e
00000120: f5ad 0940 a19c d53f c855 b53f 51c5 e6bd
00000130: ea07 aebf 4dca 89be d2f6 f5be e4ca 00c0
00000140: bea1 2240 4567 903f ada0 7cbf 6958 42bf
00000150: 1e09 b7be 8404 12bf e141 82bf a7da a9be
00000160: 1d2a de3f 084c 973f bee1 1c3f a433 263f
00000170: d186 89bf 9a68 b9bf 677e bfbf 647b aebf
00000180: ee21 c83f 2f1c f13f 69bf f4be 4fe7 0fbf
00000190: 20f9 d2bf 627e 93bf 3936 a6be 0171 fcbf
000001a0: 28d5 1d3f 3739 8ebd 7f5e bdbe add6 083f
000001b0: e3b6 7dbf ce4c 03c0 5191 303e 8dfc d9bf
000001c0: 2883 f73f a783 f83e 6364 bc3f 1dc3 1a3f
000001d0: 0d4d 153f 1dc0 bcbe f756 953f ca35 0bbf
000001e0: 2193 2740 9f91 de3f f385 1c3f 1ff7 033f
000001f0: 0c3c 1d3f 0cfc 30bf 52df 7bbf aa5c 803e
00000200: 5358 0d40 afcb a43e c548 90be 88a6 1b3f
00000210: 8385 0cbf 0549 a4be d5f0 d53f e29d 1fbf
00000220: 0d96 e23e 91dd 7abd e22b 4e3f 711b 8abe
00000230: 86ab fc3e d880 d3bf 4762 29bf 4803 7dbf
00000240: 69b0 533d 2f87 463e 095e 24be 781d 10bf
00000250: c2d7 0ebf 13ad 6bbe c40a 82c0 0cde 87bf
00000260: 7df3 8c3e 4861 67be 2c79 e53d 714f a63e
00000270: dbc2 41bf d98d 7cbf 3cde acbf ca2e a0bf
00000280: 3fa5 ab3e 220c 173f 23b2 33bf 0d8a 773e
00000290: a75f 05c0 015b 1abe f7d5 b9bf 6106 103e
000002a0: 9857 63be bc2d cdbe 9af1 be3e f761 23be
000002b0: ba1d 1ebf 8682 85bf 1967 aabe c8b2 b4be
000002c0: 2bc3 9d3e e2b1 4bbf d124 3dbf 1fe6 6e3e
000002d0: e019 1c3f a105 123e 8539 953e fc26 cb3e
000002e0: c528 97bf 98ca 27bf 213c 2b3f b5aa 3e3f
000002f0: ee32 b63f 96b8 693f 397e ac3f 75d1 f13e
00000300: 274a 903e fb95 6a3f a671 753f c765 0d3f
00000310: b707 7c3f 1584 683f 8705 a1bf acfd a5bf
00000320: 30a2 613f 5b17 483f f8b1 873f 703a b63f
00000330: bb55 893f f863 4b3f 7aa7 e0bf a88d 06bd
00000340: a9e4 a13f f2f6 4a3f 3ebf 1440 7dd1 9a3f
00000350: 13ff 413f aad7 d53f 86bd 03bf e244 d0be
00000360: bf26 283f 48c8 2c3f 1558 b13f 5ab7 d93e
00000370: c03c 2a3f 6a3b 803f 3d05 d33e cc0e f13f
00000380: 7b0b 9d3f 22a5 f03e d0a0 ee3e 26d0 353f
00000390: 999d a53f 73b5 6cbf 967c 2c3e 3eac 77bf
000003a0: 1b1e f43e 812b 4f3f ba50 3d3f a988 3b3f
000003b0: 0a33 7a3f 49ad d53e 2067 1dc0 c0a0 16c0
000003c0: c81e d53f 7991 ca3f 7120 2e3f cc96 6d3f
000003d0: b6af 473f 9466 6c3f ec1d 293f d59e 64bf
000003e0: 6688 123f ce3c 993f 1d69 983e aa73 6d3f
000003f0: af73 853f 0ac8 8c3f df3e 1d3f d2c6 2dbf
0.013545214 0.00684231 -0.0089779915 -0.005383734 0.009408272 0.003288255 0.011308389 0.02785683
0.55392516 0.8467613 0.9151432 0.96889085 0.4181888 -0.8150114 -9.955485 0.079574406
0.9163671 0.9617206 0.6792249 0.42244932 -0.20935774 -0.15507974 -9.569032 1.6205068
0.31918597 1.0257633 0.5862943 0.27655864 -0.089621 -0.3436347 -4.6064887 1.7036935
0.3965744 0.7824094 1.6329106 0.7802425 0.34723023 -1.9335272 0.88034827 0.079070255
0.23863344 0.15130833 0.3632296 1.0902529 1.0888566 -1.0848507 0.01620094 0.0727519
-0.26166636 0.45231855 0.5565582 -0.70869714 -2.2994614 -1.016462 0.47115034 -0.14437774
-0.007698521 0.018286454 0.007322553 -0.0064941305 0.03595198 0.034067135 0.03290305 0.013274928
3.4192326 1.2697712 1.3879809 0.88605267 -0.51899743 0.1398382 -0.039713234 0.1914596
2.1512425 1.6688424 1.4166803 -0.11268104 -1.3596165 -0.26912156 -0.4803987 -2.0123835
2.541122 1.1281515 -0.9868267 -0.75916153 -0.35749143 -0.5703814 -1.0176355 -0.3317463
1.7356602 1.1820078 0.61281955 0.6492255 -1.0744268 -1.4485047 -1.496045 -1.3631406
1.5635355 1.8836726 -0.47802284 -0.56212324 -1.6482277 -1.1522944 -0.32463244 -1.9721986
0.61653376 -0.069445066 -0.36986157 0.5345257 -0.9910719 -2.0515628 0.17242934 -1.7030197
1.9336901 0.48537943 1.4718136 0.6045397 0.58320695 -0.3686532 1.1667165 -0.5437895
2.618355 1.738819 0.6114189 0.5154895 0.6141975 -0.69134593 -0.98387635 0.25070697
2.208516 0.32186648 -0.2818052 0.6080098 -0.5489122 -0.3208696 1.6714121 -0.62350285
0.44255105 -0.06124646 0.8053571 -0.2697406 0.49349612 -1.6523695 -0.66165584 -0.9883313
0.05168191 0.19387506 -0.16051497 -0.56294966 -0.5579797 -0.23015241 -4.063814 -1.0614638
0.27529517 -0.22595704 0.11204752 0.32482484 -0.7568795 -0.9865394 -1.350532 -1.2514279
0.3352451 0.5900289 -0.7019369 0.24173756 -2.0839632 -0.15073778 -1.4518422 0.14064933
-0.22201383 -0.40073955 0.37293702 -0.1595534 -0.6176411 -1.0430458 -0.33281782 -0.3529265
0.30812964 -0.795683 -0.738843 0.23329972 0.6097698 0.1425996 0.29145446 0.3967818
-1.1809317 -0.6554351 0.66888624 0.7447923 1.4234293 0.9129728 1.347602 0.47230116
0.28181574 0.916351 0.9587654 0.55233425 0.9844927 0.9082654 -1.2579812 -1.296804
0.88138103 0.7816064 1.0601187 1.4236584 1.0729288 0.79449415 -1.755111 -0.032849938
1.2647907 0.7928306 2.3241725 1.2095181 0.7577984 1.670644 -0.51461065 -0.40677553
0.6568412 0.67493105 1.3855006 0.425227 0.6649895 1.0018132 0.41214934 1.8832641
1.2269129 0.47000986 0.46607065 0.71020734 1.293872 -0.9246437 0.16844401 -0.96747196
0.4767922 0.80925757 0.73951304 0.732554 0.9773413 0.4173377 -2.4594193 -2.3535614
1.6650019 1.5825645 0.6801825 0.9280822 0.7800249 0.9234402 0.6606128 -0.8930486
0.5723938 1.1971681 0.29767695 0.92754614 1.0425929 1.0998547 0.6142406 -0.678815

fc1.bias f4 [256]
00000000: 6120 18c1 c00e 563e 6323 fbc0 3279 54c1
00000010: 7f08 31c1 04a4 1dc1 3e8d e2c0 ffa5 97c0
00000020: 3f91 69c1 0c41 e3c0 1d90 57c0 588b 16c1
00000030: ba4a e1c0 70f2 d1c0 89a4 59c0 a565 f8c0
00000040: a5c5 dfc0 68c4 2fc1 bbb6 17c1 7acd fcc0
00000050: c8fc a7c1 e28d d0c1 5936 e0c0 0587 efc0
00000060: 05fb 10c1 a24c 77c0 79c7 60c0 effd 84c0
00000070: e499 dbc0 732f 49c0 5268 b0c1 0dbe c1c0
00000080: 79f4 b4c0 0a59 88bf bfca 1dc1 26fe 67c0
00000090: 1dcd 0dc1 6ce7 26c1 8d2e d9c0 22f4 0ac1
000000a0: 2f5e 99c0 52a6 d4c0 9124 27c1 c945 08c1
000000b0: 630c 4fc1 8b30 f4c0 26c4 78c1 6cce 25c1
000000c0: b23a eac0 caea eec0 ebc8 06c1 8776 10c1
000000d0: eb1b 1dc1 9a5a 01c1 b34a bcc0 9ee0 03c1
000000e0: 5c34 03c1 9924 28bf 304f 40c1 25cb 63c1
000000f0: 8ff0 2ec1 9b6c f4c0 833e dec0 df94 f9c0
00000100: b1ed 09c1 f182 87c0 a79f eac0 5e84 68c0
00000110: 608d f1bd 7670 0fc1 9320 34c1 6ce9 bbbe
00000120: 48f9 5bc0 5cc6 4bc1 4994 dbc0 d22e 0cc1
00000130: 68c7 26c1 0812 0ac1 8fe2 05c1 f069 25bf
00000140: 3a0a 00c1 1eb5 a5c0 d44e 9cc0 ee93 3fc1
00000150: bcb7 dfc0 466d 0ec1 d94f 03c1 ad6b 29c1
00000160: cbc5 adc0 c392 a33c 38c6 0ac1 2584 31c1
00000170: 48f5 18c1 5088 fdc0 b57e 03c1 0f9f 38c1
00000180: e372 19c1 9dc2 10c1 6f28 4041 607d 0ec1
00000190: f6ee 04c1 c089 f9c0 be5e f0c0 89ad 52c1
000001a0: 84e7 68c1 c40c 4fbf dbc1 05c1 8a61 ebc0
000001b0: 42a7 32c1 d88e 43c1 480e f1be cb2d e6c0
000001c0: e7d9 19c1 7a2a d7c0 a314 83c0 f188 1a3e
000001d0: cacc 27c1 ee0c b1c0 5ad1 9ec0 4ad2 373f
000001e0: 30a4 dac0 91ea 9dbf 54d1 00c1 3a24 4fc0
000001f0: b804 04c1 9787 c2c0 453d 14c1 22f8 5fbf
00000200: a0c3 dfbe 440e 8cbf 1c4a 1dc1 65e5 84c1
00000210: b33a 01c1 1cf2 a3bf 1d93 77c0 4175 48c1
00000220: ee02 e0c0 c2ec 28c1 d415 bbc1 d081 3ec1
00000230: fe06 2ac1 1c07 7cc0 166f 22c1 9766 06c1
00000240: 2ea5 28c1 4b79 26c1 f7fc 4cc1 770c f6c0
00000250: a80b 46c1 b4f7 1ac1 b87d fdc0 7695 25c1
00000260: 1933 dbc0 57aa 04c1 b372 18c1 931c 28c1
00000270: ea17 0ac1 8e73 b3c1 84d0 83c1 c4bf 65c1
00000280: 7570 37c1 eff8 08c1 bc57 30bf 16a7 e7bf
00000290: 3667 07c1 c451 8ac1 cac4 f3c0 7621 9bc0
000002a0: 76a9 1540 0cca a6c0 1f01 65c0 8b0f 51c1
000002b0: 6650 3cc1 4b85 d9bf 2564 dbc0 154c 21c1
000002c0: 6fc7 52c1 5781 b9c0 5db5 8ac0 fbae c2c0
000002d0: bd82 88c0 1219 afbf e988 87c1 c7f0 16c1
000002e0: 4ba1 a6c0 d893 3cc1 ee3a 2ac1 a9c5 bbc0
000002f0: 4b37 8cc0 7c0d dac0 5653 43c0 0dd2 aec0
00000300: 206b 3dc0 ba6f 26c1 e72a 0fc1 638e 05c1
00000310: ee0d e3c0 6180 11c1 9a39 5ac1 cba1 d6c0
00000320: 43c5 55bf b7a0 0ac1 e93c 0bc1 8db0 13c1
00000330: 9c0b 54c1 699d cac0 1935 27c1 8285 f0c0
00000340: cc40 1bc1 8c49 9c3f cc39 29c1 2dcb bfc0
00000350: 52f9 46c1 92a8 14c1 9ef8 e1c0 4588 36c1
00000360: bc6f 26c1 8fdd 4bc1 4242 36c1 c68c 7cc0
00000370: c01d 43c1 cacf f6c0 d8f2 04c1 0bd4 fdc0
00000380: e7e0 f7c0 90e4 16c1 8194 dac0 5034 d1bf
00000390: 8905 6dc0 6ffb fbc0 1057 0bc1 8af4 10c1
000003a0: 236f 02c1 98c3 0ac1 b41f f2c0 bbd3 f6c0
000003b0: 38b0 f7c0 3837 28c1 a8d1 49c1 4628 f5c0
000003c0: 95d2 00c1 b264 d3c0 55ff 0fc1 5710 3ac0
000003d0: 5aaf 1bc1 416b 04c1 4633 d5c0 ea37 2fc1
000003e0: 59b1 09c1 db1e 42c1 6e8c 1cc0 291c 23c1
000003f0: 090f 22c1 9b86 a0c1 9277 0ec1 e232 ccbe
-9.507905 0.20904064 -7.8480697 -13.279589 -11.064574 -9.852543 -7.0797415 -4.739013
-14.59796 -7.1016903 -3.368171 -9.409019 -7.040372 -6.5608444 -3.4006674 -7.762408
-6.9928765 -10.985451 -9.482112 -7.9000826 -20.998428 -26.069279 -7.006634 -7.485232
-9.061284 -3.8640523 -3.5121748 -4.1559978 -6.8625355 -3.143521 -22.050938 -6.0544496
-5.654843 -1.0652173 -9.861999 -3.624887 -8.8625765 -10.4314995 -6.7869325 -8.684603
-4.792747 -6.645303 -10.446427 -8.517037 -12.940524 -7.6309257 -15.547888 -10.362896
-7.319665 -7.466161 -8.424052 -9.028937 -9.819316 -8.0846195 -5.8841186 -8.242338
-8.200283 -0.65680844 -12.019333 -14.237096 -10.93373 -7.6382575 -6.945131 -7.7994227
-8.62053 -4.234734 -7.331989 -3.633079 -0.11794543 -8.964956 -11.257953 -0.36701524
-3.43709 -12.735928 -6.861851 -8.761431 -10.423683 -8.629402 -8.367812 -0.6461477
-8.002497 -5.178359 -4.8846226 -11.973616 -6.9911785 -8.901678 -8.206994 -10.588788
-5.4303946 0.019967442 -8.673393 -11.094762 -9.559883 -7.9228897 -8.218434 -11.538833
-9.5905485 -9.047513 12.0098715 -8.905609 -8.30834 -7.798065 -7.511565 -13.167367
-14.556522 -0.80878854 -8.359828 -7.3556566 -11.165834 -12.222374 -0.47081208 -7.19309
-9.615699 -6.723935 -4.096269 0.15091302 -10.487497 -5.5328283 -4.9630556 0.7180525
-6.8325424 -1.2337209 -8.0511055 -3.236586 -8.251152 -6.0790515 -9.264958 -0.87487996
-0.43703938 -1.0941854 -9.830593 -16.61201 -8.076831 -1.2808261 -3.868354 -12.528626
-7.0003576 -10.557802 -23.385658 -11.9066925 -10.626707 -3.937934 -10.152121 -8.400046
-10.540327 -10.404613 -12.811759 -7.6890216 -12.377846 -9.685474 -7.9215965 -10.3489895
-6.8499875 -8.291587 -9.528003 -10.506976 -8.630838 -22.431423 -16.476814 -14.359318
-11.464955 -8.560775 -0.6888387 -1.8097866 -8.462698 -17.289925 -7.617772 -4.8478346
2.338468 -5.212164 -3.5781934 -13.066295 -11.769629 -1.6993803 -6.8559747 -10.081075
-13.17369 -5.7970386 -4.334639 -6.08386 -4.2659593 -1.3679526 -16.94185 -9.433784
-5.207189 -11.786095 -10.639387 -5.8678784 -4.3817496 -6.814146 -3.0519614 -5.463141
-2.9596634 -10.402277 -8.947974 -8.347262 -7.0954504 -9.0938425 -13.639063 -6.70725
-0.8350412 -8.664237 -8.702371 -9.230603 -13.252834 -6.331715 -10.450463 -7.5162973
-9.70332 1.2209945 -10.576611 -5.9935517 -12.435869 -9.291155 -7.061599 -11.408269
-10.402279 -12.741591 -11.391176 -3.9460921 -12.194763 -7.712865 -8.309288 -7.932134
-7.746204 -9.430801 -6.830628 -1.634409 -3.7034628 -7.8744426 -8.7087555 -9.059702
-8.152133 -8.672752 -7.56637 -7.713346 -7.740261 -10.513481 -12.613686 -7.661166
-8.051412 -6.606042 -8.999837 -2.9072473 -9.73031 -8.276185 -6.662509 -10.951151
-8.605798 -12.132533 -2.4460711 -10.194375 -10.128671 -20.065725 -8.904192 -0.3988257

fc2.weight f4 [1, 256]
00000000: b73c 4abe 1509 503d 9257 8fbd f6f2 c3bd
00000010: de63 c1bd 4b6c c5bd 69d5 cb3d f969 d53d
00000020: 8397 b73d 726e ef3c ce25 b73d 6568 f9bd
00000030: 5477 be3d 0f3e 91bd 5919 b4bd 574d d63d
00000040: 18d8 c63c 3f34 cfbd 2294 96be 50ea 52bd
00000050: 9596 eb3d 401b 26bf 2423 c53d 45fb 38be
00000060: 0593 d8bd 711e 6b3d 1aec 543d 8ea0 253e
00000070: 68ef cd3d 4d68 dc3e 7032 b8be 7e04 bd3c
00000080: 8524 9abd 94c2 1ebe fabb 4f3d ce54 ba3d
00000090: a06d 1e3e 0bb0 e7bd 58c0 0bbd 2988 0dbe
000000a0: ed8d 903d 3e52 7bbd a8b3 f13d eeb9 13be
000000b0: 99a1 8fbd 60a5 a83d 5303 8f3d a1a2 62be
000000c0: da8f 233e 4ea8 d73d a9c5 9d3d 6ee5 b43d
000000d0: 00ba 083e 80f3 ff3d da11 02be c4ed 4b3e
000000e0: 43fe a03d 244d 1d3e 35c1 ee3d b968 66bd
000000f0: 4d81 9dbd c05d ff3d 4d7c cfbd 468d 883d
00000100: 918a de3d 84b8 18bd 763b d43d 571c e83d
00000110: 2500 b8bc cd13 803d b8ae cf3e c8c2 743d
00000120: 68c0 83bd 407a d3bd afea 833d 60c1 b53d
00000130: 928d 02be 3d97 d1bd d281 533e 07ce cfbd
00000140: a96b 84bd 0112 ac3d 9cde 793d 58c4 00bd
00000150: e202 c93c 6900 243e 105e 9bbd 0c07 99bd
00000160: e274 063e 6e1d aabd bfb1 2dbd 46a9 90bd
00000170: 6ec2 2e3e 608a df3d 7536 013e 68b7 d0bd
00000180: 481c 8dbd 3473 fabd 6253 b73e b971 c5bd
00000190: db6a 98bd 8334 8cbd fa96 15be 509c 03be
000001a0: b1ea b5bd 0c05 d3bd ff22 48bd 62d2 0a3e
000001b0: 2906 91bd 45ba 26be 14ba af3d f390 5d3e
000001c0: 283a a13d f8bc 833d 4c19 373e 52bb a6be
000001d0: 9b23 fb3d 2a3a 85bd 2070 7dbd 0a6c a93e
000001e0: a204 863d de5d 02be aee8 b23d fef2 413d
000001f0: 7b15 053e 90ec 833d 2633 f2bd bd6c c2bd
00000200: 8458 6abe 9b1d b33d ecfe 3f3e 4dd1 253e
00000210: 3443 ac3d 3c64 d13d 0c33 2e3d ce7d 53be
00000220: 557e 453d d69d 93bd 805b 02bf ef62 d93d
00000230: 98a4 bc3d 9696 f3bd f769 cb3d ae8e 9cbe
00000240: fa45 01be 7274 c3bc 637e e5bd b3d1 67bd
00000250: cfec 06be 749f ef3d fcd4 4e3d 6166 8abd
00000260: 3faf 723d 55e0 813d 5603 7fbd 0df1 af3d
00000270: b62b 973d c827 b4be 047a c8bd 2097 d4bd
00000280: fe0d 86bd a5c8 a13d c549 5b3e 566e edbd
00000290: 1d11 803d 7116 c23e 0761 a2bd c565 19bd
000002a0: 7271 163e ab94 47be b2dc 32be 24f4 c5bd
000002b0: 05d0 bd3d d26f 37be d250 903d 1428 cfbd
000002c0: 8c05 753d 59ac a03d e835 cbbd ce58 bebd
000002d0: 70d8 803d 9895 573d 88a7 40be 9e96 a0bd
000002e0: ca50 613d 97f2 08be b13c 613d 2265 a2bd
000002f0: d8ca 9cbe 01d5 b0bd b655 9a3d dbe2 c2bd
00000300: 0688 ebbd b531 dd3d c6e9 a93d 9aa4 3dbd
00000310: 2d9a ce3d b990 e5bd 6773 48be 1106 8e3d
00000320: c32d 053d 0ecc aabd 5bf8 2f3d f724 dcbd
00000330: 374f 903d 0091 cd3d 764c 0fbe f406 fa3d
00000340: 1380 8fbd 3f64 233e acd4 c9bd 3ab3 a23d
00000350: b73e d1bd d457 613d f40c 9abd a893 72bd
00000360: c47d cfbd 2370 6fbe c6e9 b7bd 4964 973d
00000370: 7d02 20be 0f1d 5c3e efa1 873d f22d af3d
00000380: 9429 97bd db1f 76be fce0 013e ae80 4bbe
00000390: af76 6c3d 6648 ebbd 857a bbbd 5673 623e
000003a0: a1e3 4f3e 6062 a53d 893a 053e ab78 edbd
000003b0: 0e4c 643d 23c3 103e bed1 14be c974 e13d
000003c0: ce6b 9e3d 0440 c33d 15e6 003e eb26 d23d
000003d0: f2f9 5fbd 100c 48be 6ac5 75bd d3d1 e83d
000003e0: 2762 ebbc 3a59 d5bd 7523 ee3c df05 1b3e
000003f0: 31ef cebd ce8c 02be 5cc3 903d 976b f23d
-0.19749723 0.05078991 -0.069991246 -0.095678255 -0.09442876 -0.09639796 0.09952814 0.10420603
0.089644454 0.02922747 0.089427575 -0.12178115 0.09300104 -0.07091915 -0.08793897 0.1046397
0.024272963 -0.10117387 -0.2940989 -0.05149299 0.115033306 -0.6488533 0.09625843 -0.18064602
-0.10574917 0.057402078 0.051982976 0.16174528 0.10055429 0.43048325 -0.3597598 0.023073431
-0.07526497 -0.15503913 0.050716378 0.090982065 0.15471506 -0.113128744 -0.03411898 -0.13821472
0.0705832 -0.06135773 0.11801845 -0.14426395 -0.07013244 0.08234668 0.06983056 -0.2213235
0.15972844 0.105301484 0.07703716 0.08832823 0.13352203 0.12497616 -0.12702122 0.19914919
0.078609966 0.15361458 0.11657945 -0.056252215 -0.07690678 0.12469053 -0.1013113 0.06667571
0.10866273 -0.037285343 0.10362904 0.113335304 -0.022461006 0.06253777 0.40562987 0.05975607
-0.06433183 -0.10326052 0.06441247 0.08874774 -0.12749317 -0.102339245 0.20654991 -0.101467185
-0.06465847 0.084018715 0.061003312 -0.031437248 0.024537507 0.16015781 -0.075863004 -0.07472047
0.13130525 -0.083063945 -0.04240584 -0.07063536 0.17066357 0.10915065 0.1261843 -0.10191232
-0.0689016 -0.122290045 0.35805804 -0.096408315 -0.07442256 -0.06845953 -0.14608374 -0.12852597
-0.088826545 -0.10303697 -0.0488615 0.13556817 -0.07081253 -0.16281994 0.085804135 0.21637325
0.078724205 0.06432527 0.17880744 -0.3256479 0.122626506 -0.065052345 -0.06187451 0.3309024
0.065438524 -0.1273112 0.087357864 0.047350876 0.12996475 0.06441605 -0.11826162 -0.094933964
-0.22885329 0.08745881 0.18749589 0.16193123 0.084112555 0.10224196 0.04252915 -0.2065346
0.048216183 -0.07207839 -0.5092087 0.10614573 0.09211081 -0.11893956 0.099323206 -0.30577606
-0.1262435 -0.023859236 -0.11205747 -0.05659647 -0.13176273 0.11700335 0.050496086 -0.067578085
0.05924916 0.06341616 -0.06225904 0.08590899 0.07381384 -0.351866 -0.09788898 -0.10380387
-0.065456375 0.07899598 0.2141486 -0.115933105 0.06253264 0.37907746 -0.07928663 -0.03745057
0.14691713 -0.19490306 -0.17467001 -0.09665707 0.09268192 -0.1791375 0.07046665 -0.10115066
0.059819743 0.07845373 -0.09922391 -0.09294282 0.06291282 0.052632898 -0.18813908 -0.07841228
0.055008687 -0.1337379 0.05498952 -0.07929446 -0.30623507 -0.08634377 0.07535879 -0.095159255
-0.11500554 0.108004965 0.08296542 -0.046299554 0.100880004 -0.11209244 -0.19575273 0.06934751
0.032514345 -0.083397016 0.04296146 -0.10749238 0.07046359 0.10037422 -0.13994011 0.122083575
-0.0700685 0.1595621 -0.09855017 0.07944341 -0.1021704 0.0550154 -0.07522002 -0.059222847
-0.1013141 -0.2338262 -0.089801356 0.07392175 -0.15625949 0.2149546 0.06622683 0.08553685
-0.07380977 -0.2403559 0.12683481 -0.19873306 0.057730373 -0.11488418 -0.09154228 0.2211431
0.20301677 0.08075404 0.1301061 -0.11595281 0.055736594 0.14136939 -0.14533135 0.11008603
0.07735406 0.095336944 0.1258777 0.10261329 -0.054681726 -0.19535851 -0.06000272 0.11368146
-0.028733326 -0.10417409 0.029069642 0.15138958 -0.10104216 -0.12749025 0.07068512 0.118369274
