resources/models/1L-256.pth (torch, 796150 bytes, 3 tensors)

fc1.weight f4 [256, 768]
000000 0a 6e fb bb 56 cf db bb ca 50 10 3d ee bf 47 3c
       -0.00767303 -0.006708066 0.035233296 0.012191756
000010 89 6c 8d bc db 8e 78 3c fc b2 09 bd d9 70 e6 bc
       -0.017263668 0.015170778 -0.03361796 -0.028129982
000020 b0 4d 24 40 5a 68 1c c0 3d de 2a 3e da 75 6e bf
       2.5672417 -2.443869 0.1668634 -0.9314858
000030 a1 23 e0 bc 3e b4 b1 bf 87 1f bd 3f 3f 3b 96 3f
       -0.02736074 -1.388313 1.4775246 1.173683
000040 9b 97 16 40 57 10 12 c0 09 79 ed 3f d1 c8 c3 bf
       2.3530033 -2.2822473 1.8552562 -1.5295659
000050 3e c2 f6 3d 77 a9 0d c0 ed 6c e2 3e 9d 32 94 3f
       0.120487675 -2.2134683 0.4422373 1.1577946
000060 52 fb 23 40 34 ab 86 3e 5a 13 c5 be 58 d9 3b 40
       2.5622144 0.26302493 -0.38491327 2.9351406
000070 98 31 a2 bf e3 76 d6 3f a5 9f 1e 3f 50 7d 9b 3f
       -1.2671385 1.6755031 0.6196235 1.2147617
000080 4d 4c be 3f 59 8b 38 3f d7 06 7e c0 19 6b 1b 40
       1.4867035 0.7208763 -3.9691675 2.4284117
000090 95 85 6d c0 f1 3c c8 3f 72 d5 8d bf 0e 38 a6 3f
       -3.7112782 1.5643598 -1.1080763 1.2985857
0000a0 f5 8c fa 3f bc 91 14 c0 51 48 dd 3e e3 b6 53 3f
       1.9574267 -2.321395 0.43219236 0.8270094
0000b0 79 30 7d bf 29 54 88 bf 5b 77 08 bf b4 28 03 be
       -0.9890209 -1.0650684 -0.5330712 -0.12808496
0000c0 c0 28 9e 3f f7 a2 ee 3e 84 60 57 c0 24 8d 4f bf
       1.2356186 0.46608707 -3.3652658 -0.8107474
0000d0 85 ae 65 c0 8f 3e 20 c0 a0 50 23 3f 14 79 2e bd
       -3.5887768 -2.5038183 0.637949 -0.042595938
0000e0 a5 9f ac 3c 92 de 0f bd b2 15 bf 3c 2a 89 23 bc
       0.021072218 -0.03512437 0.023325775 -0.009981433
0000f0 ea fd ba 3c 66 51 d6 bc ef 02 10 bd 96 2f 80 bc
       0.022826154 -0.02616186 -0.035159048 -0.01564769
000100 c3 95 a5 3d 42 9f ee 3d ff 08 43 3f 20 7b c1 be
       0.080852054 0.1165147 0.761856 -0.3778925
000110 0d 1a 68 3f 87 9e d1 bf 74 8b 96 3e 5b 15 e5 bf
       0.9066475 -1.6376504 0.2940327 -1.7897142
000120 38 85 81 3f 8d d1 a4 3e cc cf 17 3f c8 26 12 bf
       1.011878 0.32191125 0.5930145 -0.57090425
000130 c2 df 8e bf 59 cf 98 3f 5f d9 aa be 59 a8 1a bf
       -1.1162035 1.1938277 -0.33368966 -0.6041313
000140 35 cd 3f bc 65 59 94 bf a6 ec 8d bf 45 10 59 3f
       -0.01170664 -1.1589781 -1.1087844 0.8479045
000150 5d 08 8d bf 8c 36 88 3e 9a f2 2b c0 7f 62 ca 3f
       -1.1018177 0.26604116 -2.6866822 1.5811309
000160 b2 0b b2 3f d7 16 8f be 3d ac cd bf 83 27 b9 bf
       1.3909819 -0.27947113 -1.6068188 -1.4465183
000170 21 2f ba 3f 75 35 a9 bf 13 a1 ae 3f 56 64 fa bf
       1.4545633 -1.3219439 1.3642906 -1.956187
000180 de 91 34 3f ea bd b9 bf a5 d3 0c 3f 4a a4 5e c0
       0.70535076 -1.4511082 0.55010444 -3.4787774
000190 9f 3c 60 bf fa 13 95 c0 29 20 1f 40 2c 1b 7f bf
       -0.875925 -4.6586885 2.486338 -0.99650836
0001a0 11 da 0d c0 1f 75 5d c0 91 d2 c7 bf 64 27 27 bf
       -2.2164347 -3.4602735 -1.5611135 -0.6529448
0001b0 03 ef b2 3d 0f ab 01 3f 93 ee ee 3e 82 5f f8 3e
       0.08736994 0.5065164 0.46666393 0.48510367
0001c0 c8 f9 98 bf f3 04 0f 3f 06 44 94 bf 31 3d a2 3e
       -1.1951227 0.55866927 -1.1583259 0.3168731
0001d0 2f 9c 61 bf 09 ff 81 c0 74 74 2d c0 08 5c 12 3f
       -0.8812894 -4.062382 -2.7102327 0.5717168
0001e0 8a b8 69 40 ca ee 2b 40 1f 0b 29 bf 28 36 75 bf
       3.6518884 2.6864495 -0.66032594 -0.9578576
0001f0 01 84 80 bf f3 b6 2f 3f 33 4c 10 3d cc 62 ff 3f
       -1.0040284 0.68638533 0.03522892 1.9952025
000200 c3 88 33 40 1d fe a3 be 8b 63 f3 bd 64 e1 fa bf
       2.8052223 -0.3202981 -0.11884221 -1.9600034
000210 2e c4 db 3e be cf 79 bf 14 f3 4a 40 c5 c3 db be
       0.4292311 -0.97582614 3.1710863 -0.42922798
000220 8d 32 d3 bf ad fe a1 3e f8 96 29 bf a7 8f 01 3f
       -1.6499802 0.31639615 -0.66245985 0.5060982
000230 60 70 80 bf 6b 4a d6 3f 80 8d 80 bf fb 43 42 3f
       -1.0034294 1.674146 -1.0043182 0.7588498
000240 8c bf 60 3f 70 16 15 c0 86 1d 35 be 70 9e 52 bf
       0.8779228 -2.3294945 -0.17687044 -0.82273006
000250 90 9d bc 3f 37 2b f7 bf 5c ca 55 bf 2e 9b c4 bd
       1.4735584 -1.9310063 -0.835119 -0.09599911
000260 d6 61 06 bf ff 4e 4b c0 26 a0 52 c0 e8 df 29 c0
       -0.52493036 -3.1766965 -3.2910247 -2.6542912
000270 9b 6c 2b be 82 fb 02 c0 62 0a 97 3f 73 4d 21 be
       -0.16740648 -2.0466008 1.1800044 -0.15752201
000280 15 90 0a 3f 2f 89 15 c0 34 11 dd bf e9 72 26 c0
       0.541261 -2.336498 -1.7270875 -2.6007636
000290 bf 15 bf bf fd 61 e9 be b6 19 f9 bc e7 7d 86 3d
       -1.4928511 -0.45582572 -0.030407768 0.06566983
0002a0 50 39 b0 be 5c 1b 8a 3e 0b 56 17 bf 11 bb 19 bf
       -0.34418726 0.26974 -0.59115666 -0.60051066
0002b0 42 19 a9 bf 2e 0a 9f bf 1d 89 86 bf bb 67 2d 3f
       -1.3210833 -1.2424982 -1.0510594 0.67736405
0002c0 c6 29 06 bf ce be f1 bf 66 17 34 bf 30 44 41 3e
       -0.5240749 -1.8886354 -0.70348203 0.18873668
0002d0 02 f0 24 3e 24 ec 2b bf d3 0e 9d bf b3 ec d5 bf
       0.1610718 -0.67157197 -1.2270149 -1.671286
0002e0 80 0e 8d bf d5 43 01 c0 5a ee d4 bd 36 e3 5d bf
       -1.102005 -2.0197651 -0.103970245 -0.8667482
0002f0 02 39 1c bf bd 40 15 bf dd 92 a0 bf bd ca 24 c0
       -0.61024487 -0.5830191 -1.2544819 -2.5748742
000300 93 fa 94 bf b3 0f b6 bf 74 fe d3 bf c6 84 cc be
       -1.1638969 -1.4223541 -1.6562028 -0.39945048
000310 39 8b 96 bf 61 8c 95 bf ca 80 c5 be a5 f6 19 c0
       -1.1761237 -1.1683465 -0.3857482 -2.405679
000320 fc ce 73 bf ba 67 1d bf bc 69 61 bf e8 1a 22 3f
       -0.9523771 -0.614864 -0.8805196 0.63322306
000330 99 63 d8 bf 7b a8 df bf b7 63 53 be af 86 ef bb
       -1.6905395 -1.7473291 -0.20643507 -0.0073097567
000340 0d d4 b2 bf 06 53 ed be 36 b8 fc be 13 39 6a 3d
       -1.3970963 -0.46352404 -0.49359292 0.057183336
000350 89 fd 18 c0 05 39 a0 bf 03 e5 06 c0 cb 43 19 c0
       -2.3904746 -1.2517401 -2.1077278 -2.3947628
000360 2d 77 1e bf 46 17 bf bf b9 81 5a bf f4 3d 17 bf
       -0.619006 -1.4928977 -0.8535419 -0.5907891
000370 4d dd e3 be 8e 14 2a c0 28 8d fc 3d 3d 03 c3 3e
       -0.44504777 -2.6575046 0.12331611 0.38088408
000380 e8 29 88 bf 6e 56 4e bf ab 79 09 c0 ce 61 8b bf
       -1.0637789 -0.8060063 -2.148051 -1.0889223
000390 e7 fd 21 c0 c4 4d 14 c0 b8 59 69 c0 4f 79 db bf
       -2.531122 -2.3172464 -3.646101 -1.7146395
0003a0 83 d6 fd bf 0a ed b6 bf 37 a0 9a bf 6d 34 a0 bf
       -1.9831089 -1.4291089 -1.2080144 -1.2515999
0003b0 00 0b ab bf 20 36 03 c0 26 f9 3d be 8d 05 cb bf
       -1.3362732 -2.0501785 -0.18552074 -1.5861069
0003c0 d5 96 b4 bf 58 7a 1c bf 39 d6 03 c0 f1 b9 51 bf
       -1.410853 -0.6112418 -2.05995 -0.8192435
0003d0 8d fc 1d c0 94 28 9d bf 7b cc 72 bf b9 bc 26 bf
       -2.4685395 -1.2278008 -0.9484326 -0.6513172
0003e0 42 55 ed bf f3 99 cb bf 52 9a dd bf e6 bd cb bf
       -1.8541644 -1.5906357 -1.731272 -1.5917327
0003f0 fd 85 06 c0 7d 6c b8 be 83 5e 7c bf 6d 46 b9 bf
       -2.101928 -0.3602027 -0.98581713 -1.4474617

fc1.bias f4 [256]
000000 db 90 04 c1 0c 9d 0c c1 d8 c1 0b c1 b6 e7 f1 c0
       -8.285365 -8.7883415 -8.734825 -7.559535
000010 1a d3 0a c1 7d a4 09 c1 96 a0 81 c0 a6 5c ff c0
       -8.676538 -8.602658 -4.050853 -7.9800596
000020 7e 52 e1 c0 57 43 90 c0 0c db 52 c1 39 dd 27 c1
       -7.04132 -4.50822 -13.178478 -10.491509
000030 c3 96 31 c1 07 37 49 c0 5c 00 75 c1 d7 5f 29 c1
       -11.099307 -3.1439836 -15.312588 -10.585898
000040 97 67 8a c1 70 0b 9b c0 ce 72 20 c1 1c 65 86 c1
       -17.300581 -4.845146 -10.0280285 -16.79937
000050 2d 11 5d c0 e3 53 45 c1 d1 95 d7 c0 eb c1 06 c1
       -3.4541733 -12.33298 -6.737038 -8.422343
000060 d1 e2 da c0 d7 2a 0d c1 10 90 26 c0 ce 01 d1 c0
       -6.8401875 -8.822959 -2.6025429 -6.5314703
000070 ba e2 c4 c0 e1 29 72 c1 f7 6a 0f c1 c6 ab 01 c1
       -6.1526766 -15.135224 -8.963614 -8.104437
000080 5a 57 a2 c0 ee f6 7d c0 0d 2b b4 3d 69 18 dc c0
       -5.073163 -3.9681964 0.08797274 -6.8779798
000090 b6 cc 20 c1 73 84 17 c1 26 6b 18 c1 3c eb 83 bf
       -10.049978 -9.469836 -9.526159 -1.0306163
0000a0 aa 4b 7a c1 7a 68 67 c1 5a d4 35 c1 3f 38 28 c1
       -15.643473 -14.463007 -11.364344 -10.513732
0000b0 a1 3c 3a c0 88 f0 a8 c0 11 ec af c0 0e c3 94 c0
       -2.9099505 -5.2793617 -5.4975667 -4.6488104
0000c0 96 66 2a c1 09 d0 b8 c0 01 46 87 c0 7b 37 9d c0
       -10.650045 -5.775395 -4.2272954 -4.9130225
0000d0 b3 d6 68 c1 c3 04 49 c0 c6 be 0a c0 a5 19 2e c1
       -14.552417 -3.1409156 -2.167894 -10.881261
0000e0 a0 71 ab c0 c6 c5 38 c1 50 23 91 c0 9f 4e 29 c1
       -5.3576202 -11.548285 -4.5355606 -10.581695
0000f0 ca 72 d1 c0 49 39 10 c1 52 55 35 c1 d7 5a 59 c1
       -6.5452623 -9.013986 -11.33333 -13.584678
000100 6f f4 13 c1 58 d0 b2 c0 10 61 2a c1 ac 13 99 c0
       -9.247176 -5.5879326 -10.648697 -4.7836514
000110 e7 4a ec c0 aa 1a 1e c1 38 23 1e c1 c0 11 8e c0
       -7.3841434 -9.88151 -9.883598 -4.4396667
000120 f2 0b af c0 3d 56 af c0 a8 84 1c c1 90 9b 36 c1
       -5.470208 -5.479277 -9.782387 -11.412979
000130 51 c1 fe c0 fc b8 0c c1 f7 2b 0f c1 49 68 4b c1
       -7.961098 -8.795162 -8.948234 -12.71296
000140 6c 83 11 c1 fe 5f 34 c1 43 83 e2 c0 2d 7d e1 c0
       -9.094585 -11.273436 -7.078523 -7.0465302
000150 46 0b 39 c1 7f 8c 29 c1 3a 60 36 c1 57 28 11 c1
       -11.565252 -10.596801 -11.398493 -9.072349
000160 d3 19 83 c0 fa 2d c6 c0 15 81 ee c0 6f bf 8a c0
       -4.0969024 -6.1931124 -7.453257 -4.3358684
000170 11 d7 f1 c0 0d 1c ca bf 10 e9 55 c1 46 e2 3d c1
       -7.557503 -1.578981 -13.3694 -11.867743
000180 26 70 05 c1 9c 4f 5f c1 6f 30 e0 c0 5f 7d 20 c1
       -8.33988 -13.956936 -7.0059123 -10.030608
000190 47 34 03 c1 11 96 fb bf bf 6f e8 c0 19 3b 93 c0
       -8.200263 -1.9655172 -7.263641 -4.600964
0001a0 08 4d db c0 0b b2 cc c0 ef 06 1c c1 ca e4 6e c0
       -6.853153 -6.3967338 -9.751693 -3.7327142
0001b0 8d 2d c6 c0 6b 63 bf c0 ee f2 29 c1 83 6a 2d c0
       -6.1930604 -5.980886 -10.621809 -2.709626
0001c0 81 67 11 c1 57 20 b5 c0 81 dd 69 c1 e0 0f 0b c1
       -9.0877695 -5.6601977 -14.616578 -8.691376
0001d0 c4 88 07 c1 ef ed e8 c0 98 80 7b c0 27 05 e7 c0
       -8.47089 -7.2790446 -3.9297237 -7.219379
0001e0 28 66 16 c1 97 1c 0b c1 13 2a 8b 3e 86 d0 0f c1
       -9.3999405 -8.69448 0.27180538 -8.988409
0001f0 39 a7 e4 c0 cc 12 13 c1 51 d9 db c0 07 04 06 c1
       -7.145413 -9.192089 -6.870278 -8.375983
000200 e9 a3 48 c1 00 c8 cb c0 70 60 f6 c0 eb ad 23 c1
       -12.540017 -6.368164 -7.699272 -10.22996
000210 e3 25 bd c0 d2 b0 dc c0 bf 63 0d c1 51 fb 1f c1
       -5.910875 -6.8965845 -8.836852 -9.998857
000220 6b 94 b0 c0 a0 ed 5c c1 39 af ec c0 58 e2 89 c0
       -5.5181174 -13.808014 -7.3963895 -4.30888
000230 9c f3 ef c0 ae 50 6b c0 6b 7d 1f 3c d4 6a 3f c0
       -7.4984875 -3.6767993 0.009734492 -2.9908953
000240 5b 18 a8 c0 cb a6 d3 c0 c0 70 c3 c0 6c 8c bc c0
       -5.252973 -6.6141105 -6.1075134 -5.8921413
000250 32 10 21 c1 b2 6b d2 c0 5d aa 18 c1 7f 2c 2b c1
       -10.066454 -6.5756464 -9.541593 -10.698363
000260 b1 66 3b c1 96 a1 09 c1 90 3b 21 c1 dd 2b 3b c1
       -11.712571 -8.60195 -10.077042 -11.698209
000270 f8 e9 14 c1 d9 72 81 c0 ee c2 39 c1 80 59 c2 c0
       -9.307121 -4.0452695 -11.61009 -6.0734253
000280 25 c8 01 c1 5d 33 67 c1 45 67 18 c1 72 34 13 c1
       -8.111363 -14.45004 -9.525212 -9.200304
000290 ff 91 23 c1 c2 e1 49 c0 f0 5a a1 c0 f2 8d 3f c1
       -10.223144 -3.1544042 -5.042351 -11.972155
0002a0 25 85 82 c0 93 1b 86 c0 e8 5f 3c c1 8b 0d 35 c1
       -4.078753 -4.190866 -11.773415 -11.315806
0002b0 f0 cf 35 c1 bf 28 12 c1 cf 27 45 c0 7e fd dc c0
       -11.363266 -9.134948 -3.0805547 -6.905944
0002c0 9f 7a d5 c0 e3 7c 20 c1 dc 72 23 c1 ee a4 56 c1
       -6.6712184 -10.03049 -10.215542 -13.415266
0002d0 ab cc 22 c1 19 0d 6b c0 14 60 e2 c0 0d f5 d4 c0
       -10.174968 -3.6726744 -7.0742283 -6.6549134
0002e0 41 21 64 c1 be 04 e1 3d f0 2c fd c0 99 63 1d c1
       -14.258119 0.109872326 -7.9117355 -9.836816
0002f0 a7 fa 5c c1 77 35 54 c1 d3 ce 74 c0 54 07 28 c1
       -13.811194 -13.263053 -3.8251235 -10.501789
000300 c7 c4 d9 c0 3b 0e 99 c0 c9 aa 1d c1 5a 95 f4 c0
       -6.8052707 -4.782987 -9.854196 -7.6432314
000310 ec e1 32 c1 0a fa ba c0 73 f4 e6 c0 7d 80 e2 c0
       -11.180157 -5.8430223 -7.21734 -7.0781846
000320 d5 e5 0c c1 29 d1 c4 c0 44 b5 48 c1 b5 82 7d c0
       -8.806111 -6.1505322 -12.544254 -3.9611027
000330 ef 3c 3d c1 f8 ff 34 c1 f3 31 1e c1 29 78 c0 c0
       -11.827376 -11.312492 -9.887195 -6.014668
000340 61 97 77 c1 c2 8c f8 c0 9d 67 0e c0 6c 4a 18 c1
       -15.474458 -7.7671824 -2.225074 -9.518169
000350 a5 17 1a c1 ff bf 0d c1 3b 35 bd c0 0e bd 56 c1
       -9.630773 -8.859374 -5.912748 -13.421156
000360 1c 3f 46 c1 ec e8 f1 c0 f6 66 22 c1 c9 1d f1 c0
       -12.390408 -7.559683 -10.150137 -7.534886
000370 b1 51 c4 c0 58 c4 dc c0 80 d2 bf c0 61 38 9c c0
       -6.134972 -6.8989677 -5.994446 -4.881882
000380 9d dc 8c c0 c0 48 03 c1 0b 1f 85 c0 90 b5 8b c0
       -4.4019303 -8.205261 -4.1600394 -4.3659134
000390 de 29 d5 c0 be 94 4e c1 52 48 19 c1 50 85 b2 c0
       -6.6613607 -12.911314 -9.580156 -5.5787735
0003a0 fd bc 2d c1 05 b0 ce c0 19 f6 b1 c0 50 14 08 c1
       -10.85864 -6.4589868 -5.561291 -8.504959
0003b0 4f dc 3f c1 3a 4a 9f c0 dc ab 1d c1 61 51 04 c1
       -11.991286 -4.977811 -9.854458 -8.269868
0003c0 7b 03 08 c1 ab 42 0c c1 90 9d 25 c1 63 64 50 c1
       -8.50085 -8.766276 -10.350967 -13.024508
0003d0 6c 8a 11 c1 60 ea 31 c1 36 d9 0a c1 31 19 ce c0
       -9.096294 -11.11972 -8.67803 -6.440575
0003e0 27 43 01 c1 91 a0 39 c1 e4 72 59 c1 c4 7f b7 c0
       -8.078895 -11.601701 -13.590549 -5.7343464
0003f0 5d 60 1e c1 3f 1a 3f c1 36 5e a1 c0 92 86 e6 c0
       -9.898526 -11.943908 -5.0427504 -7.203927

fc2.weight f4 [1, 256]
000000 4a 0b 11 bd 33 8a 9e 3c 84 4e b8 bd 5f b3 ed 3c
       -0.035411157 0.019353008 -0.08999351 0.029016195
000010 4b b2 23 3d fc 49 d2 bc 75 18 de 3c db ad b7 bc
       0.039964955 -0.025670044 0.027111271 -0.022421768
000020 cc 54 45 bd 35 27 c9 3c 9e 3f a3 bc 82 7d e2 bc
       -0.04817657 0.024554828 -0.019927796 -0.027647737
000030 bf 3a e5 3d b9 83 f8 3c 24 02 4a bd 4e c3 58 bd
       0.111928456 0.030336248 -0.049318448 -0.052920632
000040 10 4f d5 bc b3 c1 0e bd a9 6e e5 3c 9c 40 33 bb
       -0.026038677 -0.034852695 0.028006868 -0.0027351743
000050 2d c6 54 3d 01 5d a3 3c d2 62 12 bd be d0 16 3d
       0.051946808 0.019941809 -0.035738774 0.036820166
000060 30 0c ff bc aa f0 62 bd 8e ff d4 3d 1a b8 3d 3d
       -0.031133741 -0.055405296 0.10400306 0.04631815
000070 e9 35 07 3d 63 57 5a bd c0 4d 20 bd dd 74 46 3d
       0.033010397 -0.053305995 -0.03913665 0.048451293
000080 32 49 0b bd 4e 05 86 bd 67 55 d5 3c e6 e6 fa bc
       -0.03400535 -0.065439805 0.0260417 -0.03062768
000090 8b 3b 52 3d 7b 74 02 3d 50 35 5d 3d 28 a6 0c 3d
       0.051326316 0.031849366 0.05400592 0.034338146
0000a0 e9 0a 98 bc 2f 65 ac bc 36 6e dd bc b8 29 35 3d
       -0.01855989 -0.021044342 -0.027030092 0.04422924
0000b0 0d 10 3d 3d 16 c4 2f 3d c9 45 07 bd 10 04 0c 3d
       0.046157885 0.04291161 -0.033025537 0.03418356
0000c0 94 1c d5 3c 72 3d 06 3d 90 b7 e7 be 03 15 c0 3c
       0.026014604 0.032773443 -0.45257235 0.02344752
0000d0 69 35 a9 bc 88 9d bf bd 92 69 38 3d bd f2 38 3d
       -0.02065535 -0.093562186 0.045022555 0.04515337
0000e0 ec 71 f7 bd 38 4b 1e be 74 2c 5b bd 74 4d f6 bc
       -0.12082276 -0.15458381 -0.05350919 -0.03006623
0000f0 66 9d 18 3d 4e 66 ab 3c 05 4d 2a 3d 9c 63 3c bc
       0.03725948 0.020922806 0.041577358 -0.011498358
000100 7a 3c 67 bd 67 36 32 bd 38 1e 2a bd 88 fc 07 3d
       -0.05645416 -0.043508913 -0.041532725 0.033199817
000110 de d2 3a 3d cf 1f 35 bd c3 29 74 3d 6b c2 1f be
       0.045611255 -0.04421979 0.05961014 -0.15601508
000120 ef 3a 53 3d 7f 2e 0f 3d 7a 2a 79 bc 34 69 c6 bc
       0.051569875 0.03495645 -0.015207881 -0.024220087
000130 ef a3 37 3d cb 75 dd 3c bc 74 64 bd da 97 e8 bc
       0.044834074 0.027033707 -0.05577539 -0.028392721
000140 d5 f6 17 bd 74 b4 97 3b f5 d2 8c 3c 15 f4 0f bd
       -0.03710063 0.004629666 0.017190436 -0.035144884
000150 38 2e e4 3c 0e 16 95 3d bc e2 d5 bc 20 41 17 bd
       0.02785407 0.07279597 -0.026109092 -0.036927342
000160 cb 6c a9 3d 73 9d 6e 3c 53 6f 0f bd d3 27 8b 3d
       0.08272704 0.014563906 -0.035018276 0.06794705
000170 53 95 60 bd 4f e7 5d 3d 81 00 ae bd 63 3d 9f 3d
       -0.054829907 0.05417567 -0.0849619 0.077753805
000180 56 12 d6 3c 98 83 57 bd 8c 81 73 3c f5 51 6b 3d
       0.02613179 -0.052615732 0.014862429 0.057451207
000190 a5 d6 cd bc 6e 97 eb 3c 58 01 1d bd 5d 89 58 bd
       -0.025126765 0.02875873 -0.03833136 -0.052865375
0001a0 eb f7 fa bc 94 94 9b bc eb 4b 58 bd b5 b7 22 bd
       -0.030635795 -0.018991746 -0.052806776 -0.039725978
0001b0 9a 18 61 be 25 78 ac 3c 98 8b d5 3c 2a 77 1b be
       -0.21982041 0.021053383 0.02606754 -0.15182176
0001c0 6c 96 9a bc 7f 7d 57 bd 83 58 14 bd 32 b4 55 bd
       -0.018870555 -0.052609917 -0.036217224 -0.0521738
0001d0 81 d7 ed 3c 95 59 ce 3c 38 1a 90 3c 3c 21 e3 3c
       0.029033424 0.0251892 0.017590627 0.027725808
0001e0 7d 47 2f bd dc 63 ab 3c b9 0e 87 be 11 35 d2 3c
       -0.042792786 0.02092164 -0.2637842 0.02566007
0001f0 c6 b9 46 3d 27 eb c4 bc df bd cc 3c e4 7f 5b bd
       0.04851701 -0.02403791 0.024992881 -0.053588763
000200 10 c9 4b bc 97 9f 00 bc d0 0c 43 bd 33 aa df bd
       -0.012438074 -0.007850549 -0.04761964 -0.10921135
000210 ce 7b 92 3c 4a 44 86 bc 9c ce 68 3d c4 9f 0c bd
       0.0178813 -0.016389985 0.056837663 -0.034332052
000220 19 0f 1d 3d cf 5c 1f bd 11 9c c0 3c 48 a5 3f 3d
       0.038344476 -0.03890687 0.023511918 0.046788484
000230 e9 2b d8 bc 2f 73 3d 3d 7b 97 0d 3d d1 a1 da 3d
       -0.026388125 0.046252426 0.03456829 0.10675395
000240 d9 8e 44 bd ba 83 d8 3d 5b 61 1f bd 82 19 73 3d
       -0.047987793 0.10572 -0.038911205 0.059350498
000250 d1 a8 01 bd 1f 0e 01 bd 51 47 0d bd 6e a1 f9 bc
       -0.031655136 -0.031507608 -0.03449184 -0.030472483
000260 59 96 47 3d c4 1c 5f 3c b6 cf f4 bc 5b c0 0b bd
       0.048727367 0.013617698 -0.0298842 -0.03411899
000270 3a 75 35 3d ec b7 31 bd 55 7c 75 bc 67 94 32 3d
       0.04430125 -0.043388292 -0.014983256 0.04359856
000280 35 b0 4e 3d 2c 58 67 bd a9 44 34 3d 83 37 12 bd
       0.050461013 -0.05648057 0.044010792 -0.03569747
000290 7b 69 cb 3c f7 c5 37 bd d3 6f 39 3d b4 7f 17 bd
       0.02483057 -0.04486653 0.04527266 -0.03698702
0002a0 5a f5 d6 3e f7 e2 04 3d a1 3d cc 3c 2d 58 d5 3c
       0.41984063 0.032443013 0.02493173 0.026043022
0002b0 15 08 07 bd 52 8e c5 3c e8 9d 05 bd 87 09 cc 3c
       -0.032966692 0.024115715 -0.032621294 0.024906887
0002c0 de a2 48 bd c2 ad 5f bd e7 e6 f1 3c ce 2e dd bd
       -0.048983447 -0.054609068 0.029529048 -0.10799943
0002d0 9d a2 76 bd 65 29 1a 3d a1 73 17 3d 2d 23 4a bd
       -0.060213674 0.037637133 0.036975507 -0.049349952
0002e0 a3 52 e7 bc 7e b8 ea 3d 59 02 0e bd df 24 20 bd
       -0.028237646 0.1146097 -0.034670208 -0.039097663
0002f0 3b 79 2b bd 74 f8 b2 3c 72 42 87 bd 94 de b7 3c
       -0.04186366 0.021846987 -0.0660447 0.022445
000300 4c e0 22 bd 51 9c 59 bd ea 6d 7a 3c 58 20 d8 3d
       -0.039764687 -0.05312759 0.015284995 0.10553044
000310 9b c7 f7 bc 85 fd a1 3c d2 83 26 3d 16 fe 81 3d
       -0.030246546 0.019774208 0.040653057 0.06347291
000320 61 0f d1 3d f4 88 2a 3d 3b a5 cb 3c 6e 75 12 3d
       0.102080114 0.041634515 0.024859061 0.03575652
000330 0e db f1 3c 6e a6 ef 3c 76 fa e1 bc 56 e6 95 bc
       0.029523399 0.029254165 -0.02758525 -0.01829831
000340 50 ea ac bc 94 28 91 3d 47 15 c0 3c da eb 3a bd
       -0.021107823 0.07087818 0.023447646 -0.04563508
000350 2c da 04 3d b5 5c 47 3c a4 cf 00 3d d0 72 34 bd
       0.032434627 0.012168099 0.03144802 -0.044054806
000360 76 ab cb 3c a5 39 11 3d 3b 67 e8 3c 76 7c 11 bd
       0.024862032 0.035455365 0.028369537 -0.035519086
000370 d4 90 f5 bc 45 b1 25 bd 19 87 e2 3c 80 cc 28 bd
       -0.029976286 -0.04045226 0.02765231 -0.04121065
000380 05 29 c0 3d a0 cb 07 bd bb dc c1 3e 99 c9 90 3d
       0.09382824 -0.033153176 0.37863716 0.07069702
000390 62 85 2a bd 77 33 41 3d 98 e8 cc bc 0c b3 4c 3d
       -0.04163111 0.04716822 -0.025013253 0.04997544
0003a0 b6 a6 f4 bc d2 95 12 3d 38 22 51 bd f7 7a 71 3d
       -0.02986465 0.03578741 -0.051058024 0.05895516
0003b0 41 eb 92 bc 8f c5 3c 3d db 07 d6 bc f2 a6 29 3d
       -0.017934443 0.046086844 -0.026126793 0.041418977
0003c0 0b 1d 04 3d 71 e2 67 3d 32 ee cb bc fd ec e9 bc
       0.03225426 0.056612436 -0.024893854 -0.028555388
0003d0 cd b1 e7 bc e8 06 2c bd dd d4 cc bc b7 e5 19 bd
       -0.028283024 -0.041998774 -0.025003845 -0.03757259
0003e0 04 b4 26 3d c4 ca 48 bd 21 f6 54 bc 4e 3f 03 3d
       0.04069902 -0.049021497 -0.012998135 0.032042794
0003f0 4c cc 0c bd 5e 25 27 bd 66 a9 fb bc c4 34 0d 3d
       -0.03437452 -0.04080712 -0.030720424 0.03447415
