resources/models/1L-256.pth (torch, 796150 bytes, 3 tensors)

fc1.weight f4 [256, 768]
00000000: 0a6e fbbb 56cf dbbb ca50 103d eebf 473c
00000010: 896c 8dbc db8e 783c fcb2 09bd d970 e6bc
00000020: acf0 093f e71f acc0 2ae3 883e 08e7 26c0
00000030: b5b8 14bc b174 80bf d574 233f 45c6 ddbe
00000040: 9216 ac3f ed79 63c1 7f3b 8240 cfcc 5fc0
00000050: 8dc6 68bd 1ff7 5fbf 6b17 bebc 553c b6be
00000060: a018 ea3e 1d22 3140 af07 0040 573f 2c40
00000070: 6fde 21bf b6d5 b33f dccc 3abf 5f43 65bf
00000080: 536a 70be fa56 0e40 a7ca 5bc0 d139 f53f
00000090: 15c2 37c0 ae06 4d3f f33f a4bf 22ef a5bf
000000a0: 13fc 6fbd ef97 3440 9491 09c0 41d6 493f
000000b0: d114 9abf d8ce 40bf 79e8 32bf 52e5 4ec0
000000c0: 2cb1 dabf cb5b 0140 96bb 7dc0 de31 ff3f
000000d0: 7850 8abf e1f7 7dc1 3d35 eabf 8eb8 513f
000000e0: a59f ac3c 92de 0fbd b215 bf3c 2a89 23bc
000000f0: eafd ba3c 6651 d6bc ef02 10bd 962f 80bc
00000100: 7c1b 18bf b8a6 603d 79eb 9cbf 80bf bdbf
00000110: b52f e03d 9c7a 12bf 369d 24c0 4078 a2bf
00000120: efaa 6e3e d370 b7c0 bde7 35bf 5310 69bf
00000130: 0155 843e 7ece 7c3f 06b4 18bf 0d0c 8c3e
00000140: c42f 5abe 9efd bcbf eaf2 1cc0 a1e5 3f3f
00000150: 1b5a 80bf 3d2b 7bbf 3476 d1be cde3 aa3d
00000160: 3607 ffbf fc93 51c0 be64 66bf 1d2a c1bf
00000170: 36ee 8dbe b303 babe a146 0b3f d633 a1bf
00000180: 9ba7 4cbf 816c 11bf 2932 8abe d244 c6bf
00000190: 53ec f9be c1f1 3d3f b188 6abe ab65 063f
000001a0: a2aa f53d 2d32 a8bf bad4 4f3f 5531 ecbf
000001b0: d43b 9dbf 9626 b23e 421e 9b3f 2aac ccbe
000001c0: f462 86bf a3fa bac0 ac27 fcbf 29c5 c0bf
000001d0: ebd7 0fbf b455 56bf 0c5e e33e 5637 9c3e
000001e0: 739d 26bf fc1c 963f 38a2 b5bf c45d 5abf
000001f0: 0e31 503f 1ec3 b3bf 4ca9 e0be e8ed 1a3f
00000200: f53c 4740 5cf2 633e e33d 853f 5b26 a3bf
00000210: e525 493f 9246 b4be 6c0a cf3f 2a57 08c0
00000220: b5c4 d2bf e50c 1d40 07e0 acbf 34c6 a03f
00000230: 1ead 5cbf 85d3 e33c 4e23 913d 9f6e 1f3e
00000240: ba01 1440 27d2 18c0 9c25 893f d58e 01bf
00000250: 6c52 903f edb0 dbbf ddd9 0a3e 84d3 b23f
00000260: 859f 33c0 9d2b bb3e 7182 1dc0 d0aa 38c0
00000270: 3b2d 5a3e aebe 77bf cff5 ed3e 9783 23c0
00000280: 2567 783f 11b2 49c0 7dc6 f6bf 8994 e6bf
00000290: 2f1a 08c0 9f8e a9be 877e 19bf 3fcd 9dbf
000002a0: 4377 a5bd 3e7d 113e 34c3 f5bf 7401 173e
000002b0: 0623 613f 3413 25bf f0a8 a8bf a3e7 18c0
000002c0: 76b5 673f 42e7 64bf 17c9 13bf 1518 1fbf
000002d0: 7804 b8be 7f78 15c0 4148 67bf dbf8 8ebf
000002e0: 5d52 01c0 7d20 52bd 8147 a53e 4a53 10bf
000002f0: 0e41 20bf baf3 fabf 003a 1fbf 56e6 0fc0
00000300: fc69 3cc0 0240 12c0 2896 22c0 91e8 0cc0
00000310: 0cba 57c0 191c 69c0 16de 25c0 5e84 92c0
00000320: f63d 35c0 f9a9 17c0 5c57 9dbf debf 09c0
00000330: 2527 50c0 7770 5dc0 b965 48c0 f736 6ec0
00000340: 9e38 40c0 b2ca d3bf 5302 07c0 f914 cbbf
00000350: 36d2 12c0 cb6a 4cc0 69ef b5bf 21c1 82c0
00000360: da9f 883e 21d5 88c0 be74 89be 6d49 d3bf
00000370: adba 42c0 0ff7 66c0 f0dd 71c0 f998 72c0
00000380: c41a 27c0 aece 5fc0 ae97 21c0 8d18 45c0
00000390: cfb9 8ac0 5afc 40c0 fd84 ccbf 71a9 6cc0
000003a0: 368d 07c0 2e24 d7bf 9618 30c0 bbbd 74c0
000003b0: 973b 75c0 fef6 77c0 ac91 36c0 b039 3bc0
000003c0: 3e1d 4bc0 3198 45c0 0917 4cc0 8afc 3bc0
000003d0: a8d1 74c0 1ffe 16c0 bfcf 61c0 5b94 4ec0
000003e0: ca66 eabf 6e18 f8bf e00a 67c0 04e6 54c0
000003f0: ced9 72c0 c8d3 43c0 643e 1fc0 56a2 82c0
-0.00767303 -0.006708066 0.035233296 0.012191756 -0.017263668 0.015170778 -0.03361796 -0.028129982
0.5388286 -5.3788943 0.26735812 -2.607851 -0.009077241 -1.0035611 0.63850147 -0.4331533
1.3444388 -14.217267 4.0697627 -3.4968755 -0.056829978 -0.8748645 -0.023204526 -0.35592905
0.45721912 2.767707 2.000469 2.691366 -0.6323003 1.4049594 -0.7296884 -0.89555925
-0.2347806 2.2240586 -3.434244 1.9158269 -2.8712208 0.8008832 -1.2832016 -1.2963603
-0.058590006 2.8217733 -2.1495104 0.7884255 -1.2037603 -0.7531562 -0.69885975 -3.2327466
-1.7085319 2.0212276 -3.9645743 1.9937093 -1.0805807 -15.873017 -1.8297497 0.81922233
0.021072218 -0.03512437 0.023325775 -0.009981433 0.022826154 -0.02616186 -0.035159048 -0.01564769
-0.5941694 0.054846495 -1.225936 -1.4824066 0.109465994 -0.5721834 -2.5720954 -1.2692947
0.23307393 -5.7325225 -0.7105673 -0.91040534 0.25846103 0.9875258 -0.59649694 0.27352944
-0.21307284 -1.4764898 -2.4523263 0.7495976 -1.0027498 -0.9811285 -0.40910494 0.08344231
-1.9924076 -3.2746572 -0.8999747 -1.5090977 -0.27720803 -0.36330947 0.54404646 -1.2593944
-0.79943246 -0.5680619 -0.26991394 -1.5489752 -0.48813114 0.7419701 -0.22903706 0.52498883
0.11995436 -1.3140312 0.8118397 -1.8452555 -1.2283883 0.34795064 1.2118609 -0.399751
-1.0498948 -5.8430953 -1.9699607 -1.5060169 -0.5618884 -0.8372452 0.4440769 0.30510968
-0.65084 1.1727595 -1.419013 -0.85299325 0.8132485 -1.404392 -0.43879163 0.60519266
3.1130955 0.22260422 1.0409511 -1.274608 0.7857345 -0.3521009 1.6175056 -2.13032
-1.646628 2.453912 -1.3505868 1.2560487 -0.86201656 0.027810821 0.07086812 0.15569542
2.3126054 -2.3878267 1.0714602 -0.5060857 1.1275153 -1.7163368 0.13559671 1.39708
-2.8066113 0.36556712 -2.4610865 -2.8854256 0.21306317 -0.9677533 0.464766 -2.5549066
0.97032386 -3.1514933 -1.9279324 -1.8014079 -2.1265981 -0.33116624 -0.5995869 -1.2328261
-0.08079388 0.14207932 -1.9200196 0.14746648 0.87944067 -0.64482427 -1.3176556 -2.389138
0.9051126 -0.8941537 -0.57728714 -0.6214612 -0.3594091 -2.3354795 -0.90344626 -1.1169695
-2.020652 -0.051300514 0.32281116 -0.5637709 -0.62599266 -1.960563 -0.62197876 -2.2484336
-2.9439688 -2.2851567 -2.5404148 -2.2016947 -3.3707304 -3.64234 -2.59168 -4.578658
-2.8319068 -2.3697493 -1.2292285 -2.1523356 -3.2523892 -3.4599893 -3.1312087 -3.7221048
-3.0034556 -1.6546233 -2.1095169 -1.5865775 -2.2940803 -3.1940181 -1.4213687 -4.0860753
0.26684457 -4.2760167 -0.2684688 -1.6506783 -3.0426438 -3.6088293 -3.779171 -3.7905867
-2.6110086 -3.4969897 -2.5248828 -3.0796235 -4.3351817 -3.0154023 -1.5978085 -3.697842
-2.1179938 -1.6807916 -2.7515006 -3.8240802 -3.831762 -3.8744502 -2.852641 -2.925396
-3.1736598 -3.087414 -3.188906 -2.9372888 -3.8252964 -2.3592603 -3.5283048 -3.227805
-1.8312619 -1.9382455 -3.6100388 -3.326539 -3.7945437 -3.059801 -2.488183 -4.0823164

fc1.bias f4 [256]
00000000: f5dc 83c1 63f8 b0c1 e81e 2dc1 38b1 40c1
00000010: e0f9 b6c1 d1c7 f9c1 4db4 9ac1 222a 7dc1
00000020: 672f 7fc1 9c3f f0c0 39da 0cc2 12bc f4c1
00000030: 04f7 c2c1 1a1e 44c1 b593 4dc2 8a8b d7c1
00000040: 9a16 70c2 64e3 1bc1 7722 04c2 5be6 3ec2
00000050: 5672 43c1 5ee3 2ac2 6dd4 81c1 2782 abc1
00000060: b0a7 f0c0 235d bec1 4739 1dc0 8f30 8bc1
00000070: 202c 9ec1 0562 49c2 6836 a6c1 4afd a2c1
00000080: 05b0 2cc1 dd3b a7c0 cbe0 46c1 02b8 69c1
00000090: 4972 bec1 3cd1 fec1 9875 d0c1 44aa 06c1
000000a0: 0c94 efc1 39ff cfc1 b460 cec1 6a0d b3c1
000000b0: 8a47 c8c0 5bea 27c1 c7c5 a4c0 af8c 14c1
000000c0: 0350 9fc1 c9ba a8c1 e3a7 58c1 ab8e dbc0
000000d0: ca18 f3c1 35f9 2dc1 b624 01c1 15aa d4c1
000000e0: 636e 2fc1 0abf acc1 6c66 88c1 3e65 a5c1
000000f0: ace8 63c1 0093 aac1 cbd4 c1c1 378b 14c2
00000100: 4886 ffc1 d04e 01c1 1c7f f8c1 1d18 0ac1
00000110: c35c 5bc1 c55a 94c1 a5de bcc1 2637 4dc1
00000120: 0fd6 19c1 2538 3dc1 fb32 06c2 3efe d7c1
00000130: fd45 92c1 04aa 8dc1 9e71 8cc1 9e14 e0c1
00000140: 1c54 92c1 8115 93c1 8c4e cbc1 b9fb 82c1
00000150: 51d8 adc1 3d42 d9c1 6b9c a9c1 3061 79c1
00000160: 5f96 afc1 1c74 b5c1 9954 6cc1 9c67 e3c0
00000170: fa39 4cc1 64e2 71c0 e43e 06c2 207a 15c2
00000180: 08dd 8bc1 2e61 f3c1 44d5 2ac1 7847 c5c1
00000190: fcc5 76c1 ec26 15c1 d0dd fbc1 b7ba 4cc1
000001a0: 794e 3ec1 d058 d6c1 aef4 efc1 bf8c 62c1
000001b0: d2b1 76c1 0d87 2cc1 a6d1 a9c1 8e82 13c0
000001c0: 2e27 edc1 efea 4dc1 9c02 07c2 17e5 4bc1
000001d0: 895c 8ec1 fdfe 81c1 8073 31c1 79b0 b4c1
000001e0: a466 92c1 559f 83c1 5628 8cbf 8864 adc1
000001f0: 082f 33c1 b069 92c1 616b c9c1 3c15 bcc1
00000200: 154d c6c1 76b5 68c1 8292 74c1 4cea 36c1
00000210: ce84 8ac1 df32 9dc1 3a07 c5c1 e554 b2c1
00000220: 9099 2cc1 ee96 f4c1 622e 78c1 4e9a fcc0
00000230: 6d4e 6ac1 a204 17c1 45bc 84c1 f431 17c1
00000240: 2bc9 a7c1 832b f6c0 0f79 5bc1 6713 26c1
00000250: ccf2 02c2 d422 81c1 d11d 41c1 ef92 0fc2
00000260: 3274 e1c1 d2e0 b3c1 6f19 f3c1 fc7b b7c1
00000270: 823e f6c1 aacf 11c1 9d37 bac1 0bcf 4ec1
00000280: 2138 f9c0 c25b 19c2 6a6a 98c1 45dd 90c1
00000290: 789d 1dc2 34b1 a8c0 d8c8 69c2 2723 f4c1
000002a0: bc70 bbc1 c746 2dc1 ef8d d2c1 5ebd 9dc1
000002b0: 45e1 c3c1 eb99 abc1 2593 03c1 c05e f1c1
000002c0: ae1d f3c1 f323 b8c1 b722 adc1 adc4 edc1
000002d0: 3c90 e4c1 5c7e d5c0 d409 afc1 1ebe 81c1
000002e0: 30f5 a1c1 b6e2 1abf 0a65 5fc1 2ff4 bec1
000002f0: b65a 19c2 6e51 40c2 788d 26c1 a5af 99c1
00000300: 886c 2ac1 8e6a 18c1 52dd e0c1 a9b6 3cc1
00000310: d200 d7c1 197f 52c1 8975 59c1 620e bfc1
00000320: a257 04c1 1593 9cc1 dcbb 18c2 3707 ebc0
00000330: 14ce f1c1 b995 dac1 13d5 94c1 5c3a 48c1
00000340: 89c6 f1c1 f31c 62c1 3f0b 89c1 e834 a3c1
00000350: adbf bdc1 0dd9 36c1 73b7 a3c1 497b e0c1
00000360: dc9e 1ac2 f256 84c1 339a 15c2 4c72 8fc1
00000370: 350f 0ac1 afed 76c1 1a6b 90c1 05ed 22c1
00000380: 6851 e8c0 d45c 11c2 c477 fdc0 5152 89c1
00000390: 9d0b 53c1 2563 9ac1 e03d acc1 0989 1dc1
000003a0: c8f3 afc1 deb6 2fc1 4cd6 1fc1 d448 b3c1
000003b0: ee28 14c2 e788 30c1 c6c1 88c1 8671 27c1
000003c0: 17ac 07c1 11e6 87c1 34f5 d7c1 80bf e3c1
000003d0: 5439 a6c1 be8d d4c1 80a3 88c1 b25b 3bc1
000003e0: 0bff a5c1 3f56 d8c1 1da7 54c2 0556 17c1
000003f0: ff33 b1c1 063e a0c1 1c76 19c1 973c 7cc1
-16.48289 -22.121283 -10.820045 -12.043266 -22.87201 -31.222567 -19.338037 -15.822786
-15.949073 -7.507765 -35.213108 -30.591831 -24.370613 -12.257349 -51.394245 -26.943134
-60.02207 -9.743015 -33.033657 -47.724957 -12.215414 -42.72204 -16.228724 -21.43855
-7.5204697 -23.795477 -2.456621 -17.39871 -19.771545 -50.345722 -20.776566 -20.373676
-10.7929735 -5.2260575 -12.429881 -14.607424 -23.805803 -31.852165 -26.057419 -8.416569
-29.947289 -25.99962 -25.797218 -22.38155 -6.258733 -10.494716 -5.1491427 -9.284347
-19.914068 -21.091204 -13.540988 -6.8611655 -30.387104 -10.873342 -8.071463 -26.583048
-10.96445 -21.59328 -17.05001 -20.674435 -14.244305 -21.321777 -24.228903 -37.135952
-31.940567 -8.081741 -31.062065 -8.630887 -13.710147 -18.544321 -23.608713 -12.825964
-9.61476 -11.826207 -33.549786 -26.999142 -18.284174 -17.708015 -17.555477 -28.010067
-18.291069 -18.3855 -25.413353 -16.372911 -21.730623 -27.157343 -21.201376 -15.586227
-21.948423 -22.681694 -14.770654 -7.1063976 -12.764154 -3.7794428 -33.561417 -37.369263
-17.482925 -30.422451 -10.677067 -24.659897 -15.423336 -9.322002 -31.483307 -12.795585
-11.894158 -26.793365 -29.994473 -14.159362 -15.418413 -10.782971 -21.227367 -2.3048434
-29.64413 -12.869857 -33.75255 -12.74343 -17.795183 -16.249506 -11.090698 -22.586168
-18.300117 -16.452799 -1.094981 -21.674088 -11.198982 -18.301605 -25.177431 -23.510368
-24.787638 -14.544302 -15.2857685 -11.432201 -17.314846 -19.64984 -24.628529 -22.291452
-10.787491 -30.573696 -15.511324 -7.893836 -14.644147 -9.438631 -16.591928 -9.449696
-20.973227 -7.6928115 -13.717055 -10.379737 -32.737106 -16.142006 -12.069779 -35.89349
-28.181736 -22.484776 -30.387419 -22.93554 -30.780521 -9.113199 -23.277155 -12.925548
-7.7881017 -38.339607 -19.05196 -18.108042 -39.403778 -5.2716312 -58.446136 -30.517164
-23.430046 -10.82978 -26.319304 -19.717464 -24.484995 -21.450155 -8.223424 -30.171265
-30.389492 -23.017553 -21.64195 -29.721033 -28.570427 -6.6716747 -21.879799 -16.21783
-20.24472 -0.60502183 -13.962168 -23.86923 -38.338585 -48.07952 -10.409538 -19.210764
-10.651497 -9.526014 -28.108067 -11.794595 -26.8754 -13.15603 -13.591195 -23.882023
-8.271395 -19.571817 -38.183456 -7.3446307 -30.225624 -27.323107 -18.60404 -12.514248
-30.221941 -14.132068 -17.130491 -20.400833 -23.718592 -11.427991 -20.464575 -28.060198
-38.655136 -16.542454 -37.400585 -17.930809 -8.628713 -15.433028 -18.052296 -10.182866
-7.2599373 -36.340652 -7.92087 -17.165194 -13.190335 -19.29841 -21.530212 -9.845956
-21.994034 -10.982145 -9.989819 -22.41056 -37.03997 -11.033423 -17.094616 -10.465216
-8.479514 -16.987337 -26.994728 -28.468506 -20.777992 -26.56921 -17.079834 -11.709887
-20.749533 -27.042112 -53.163197 -9.458501 -22.150389 -20.030285 -9.591335 -15.764792

fc2.weight f4 [1, 256]
00000000: c883 04bd 3313 d93c 6518 47bd 59fa 873d
00000010: 405e 293d 4478 0ebd 94cd ea3c e0a1 32bd
00000020: 37d7 91bd 19cf 3f3d 02d8 e0bc b89e ddbc
00000030: 871c 813d d6ec 333d fbe2 41bc b628 25bd
00000040: 1ace 17bd 9683 3abd bb2c 993c 2544 6ebd
00000050: ccd5 063d 91d5 7e3c e343 b4bc 2392 fc3c
00000060: b8ea dbbc 2b74 8bbc 5ebb 323d 2b2b 153d
00000070: d7af 4a3d 69bb 56bc 1196 cabc 2b6d e43c
00000080: b4b3 debc 15d6 d1bd 91aa ea3c 75cc 43bd
00000090: b13d 4a3d 30e3 af3c d5a8 f73c 4519 b73c
000000a0: 5746 a1bc 0137 53bd 6c42 7abc 1e08 6a3d
000000b0: d144 503d 3332 e53c c060 18bd 734f 143d
000000c0: 24c9 333d 30ed 243d 251a 38be 4abe 183d
000000d0: 437c 94bc b3e2 8dbd 6913 023d 8a4e fe3c
000000e0: 6dce a1bd a951 f2bd 0d0f c3bd b061 52bd
000000f0: a7fc 873d f214 c53c 953d 623d d79f 2dbd
00000100: 1b3a a6bc c217 5fbd 010c 12bd 8dab 143d
00000110: 0c91 4b3d 60af 13bd b959 143d d162 14be
00000120: 4b59 203d 2b7e f53c 478f 1bbd dd9d 8cbc
00000130: b58b ef3c 0a98 ea3c 5c69 dbbc 9234 2cbc
00000140: 1ece 11bd 7678 033d 4760 bb3c 88c7 8cbc
00000150: c410 203d 37dc 323d 8d7b 06bd ff1f e3bc
00000160: 3a7b a93d 9118 cc3c f075 62bd 5a7d 233d
00000170: 215e 68bd dad7 1f3d 41c2 3fbd 2a9a c33c
00000180: 2872 363d aa14 4fbc 680e af3c 3ad1 173d
00000190: 9e59 19bd 7628 383d e564 22bd 71b5 34bd
000001a0: 884a 5ebd 7a99 f7bc 95b2 e8bc 7043 2cbd
000001b0: ee92 71be 0935 c43c 580b 613d cd6b 8dbd
000001c0: 34e7 40bd 6303 01bd c91e 05bc ea07 01be
000001d0: 2b8c 023d fe97 2a3d ffff 133d b493 d13c
000001e0: 0046 6fbd 3a9f dd3c 707c 25be 3669 123d
000001f0: b7cb 033d 9be7 59bd c258 293d 58d8 f9bc
00000200: e2cd acbc 1c8f d5bc b1b7 0cbd 1179 92bd
00000210: 4c55 253d 2e7f f3bc 4f92 0e3d 2056 20bd
00000220: 17ff 3c3d 42d3 10bd 8bf1 5e3d 597e 053d
00000230: 4492 88bd 01f2 a23c cde2 403e 0e2b d73c
00000240: d9a1 80bc cc08 993d 9f4e e4bc ed41 0e3d
00000250: b028 edbc bbc9 1cbd b445 2fbd 21ff 16bc
00000260: e629 103d 4126 653d bae9 24bd 7a07 06bd
00000270: 7765 053c 1e49 cabc 4d88 73bc f8b1 d93c
00000280: 17db 183e 9a8d 18bd e005 293d d069 f3bc
00000290: 0169 953c fa64 61bd a190 ad3d 46fe 06bd
000002a0: b4e1 3c3e 4e76 2c3d d394 613d 3bc8 143d
000002b0: 49e1 41bd 6d41 a93c 4d6a 30bd 98ea f03c
000002c0: 2409 79bd f709 05bd d36d 163d f180 ccbc
000002d0: 8c4b 22bd 2852 403d 91ff 083d e7fd 3ebd
000002e0: 52d2 48bd 6435 013e ba63 e4bc e68c 45bd
000002f0: d907 c6bc 448d f33c d350 babd 461e 3c3d
00000300: c07e 1bbd 2fbc 3ebd b19d ddbb 8d02 8f3d
00000310: 6e9e 4bbd 5900 063d d536 2d3d 7d78 063d
00000320: f671 913d 7298 033d 69fe df3c 2342 b43c
00000330: b3d8 103d 38f6 4e3d c9db debc e789 47be
00000340: 4dcb 1bbd a4c5 6d3d 76d3 573e f00b 76bd
00000350: aa6d c33c f4e3 273d 584c 0d3d e61d 24bd
00000360: 099d cd3c 85a5 fb3c 9e49 013d d63a b3bc
00000370: e2e7 34bd 76e9 f3bc 329b 3b3d 7695 32bd
00000380: 5a89 863d 829b 13bd 9875 233e 4503 533e
00000390: 91e3 2ebd 13ae 4f3d 82e6 19bd 259b 2e3d
000003a0: 653e 05bd 72d3 b33c bbd4 6ebd 8197 483d
000003b0: d318 32bd e0a7 7c3d 486e cdbc 4fa1 803d
000003c0: 6a27 b73d 09c3 123d 31f7 2abd e70a 17bd
000003d0: b872 c2bc 6c7c 3abd ea4d 1fbd 30e5 0dbd
000003e0: f1c9 9d3c af04 aabc 6c53 6cbd f690 613d
000003f0: 5b52 ffbc 58ee 32bd 6dbb 6abd 764f 613d
-0.03235224 0.026498413 -0.04860725 0.06639547 0.04134965 -0.034782663 0.02866248 -0.043611407
-0.07121127 0.046828363 -0.02744675 -0.027053222 0.06304269 0.043927036 -0.0118339015 -0.040322028
-0.03706179 -0.045535646 0.018698087 -0.058170456 0.032918736 0.015553848 -0.022005027 0.030831402
-0.026845321 -0.017023167 0.04363572 0.03641812 0.0494841 -0.0131062055 -0.02472976 0.027884087
-0.027185299 -0.10245911 0.028645786 -0.047802407 0.04937524 0.021470636 0.030231873 0.022350917
-0.019686861 -0.051566128 -0.015274625 0.057136647 0.05084688 0.027978038 -0.037201643 0.03620858
0.043892995 0.040265262 -0.17978723 0.03729085 -0.018125659 -0.06928005 0.031756792 0.03104331
-0.07900701 -0.11831982 -0.09524355 -0.051362693 0.066399865 0.024057839 0.05523451 -0.042388763
-0.020291379 -0.054466017 -0.03565598 0.036296416 0.049698874 -0.036055923 0.03621838 -0.1449082
0.039147656 0.029967388 -0.037978437 -0.017165119 0.029241422 0.028636951 -0.026783638 -0.010510581
-0.03559696 0.032097302 0.022873057 -0.017184988 0.03907849 0.043667044 -0.03283267 -0.027725218
0.08275457 0.024914058 -0.055288255 0.039914466 -0.056730393 0.03902421 -0.046816114 0.023877222
0.04454246 -0.012639204 0.021369174 0.03706477 -0.03743898 0.04496046 -0.039647 -0.04411835
-0.054270297 -0.03022455 -0.028405467 -0.0420565 -0.23591205 0.02395107 0.05494246 -0.06905327
-0.047095492 -0.03149737 -0.008125016 -0.12600675 0.031871956 0.041648857 0.03613281 0.025583126
-0.058416367 0.027053464 -0.1616075 0.03574487 0.0321767 -0.05319939 0.04134441 -0.030498669
-0.021094266 -0.026069216 -0.03435487 -0.07151998 0.04036455 -0.02972373 0.0348075 -0.039144635
0.04614171 -0.03535772 0.054429572 0.032591198 -0.06668523 0.019890787 0.18836518 0.026265647
-0.015702175 0.07472381 -0.02786952 0.03473084 -0.028950065 -0.038278323 -0.042791083 -0.009216101
0.035196207 0.055944685 -0.04026196 -0.032721974 0.008141867 -0.024693068 -0.01486404 0.02657412
0.14927326 -0.037244417 0.04126537 -0.029713541 0.018238546 -0.05502794 0.084748514 -0.032957338
0.18445474 0.04210501 0.05507357 0.036323767 -0.04733399 0.02066108 -0.043070126 0.029408738
-0.060799733 -0.032480206 0.03672583 -0.024963828 -0.03962283 0.04695335 0.033446852 -0.04662886
-0.049028702 0.12618023 -0.027879585 -0.048230074 -0.024173664 0.029730447 -0.09097447 0.04592731
-0.037962675 -0.046566185 -0.006763183 0.069829084 -0.049711637 0.032715175 0.04228862 0.03282975
0.071018144 0.032127805 0.027342992 0.022004193 0.03536291 0.05052778 -0.027204411 -0.194862
-0.03803568 0.058049813 0.2107676 -0.06006998 0.023856003 0.040988877 0.034496635 -0.040067576
0.025099294 0.030718574 0.031564347 -0.021878641 -0.044166453 -0.029774409 0.045802303 -0.04359957
0.065691665 -0.036036976 0.15962827 0.20606716 -0.042697493 0.05070312 -0.037573345 0.042628426
-0.032530207 0.02195141 -0.058308344 0.04897261 -0.043480705 0.061683536 -0.025077 0.06280767
0.089430645 0.03583053 -0.041739646 -0.03687563 -0.023736343 -0.045528814 -0.038892664 -0.0346424
0.019261332 -0.020754186 -0.057696745 0.055069886 -0.0311672 -0.043684334 -0.05730765 0.05500742
