resources/models/1L-256.pth (torch, 796150 bytes, 3 tensors)

fc1.weight f4 [256, 768]
00000000: 0a6e fbbb 56cf dbbb ca50 103d eebf 473c
00000010: 896c 8dbc db8e 783c fcb2 09bd d970 e6bc
00000020: b254 2d40 4073 79c0 38fa 2c3f 9abc a2bf
00000030: 9f90 f2be b2c6 ccbf ee6c 133f 4bf1 753e
00000040: b993 2240 01fe bec0 5398 1440 22f7 00c0
00000050: 3995 a73e ce4f 93bf 1b43 e4bd d92d df3e
00000060: 110a 0140 6de6 a63f 6d65 3bbe bc2a 5340
00000070: 0d55 a9bf a8fb 9c3f 64ef 82be bb15 dc3e
00000080: 46c5 5b3f 577e 433f 1dfa 6bc0 a358 fb3f
00000090: 1f57 30c0 07b6 9f3f 4010 7ebf 96c1 76ba
000000a0: f10f 14bf 5e46 2a3e d0d1 30c0 81ad a03f
000000b0: c5cd f2be 683a 02bd e889 febe d740 fcbf
000000c0: 9a46 41bf f060 013d 35d5 9cc0 404a 86bf
000000d0: 64b5 50c0 014c e2c0 d9f4 be3e 1d10 ecbf
000000e0: a59f ac3c 92de 0fbd b215 bf3c 2a89 23bc
000000f0: eafd ba3c 6651 d6bc ef02 10bd 962f 80bc
00000100: a78b 0940 4884 a5be 5516 a13f 7551 f9be
00000110: 5b66 c73f 60f6 25c0 a8f4 90bf f027 41c0
00000120: 54e5 a83e 5262 0cbf 9440 893f d6b8 fcbe
00000130: 878f 663f 6df3 6b3f 0193 e8be 04a8 c5bd
00000140: 470a 84be 098e 90bf 58da 0bc0 50db 0b40
00000150: d7e9 08c0 4bb9 6b3e c9a4 a6bf 23dc d73e
00000160: 6648 be3f 6650 7dbf 91e7 37be 6dba c3bf
00000170: 6c27 b13f 8a07 853e 963b 223d a78d adbf
00000180: 9121 793f 5575 88bf f00d d6be 1326 26c0
00000190: 7ec9 95bf 7485 55bf 9685 1b40 c9d4 6fbf
000001a0: 0c41 14c0 16b1 9dbf 1449 cabe dd06 17c0
000001b0: 7d83 9dbe 15e9 b13d 4ea4 313f febc 113e
000001c0: 9496 f3bf 6703 1ec0 0cb7 d0bf 6468 21c0
000001d0: e00f d3be b0cf c5bf 828d fa3e e089 9bbe
000001e0: 4046 0140 09ac 1b3e a623 cdbf 8c88 4bbf
000001f0: 7165 823d c756 d9bf e415 fb3f 8226 3c40
00000200: 1adc f43f 9eff 8a3f bfcd 113d 4f3a 9fbe
00000210: 1d80 af3e e61f 8f3f f965 cc3f 4b90 1ac0
00000220: 405e 0cbf 909e 8f3e 461a 31be a7f3 a4be
00000230: 12a3 de3e 7451 f03f 0146 a13f d0a9 413d
00000240: dc4c bb3f 31f2 33c0 51b8 13bf 5b45 483f
00000250: 040e f13f 8655 953e ad72 6bbf d740 e93d
00000260: 51b8 b5bf 33b7 0dc0 b4b3 ccbe 11ab fdbf
00000270: 8946 893f 30b5 94bf fbe8 f33f 9f0d 5fbf
00000280: 3faa 333f 20cf d0be 5e9f 17c0 e75c 9abe
00000290: b735 5ebf d4f7 c43e f12a b6bf 01cb 40bf
000002a0: b941 a2bd e1cd 063f d473 8fbf 4396 2a3f
000002b0: 7c87 293f 078a 1ac0 b409 d7bf a1d0 dfbf
000002c0: cb12 ab3f aba7 a5be 86aa 73bf 4d6e 853e
000002d0: 93d3 2abe fc26 19c0 dba3 b8bf f2ae a53e
000002e0: 5503 07c0 cf0f bebf f200 80bf 67e8 88bf
000002f0: 9390 76bf 7541 22bf 1ed4 e3be d402 5ebf
00000300: 0691 0bc0 c875 1bc0 abf5 03c0 a052 83bf
00000310: 4cbf fcbf 585e 07c0 1c90 92bf bbc7 49c0
00000320: a976 05c0 c3cd efbf 414d a0bf d34a 10bf
00000330: df75 d6bf d7bc 25c0 7f14 2cc0 2199 a0bf
00000340: 1f51 febf 6345 01c0 c11e 1dbf cc62 d5bf
00000350: 8302 85bf 324f eebf e864 43bf 93ea e8bf
00000360: cb4b 65bf 6035 54c0 493e d93d cf84 78bf
00000370: b980 b8bf 4fec 0dc0 7ae7 03c0 bcef 05c0
00000380: 3fc2 22c0 2cc9 a2bf 8c89 19c0 ca5b 4bc0
00000390: 1c44 e1bf d649 31c0 d650 0ac0 4d50 febf
000003a0: 23e2 07c0 04ec 16c0 a3fe e8bf 03ef 1ec0
000003b0: add8 73c0 8157 01c0 7ff7 23bf 81ac 17bf
000003c0: c551 1cc0 cbee fabf 97fb 02c0 66dc 8dbf
000003d0: 953e 23c0 050f a0bf 968f febf 23bf d4bf
000003e0: 7998 e3bf a413 b5be 0fbe afbf 48fe 0dc0
000003f0: 43bf dbbf 5ade d9bf 0867 babf a23e efbf
-0.00767303 -0.006708066 0.035233296 0.012191756 -0.017263668 0.015170778 -0.03361796 -0.028129982
2.7082944 -3.8976593 0.67569304 -1.2713807 -0.47375962 -1.5998137 0.5758809 0.24017827
2.5402663 -5.9685063 2.3217971 -2.0150838 0.32731035 -1.150873 -0.11145612 0.43589666
2.0162394 1.303907 -0.1830041 3.2994833 -1.322908 1.2264299 -0.25573266 0.4298533
0.8584789 0.76364654 -3.6871407 1.9636425 -2.7553174 1.2477425 -0.99243546 -0.0009413002
-0.57836825 0.16628405 -2.762806 1.2552949 -0.47422615 -0.03179398 -0.4971459 -1.9707288
-0.75498354 0.031586587 -4.9010262 -1.0491409 -3.2610712 -7.071778 0.3729618 -1.8442417
0.021072218 -0.03512437 0.023325775 -0.009981433 0.022826154 -0.02616186 -0.035159048 -0.01564769
2.1491487 -0.32327485 1.258494 -0.4869496 1.5578111 -2.5931625 -1.1324663 -3.0180626
0.32987463 -0.54837525 1.0722833 -0.4935977 0.90062755 0.92168313 -0.45424655 -0.09651187
-0.2578909 -1.1293346 -2.1852016 2.1852608 -2.1392725 0.23019902 -1.3019038 0.42160138
1.4865844 -0.98950803 -0.1795943 -1.5291268 1.3840156 0.25982314 0.039607607 -1.3558854
0.97316843 -1.0660807 -0.41807508 -2.5960739 -1.1702116 -0.8340676 2.4300284 -0.9368406
-2.3164701 -1.2319667 -0.3950888 -2.359794 -0.3076438 0.08687035 0.69391334 0.14232251
-1.9030328 -2.4689577 -1.6305861 -2.5219965 -0.4122305 -1.5454006 0.48936087 -0.30378628
2.0199127 0.15202345 -1.6026504 -0.7950523 0.06367005 -1.6979607 1.9616055 2.9398503
1.912967 1.0859258 0.035596605 -0.31099173 0.3427743 1.118161 1.596862 -2.415057
-0.54831314 0.2805066 -0.17295179 -0.32217142 0.43483788 1.8774858 1.2599488 0.047281086
1.4632831 -2.8116572 -0.5770312 0.7823083 1.8832402 0.29166812 -0.91971856 0.1138932
-1.4196874 -2.2143066 -0.39980853 -1.981783 1.0724651 -1.1617794 1.9055475 -0.8713016
0.7018165 -0.40783024 -2.369102 -0.30149004 -0.8680071 0.38470328 -1.4231855 -0.7530976
-0.07922692 0.52657896 -1.1207223 0.6663553 0.6622236 -2.4146745 -1.6799836 -1.7485543
1.336511 -0.32354483 -0.95182073 0.26060715 -0.16682272 -2.3930044 -1.4425005 0.32360035
-2.1095784 -1.4848574 -1.0000288 -1.0695924 -0.9631435 -0.6338113 -0.4449777 -0.86723065
-2.1807265 -2.4290638 -2.0618694 -1.025959 -1.9745879 -2.1151333 -1.1450229 -3.1528156
-2.0853674 -1.8734668 -1.2523576 -0.5636417 -1.6754721 -2.5896509 -2.688751 -1.2546731
-1.9868506 -2.01986 -0.6137505 -1.6670775 -1.0391392 -1.8617918 -0.76325846 -1.8196586
-0.89568776 -3.3157578 0.10607583 -0.9707765 -1.4414283 -2.2175481 -2.0610032 -2.0927572
-2.5431058 -1.2717643 -2.3990202 -3.1774774 -1.759891 -2.7701316 -2.1611838 -1.9868256
-2.1231773 -2.3581553 -1.8202709 -2.483338 -3.8100998 -2.0209658 -0.64049524 -0.59247595
-2.4424908 -1.9604124 -2.0466058 -1.1082885 -2.5506947 -1.2504584 -1.9887569 -1.662083
-1.7780906 -0.35366547 -1.3729876 -2.218645 -1.7167743 -1.7020981 -1.4562693 -1.8690989

fc1.bias f4 [256]
00000000: 2962 2ac1 2808 47c1 2242 16c1 dadf 0ec1
00000010: d681 51c1 35eb 4bc1 90e1 eac0 2c6f 3ec1
00000020: 6692 1ac1 0e48 b7c0 4af0 92c1 45f2 75c1
00000030: 66b4 6fc1 e158 b5c0 7317 c6c1 51f1 73c1
00000040: 4e8e d9c1 4665 dac0 e158 84c1 4d59 ccc1
00000050: a2ae d1c0 399d a3c1 29df 1fc1 c834 4dc1
00000060: 553e 04c1 7e6e 4ec1 e257 3dc0 e10d 13c1
00000070: 8c38 2ec1 6e99 b9c1 c6e2 42c1 5b5d 31c1
00000080: 97ac e9c0 45dc b9c0 be1d 74c0 d091 03c1
00000090: 6608 6dc1 a4cd 72c1 d7e8 4dc1 9551 92c0
000000a0: e579 a4c1 617c a2c1 dbc3 73c1 8381 58c1
000000b0: c2ec 5fc0 9633 c3c0 0017 d0c0 e423 c6c0
000000c0: 6160 52c1 a5b3 3bc1 e92f ecc0 5577 c1c0
000000d0: fd86 95c1 5d72 bac0 45bd 87c0 dc1b 88c1
000000e0: 8168 dfc0 90ba 7dc1 a322 e1c0 c5a4 5fc1
000000f0: dc25 f1c0 be73 5cc1 67a4 80c1 8672 a2c1
00000100: 31eb 6fc1 3147 b8c0 6c63 83c1 8887 b5c0
00000110: 72f7 18c1 ab1c 58c1 ad42 69c1 8503 dac0
00000120: 7cdd e6c0 af18 e1c0 44e6 7dc1 332c 72c1
00000130: fac6 3ec1 d162 3dc1 51c4 2ac1 5483 88c1
00000140: fe46 3ac1 4555 6cc1 be50 42c1 0768 16c1
00000150: ab60 7cc1 7eff 7ac1 6650 70c1 86cb 39c1
00000160: 7b86 11c1 3fb8 0cc1 ea99 1ec1 2cad a4c0
00000170: 1d13 15c1 d868 31c0 9907 98c1 8144 96c1
00000180: 19ee 22c1 9f18 93c1 c1f7 09c1 2f1c 67c1
00000190: b61a 28c1 1e16 86c0 5481 48c1 4308 bcc0
000001a0: 0494 09c1 a975 38c1 69b9 78c1 586b d0c0
000001b0: 8147 f4c0 d664 f5c0 68d8 66c1 da3d 50c0
000001c0: 8eea 60c1 ed10 fac0 0bc4 99c1 8834 2ec1
000001d0: 77cf 28c1 580a 2dc1 91c6 cdc0 724a 2fc1
000001e0: 6e48 32c1 a3b3 33c1 d367 273f 7537 57c1
000001f0: c0c0 12c1 2392 45c1 2790 32c1 638a 40c1
00000200: 5029 7ac1 054c 0ec1 7ef3 17c1 77e9 2ac1
00000210: 0db5 12c1 8d22 22c1 d9fc 4dc1 84d8 56c1
00000220: 1d53 fec0 718e 93c1 6357 13c1 047b aec0
00000230: cedb 23c1 4b92 aec0 ef97 18bf 0e05 9cc0
00000240: 37f6 18c1 3ef6 cfc0 bc63 09c1 67e4 dcc0
00000250: 8980 76c1 7702 23c1 5d9c 28c1 47db 84c1
00000260: 1872 87c1 77b8 3fc1 1eb7 6fc1 79e1 80c1
00000270: b32f 80c1 f559 a9c0 e395 73c1 00c3 15c1
00000280: f421 e8c0 812e acc1 1792 4fc1 3f65 49c1
00000290: ab0b 8ec1 d377 67c0 ab1e 0cc1 d1b5 81c1
000002a0: 6e3e 0ec1 cae4 d2c0 7e7e 82c1 8afa 62c1
000002b0: 9bf5 81c1 bd51 55c1 69c9 8dc0 699b 41c1
000002c0: 4f08 05c1 9446 64c1 cd17 66c1 edd8 8dc1
000002d0: 6cf4 6fc1 c293 bec0 7f2b 2bc1 f9af 0ec1
000002e0: 76dc 80c1 08ee 933f ea11 19c1 8e55 6ec1
000002f0: 02b3 a2c1 f428 a4c1 8f8f a8c0 47d3 62c1
00000300: 9496 f7c0 4bbe e7c0 1d44 62c1 0f09 19c1
00000310: c06b 80c1 0fbd f2c0 bec1 07c1 0531 46c1
00000320: 0cf3 0bc1 03e5 28c1 a467 9ec1 55cc 96c0
00000330: d684 88c1 de43 83c1 d486 4bc1 0772 a9c0
00000340: ad60 a8c1 111d 16c1 eb84 22c0 1e85 4ec1
00000350: a9d8 4dc1 2717 21c1 4528 1ec1 7a80 92c1
00000360: 2bbb 99c1 9290 1fc1 fa56 89c1 3bf4 25c1
00000370: d749 dac0 544f 12c1 1cb6 07c1 2a65 dbc0
00000380: 607e a4c0 66d1 4fc1 d9bc bcc0 cc9b dac0
00000390: e9b2 14c1 3c25 72c1 438a 51c1 ac77 01c1
000003a0: 7e75 72c1 03de fdc0 3fed d7c0 0a7d 48c1
000003b0: 6824 8bc1 da10 bfc0 71ee 3bc1 e6eb 1bc1
000003c0: 0fef eec0 1871 32c1 1dbc 73c1 c121 8cc1
000003d0: ee90 54c1 d890 80c1 1444 29c1 1e2b 02c1
000003e0: 5a5f 35c1 c89b 7ac1 d6a4 bdc1 e7b2 d7c0
000003f0: 0de7 53c1 a02e 75c1 140e bdc0 945f 0fc1
-10.648965 -12.439491 -9.391146 -8.929651 -13.094198 -12.744924 -7.3400345 -11.902142
-9.660742 -5.7275457 -18.367329 -15.371648 -14.981543 -5.6670995 -24.76145 -15.246415
-27.194485 -6.8248625 -16.543398 -25.543604 -6.5525675 -20.451769 -9.991982 -12.825386
-8.265218 -12.901976 -2.958489 -9.190888 -10.888805 -23.199917 -12.180365 -11.085292
-7.302318 -5.8081384 -3.8143153 -8.223099 -14.81455 -15.175205 -12.869346 -4.5724587
-20.559519 -20.310732 -15.235316 -13.531619 -3.4988256 -6.100047 -6.5028076 -6.191881
-13.14853 -11.731359 -7.3808484 -6.045817 -18.690912 -5.8264604 -4.241854 -17.013603
-6.981507 -15.8580475 -7.035478 -13.977727 -7.5358715 -13.778257 -16.080275 -20.30592
-14.99492 -5.7586904 -16.423546 -5.6727943 -9.560411 -13.506999 -14.578778 -6.8129296
-7.2145367 -7.034263 -15.868717 -15.135791 -11.923578 -11.836625 -10.672929 -17.064125
-11.642332 -14.770818 -12.144712 -9.400397 -15.773601 -15.687376 -15.019629 -11.612188
-9.095332 -8.794982 -9.912577 -5.146139 -9.317166 -2.7720242 -19.00371 -18.78345
-10.183129 -18.387022 -8.622987 -14.444381 -10.506521 -4.1902 -12.531574 -5.8760085
-8.598637 -11.528726 -15.545266 -6.5131035 -7.6337285 -7.668559 -14.427834 -3.2537751
-14.057264 -7.814566 -19.220724 -10.887825 -10.550651 -10.815025 -6.430489 -10.955675
-11.142683 -11.231357 0.653928 -13.451039 -9.172058 -12.348178 -11.160193 -12.033786
-15.635086 -8.893559 -9.496946 -10.681998 -9.169202 -10.133435 -12.87423 -13.42786
-7.9476457 -18.444551 -9.208835 -5.4525166 -10.241163 -5.455358 -0.5960683 -4.875617
-9.560111 -6.498809 -8.586849 -6.902881 -15.406381 -10.188102 -10.538175 -16.607069
-16.93071 -11.982535 -14.982206 -16.110094 -16.02329 -5.292231 -15.224093 -9.360107
-7.2541447 -21.522707 -12.973166 -12.587218 -17.755697 -3.6166885 -8.757487 -16.213778
-8.890242 -6.5904284 -16.311764 -14.186167 -16.244925 -13.332456 -4.430836 -12.100442
-8.314528 -14.267231 -14.380811 -17.73092 -14.997173 -5.955537 -10.698119 -8.917962
-16.107647 1.1557016 -9.566874 -14.895887 -20.337406 -20.519997 -5.2675242 -14.176581
-7.737131 -7.241979 -14.141629 -9.564712 -16.052612 -7.5855784 -8.4848 -12.386968
-8.746838 -10.555911 -19.800606 -4.712443 -17.064861 -16.408138 -12.720417 -5.2951694
-21.047205 -9.382096 -2.5393627 -12.907499 -12.865396 -10.068152 -9.884831 -18.312733
-19.21639 -9.9727955 -17.167469 -10.372127 -6.8215137 -9.144367 -8.48196 -6.856099
-5.1404266 -12.988623 -5.8980527 -6.831518 -9.293679 -15.13409 -13.096255 -8.091717
-15.153685 -7.933351 -6.7477107 -12.530527 -17.392776 -5.970807 -11.745713 -9.745092
-7.466682 -11.152611 -15.233426 -17.516481 -13.285383 -16.070724 -10.579121 -8.135527
-11.335779 -15.663033 -23.705486 -6.7405887 -13.243909 -15.323883 -5.9079685 -8.9608345

fc2.weight f4 [1, 256]
00000000: 09bc aebc f129 b03c b232 b5bd bcb6 283d
00000010: 1bba dc3c 4025 0fbd de69 123d e5aa f5bc
00000020: 8a2c 40bd 9f5a 1a3d 12a5 96bc 7b5c e3bc
00000030: be93 a53d d5f2 003d fe26 07bd 9f40 1cbd
00000040: 4203 40bd b15c 9fbc 0e60 d73c 5de6 12bd
00000050: 6bce 013d 0512 393d 8d38 1ebd fa44 173d
00000060: eee3 0cbd 4d19 28bd 74c8 7a3d 3762 863d
00000070: bd7f 1e3d 2fea 75bc 807b 18bd bc24 313d
00000080: 8e90 2bbd dc97 9dbd 3120 f93c 4064 d3bc
00000090: be5f 3b3d e78c 243d 628f 0e3d 9151 d73c
000000a0: 16f5 83bc 3cce debc dd05 48bd 9e9b 523d
000000b0: 3a9b 8f3d 1ab3 093d 3537 84bc 8372 693d
000000c0: 8dc4 003d e6ac 663d 516e a5be 3e43 223d
000000d0: c968 adbc 3d8f cdbd 0546 523d 570a fa3c
000000e0: a5fe a7bd 2eee 0fbe a717 96bd 9ee5 53bd
000000f0: a3a6 da3d 3228 233d 4605 363d 1c2c 06bd
00000100: 7240 39bd c26c 2ebd 5bfd 36bd 1f28 173d
00000110: 7688 7d3d 33de 16bd 6d9f 223d 5f0e 6dbe
00000120: cc8c 2b3d 8cc9 523d 2dc5 3fbd 77e8 c9bc
00000130: da7c 0f3d c9be ef3c db68 55bd e92f e1bc
00000140: 9a39 1bbd e5b7 2e3d f39d 0e3d c947 19bd
00000150: 3997 513d dcee 923d a45f 07bd f3de 05bd
00000160: a9fb 463e 3132 073d 3c2d 61bd 911c 683d
00000170: 7443 89bd 7b15 443d ecf8 78bd 2bd5 723d
00000180: 90fe 963c 4dff 32bd 8865 163d 4e85 3a3d
00000190: 1e10 34bd a3df aa3d 620c 84bc b34e 58bd
000001a0: 0427 e5bc 6ced d6bc c71e 06bd e649 b2bc
000001b0: 3433 81be 7ccd 013d e45f 0c3d fe47 eebd
000001c0: 5988 b9bc 5f6b 4dbd 2e6e 89bc 6cc0 89bd
000001d0: 9776 e03c cae4 223d 7b7b ef3c 7422 b73b
000001e0: f76a 4dbd a2fe 0d3d 4eed 4bbe 10e8 523d
000001f0: 144b 203d da90 38bd cfdf 393d 2240 d4bd
00000200: 0997 24bd e010 f5bc 0e2b 0fbd e2be 00be
00000210: ea2e 0f3d b114 ecbc 2b19 473d c2f8 2fbd
00000220: 35f6 263d eaba 71bd bdf4 213d 2354 6c3d
00000230: 5990 3cbd d1b3 5d3d 108d bc3d 6390 9d3d
00000240: e44b 60bd b573 c43d 953e 02bd 3951 483d
00000250: 5559 19bd 3b0a f8bc 3e46 2cbd 8911 44bc
00000260: 9362 113d 13c0 2f3d fcfd bebc 1c03 33bc
00000270: 4d09 2f3d 433d 2cbd ba31 1cbd 8b78 1b3d
00000280: c449 1d3e 211c 78bd 3bfd 4a3d 4554 0cbd
00000290: 1793 193d 0e8a 2ebd eb06 093d f4f8 bfbc
000002a0: f8f8 d33e 2b19 223d 610a 3c3d 8467 2d3d
000002b0: 3dd8 07bd 6809 b73c 7512 f7bc c7fa 323d
000002c0: 028b 81bd 2124 2abd df18 173d ba32 9fbd
000002d0: 18bf 82bd 48d5 6e3d d9e1 1e3d a579 59bd
000002e0: 5df0 84bd b50f de3d 7067 e3bc fed6 dbbc
000002f0: 9720 c7bc f07a 553c 65d0 edbd 7472 3d3d
00000300: d4d1 19bd ad0e 08bd d498 d73c 2992 ac3d
00000310: faef 57bd b81b 0a3d bb20 1b3d 07c0 393d
00000320: aa4c da3d cf97 ec3c 2e0c a63a 7b49 423d
00000330: 4778 f03c 0bd1 043d 52d4 44bd d669 39bd
00000340: fa90 04bd 3d64 1b3d fdeb 283d 792c 1fbd
00000350: d4e9 0a3d 7ecf b43c 1e7a f53c 45d8 20bd
00000360: eb94 323d a0c0 403d f63f 453d 6e61 f2bc
00000370: 6100 3fbd daba 0dbd 2eea df3c b9ec d7bc
00000380: 026f 913d 5649 18bd 3879 893e 53cc 913e
00000390: bb51 6ebd afe4 583d 7001 19bd 0b42 143d
000003a0: 8367 c8bc f1ce 0b3d 5b43 5ebd ef9c 6b3d
000003b0: bba3 23bd a6b7 0c3d 407b fabc f313 f33c
000003c0: 9de1 583d 23cb f93c 281b 78bc 0747 0ebd
000003d0: 85d2 57bd 50e1 8dbd ff48 31bd fbf3 37bd
000003e0: cf9a 283d 8098 35bd 324e d1bc 10e9 0b3d
000003f0: d09d 14bd f3ab e2bc 8d27 2bbd f6e7 b93c
-0.021329897 0.021504374 -0.0884756 0.041189894 0.02694421 -0.034947634 0.035745494 -0.029988715
-0.046917476 0.03768408 -0.018389259 -0.027754059 0.0808482 0.031481583 -0.03299617 -0.038147565
-0.046878107 -0.019453378 0.02629092 -0.035864223 0.031690996 0.0451832 -0.03862815 0.036931016
-0.03439706 -0.041039754 0.061226323 0.06561702 0.03869604 -0.015009447 -0.037227154 0.043247923
-0.041885905 -0.076949805 0.030410858 -0.025804639 0.045745604 0.040173437 0.03480471 0.026284011
-0.016108077 -0.02719795 -0.048833717 0.05141794 0.07012029 0.03361807 -0.016139606 0.056993973
0.031437445 0.056317233 -0.32310727 0.03961491 -0.02116813 -0.10037086 0.051336307 0.030522509
-0.082028665 -0.14055702 -0.0732873 -0.051732652 0.10676315 0.039833255 0.044438623 -0.03275691
-0.045227475 -0.04258419 -0.044675212 0.036903497 0.061897717 -0.036833 0.03970282 -0.23150013
0.04188232 0.05146174 -0.0468189 -0.02464698 0.035031177 0.029265778 -0.05210195 -0.027488666
-0.03789673 0.042655844 0.0348186 -0.037421975 0.051169608 0.07174465 -0.033050194 -0.032683324
0.19431938 0.03300685 -0.05497478 0.056667868 -0.06702319 0.047872048 -0.060784265 0.059285324
0.018431932 -0.043700505 0.03671792 0.045537286 -0.043960683 0.083434366 -0.016119186 -0.05280943
-0.027972706 -0.026236258 -0.032744195 -0.021763753 -0.25234377 0.031690106 0.034271136 -0.11634825
-0.022648023 -0.050151225 -0.01677617 -0.06726155 0.027400298 0.03976897 0.029233685 0.005588824
-0.050150838 0.034666665 -0.19914743 0.051490843 0.0391341 -0.045060016 0.045379456 -0.10363795
-0.0401831 -0.029915273 -0.03495317 -0.12572816 0.03495685 -0.02881846 0.048607986 -0.042961843
0.040762145 -0.059016146 0.03954004 0.057697427 -0.0460361 0.054126564 0.09206593 0.07693555
-0.054759875 0.09592382 -0.031797964 0.048905585 -0.03743871 -0.030278316 -0.042059176 -0.011967071
0.0354944 0.042907786 -0.023314469 -0.010926034 0.04273348 -0.04205061 -0.03813336 0.037956756
0.1536017 -0.0605737 0.049557906 -0.034260053 0.03749379 -0.042612128 0.033453863 -0.02343414
0.41400886 0.039574783 0.045908336 0.04233505 -0.033165205 0.022343352 -0.030160168 0.04369619
-0.06325342 -0.04153836 0.036888953 -0.07773347 -0.063841045 0.05830887 0.038789604 -0.053094525
-0.06491158 0.1084284 -0.027759284 -0.026835915 -0.024307532 0.013029799 -0.11612014 0.04625173
-0.037553623 -0.03321712 0.026317991 0.08426315 -0.052719094 0.03371784 0.03787301 0.045349147
0.10659154 0.028880982 0.0012668425 0.047433358 0.029354228 0.03242592 -0.048054047 -0.04526695
-0.032364823 0.03793739 0.04124068 -0.03886077 0.033914402 0.022071596 0.029965457 -0.03926875
0.04359905 0.0470587 0.0481567 -0.029587474 -0.04663122 -0.034602024 0.027333345 -0.026357995
0.07101251 -0.037179314 0.26850295 0.284762 -0.058183413 0.052952465 -0.037354887 0.036195796
-0.02446342 0.0341329 -0.054263454 0.05752271 -0.039951067 0.03435483 -0.030576348 0.029672598
0.052949537 0.030492371 -0.015143193 -0.034735706 -0.052691 -0.069277406 -0.043282505 -0.044910412
0.041163262 -0.04433489 -0.025549982 0.034157813 -0.036283314 -0.027669882 -0.041785765 0.022693615
