resources/models/1L-256.pth (torch, 796150 bytes, 3 tensors)

fc1.weight f4 [256, 768]
000000 0a 6e fb bb 56 cf db bb ca 50 10 3d ee bf 47 3c
       -0.00767303 -0.006708066 0.035233296 0.012191756
000010 89 6c 8d bc db 8e 78 3c fc b2 09 bd d9 70 e6 bc
       -0.017263668 0.015170778 -0.03361796 -0.028129982
000020 bd 67 e1 3f cc 4d 7b c0 ec bb a7 bd ee 79 e4 bf
       1.7609783 -3.9266233 -0.0819014 -1.784971
000030 5d 55 c0 be 6b e7 9f bf 8b f2 69 3e 84 86 91 3e
       -0.37565127 -1.2492498 0.22846429 0.2842294
000040 12 26 e0 3f 7c aa fd c0 fa f4 35 40 f7 0c 08 c0
       1.7511618 -7.927061 2.8430772 -2.1257913
000050 13 61 d7 3e 14 c1 9f bf 71 ac 30 3e a5 08 53 3f
       0.4206625 -1.2480798 0.17253281 0.82435066
000060 0a 17 9e 3f 40 b5 01 40 4b 99 e0 3e b0 e3 4f 40
       1.2350781 2.0266876 0.43866953 3.248272
000070 13 a0 64 bf 90 34 b6 3f a8 97 0f bf da 83 a0 3e
       -0.89306754 1.4234791 -0.56090784 0.31350595
000080 a5 df 30 be 96 a7 db 3f 38 df 8c c0 e5 14 10 40
       -0.17272814 1.7160518 -4.4022484 2.2512753
000090 5f d6 21 c0 af 73 d8 3f 63 ef c0 bf 91 ef 79 be
       -2.5287092 1.6910304 -1.5073055 -0.24407794
0000a0 e4 2d 93 3d ef d5 a1 3f 00 fb 0b c0 85 07 08 40
       0.07186487 1.2643412 -2.1871948 2.125459
0000b0 9c 4c 7f bf b6 94 d5 bf ac 1b 16 be 0b 94 45 c0
       -0.9972627 -1.6686008 -0.14658993 -3.0871608
0000c0 00 a9 3b 3e d3 9d 84 bf 7f ed a6 c0 6f 3f a3 3f
       0.18326187 -1.0360664 -5.216491 1.2753733
0000d0 d1 21 02 c0 04 01 27 c1 f0 20 4f bf 99 98 9d bf
       -2.033314 -10.437748 -0.80909634 -1.2312194
0000e0 a5 9f ac 3c 92 de 0f bd b2 15 bf 3c 2a 89 23 bc
       0.021072218 -0.03512437 0.023325775 -0.009981433
0000f0 ea fd ba 3c 66 51 d6 bc ef 02 10 bd 96 2f 80 bc
       0.022826154 -0.02616186 -0.035159048 -0.01564769
000100 72 43 05 40 3f 17 25 bf 60 bd 53 3d 22 3d ab bf
       2.0822415 -0.64488596 0.051694274 -1.3378031
000110 d7 a0 89 3f ab 18 e7 bf b1 1b 0f c0 c7 fa 14 c0
       1.075221 -1.8054403 -2.2360651 -2.3278062
000120 19 92 2d bf 64 26 45 c0 14 46 20 bc 86 9d 6c bf
       -0.6780105 -3.0804682 -0.009782333 -0.9242786
000130 76 39 6c 3e f8 89 82 3f 0c bd a1 3e 1e 56 0e bf
       0.23068795 1.0198355 0.31589544 -0.55600154
000140 f2 3e 40 3e be 64 a9 bf fa 92 25 c0 90 72 10 40
       0.18774012 -1.3233869 -2.5870957 2.2569923
000150 aa f3 98 bf 1f 71 8c 3b be d6 ee be 6b 16 30 3f
       -1.194936 0.004285946 -0.4664821 0.6878421
000160 59 20 51 be e9 0f 96 bf 05 b3 59 bf 16 14 9e bf
       -0.20422496 -1.1723605 -0.8503879 -1.234988
000170 f1 1a 08 3f f3 43 b2 3e 53 0f a4 3f ca c1 41 bf
       0.5316611 0.34817466 1.2817177 -0.75686324
000180 93 6d 25 be 74 fc 97 bf 21 8f 83 be 11 da 29 c0
       -0.1615508 -1.1873918 -0.25695136 -2.6539347
000190 97 5d 46 bf 5a fb 15 be 0a b7 d9 3f 50 40 b7 be
       -0.77486557 -0.14646664 1.7008984 -0.35791254
0001a0 6c f1 46 bf e8 49 3b bf fc 6b 85 be f1 15 4a c0
       -0.7771213 -0.73159647 -0.26058948 -3.1575892
0001b0 2b fd 62 bf f3 16 a6 3f 5a ff 00 be a2 19 63 bf
       -0.88667554 1.2975754 -0.12597409 -0.8871099
0001c0 90 0c 9b bf 46 fd 74 c0 fa 78 04 c0 d0 18 e6 bf
       -1.2113209 -3.8279586 -2.0698838 -1.7976322
0001d0 04 59 55 bf 8d 8f fd bf 5d 28 9e 3e 0f 23 21 be
       -0.8333895 -1.9809433 0.3089017 -0.1573603
0001e0 10 99 82 bc b9 d9 dc 3e 98 76 bb bf 4b 1f 06 bf
       -0.015942127 0.4313486 -1.4645567 -0.523915
0001f0 9b 07 f4 3e 2b b1 b7 bf 94 a3 97 bc af 14 09 40
       0.47662053 -1.4350942 -0.018510617 2.1418874
000200 cd 20 45 40 b6 96 54 3f 74 90 2e 3e 50 34 01 bf
       3.080127 0.83042467 0.17047292 -0.5047045
000210 d8 1c 5a 3f 9f 06 0f 3f 21 11 33 40 3d cf f2 bf
       0.8520026 0.5586948 2.7979205 -1.8969494
000220 f1 5a b7 bf 0c 1a e1 3f 81 9c 5a be aa d8 06 3f
       -1.4324628 1.7586074 -0.21348764 0.52674353
000230 45 3d 11 bc 49 90 e4 3f ec a2 99 3f b5 a8 34 bf
       -0.008864705 1.7856532 1.2002845 -0.70569927
000240 c7 26 ec 3f 4a 00 70 c0 f4 30 8e 3e ab 56 fd 3e
       1.8449334 -3.7500176 0.27771723 0.49480185
000250 79 bc d2 3f c4 d2 32 be 93 a7 1c bf 21 b3 e4 3e
       1.6463767 -0.17463213 -0.611932 0.44667915
000260 73 a2 e5 bf ea 4c ea be 32 ce 25 be 73 d6 09 c0
       -1.79402 -0.45761806 -0.16191939 -2.153714
000270 f3 b4 c9 3f 5e b8 e1 bf 84 d6 43 3f dc ff 30 3e
       1.5758346 -1.7634389 0.764992 0.17285103
000280 12 4e bc 3f b3 01 77 bf ae 24 13 c0 ae 99 a5 bd
       1.4711325 -0.9648697 -2.2991138 -0.08085953
000290 a4 28 55 bf 27 ec 20 3f 9c cd a3 bf c2 1a 87 bf
       -0.8326514 0.6286034 -1.2797122 -1.0555041
0002a0 64 71 0f be 03 9e 71 3e 53 f2 9d bf bc 82 f1 3e
       -0.14008099 0.23595433 -1.2339576 0.47170055
0002b0 6f b4 50 3f 4a 91 5f bd a7 c7 4c bf 2b d2 bb bf
       0.8152532 -0.054581918 -0.79992145 -1.4673513
0002c0 4a e2 a2 3f de bf 33 be 59 1f 35 bf 62 16 e1 be
       1.2725308 -0.1755366 -0.7075096 -0.4396239
0002d0 3d c7 b0 bf b9 95 04 c0 54 0b 6b bf 0c e1 00 3f
       -1.3810803 -2.0716383 -0.9181416 0.50343394
0002e0 52 ec a6 bf 38 ac 57 bd 9a 7f b1 be 53 84 9d bf
       -1.3040869 -0.052654475 -0.34667665 -1.2306007
0002f0 4f 95 3b be d0 16 c0 bf a0 40 7d bd 3d 67 f8 bf
       -0.18318675 -1.5006962 -0.06182921 -1.9406506
000300 02 69 22 c0 5b cd 04 c0 7f 5b 26 c0 0d d2 cc bf
       -2.5376592 -2.075034 -2.5993345 -1.6001602
000310 42 a6 2f c0 a3 b9 3c c0 d6 03 e1 bf 17 68 79 c0
       -2.7445226 -2.9488304 -1.7579296 -3.8969781
000320 32 d5 1a c0 14 5a 45 c0 7d c1 ae bf 86 55 82 bf
       -2.4192624 -3.083623 -1.3652798 -1.018235
000330 17 74 05 c0 61 d5 6d c0 3b fc 18 c0 76 fb 44 c0
       -2.0852106 -3.7161486 -2.390395 -3.077848
000340 ac 1e 04 c0 2c f1 de bf c6 57 ca bf 49 84 34 bf
       -2.064372 -1.741735 -1.5808036 -0.7051435
000350 7b b9 b1 bf f0 66 0e c0 02 1c f1 bf 61 37 14 c0
       -1.3884729 -2.2250328 -1.8836672 -2.31588
000360 2a 05 27 bf 9a 3b 50 c0 60 7e 8e 3e dc 98 9e bf
       -0.65242255 -3.2536378 0.2783079 -1.2390399
000370 bc 35 d6 bf e6 e8 35 c0 fd 8f 85 bf 20 78 08 c0
       -1.6735148 -2.84234 -1.0434567 -2.1323318
000380 7b 97 35 c0 5c 81 10 c0 f6 2f 2e c0 da ab 23 c0
       -2.8373706 -2.2578955 -2.7216773 -2.557364
000390 9a 66 0d c0 d3 86 0f c0 9b 58 75 bf d9 06 d3 bf
       -2.2093873 -2.242604 -0.95838326 -1.6486465
0003a0 c2 b3 0e c0 3a a2 0b c0 50 18 25 c0 2f 31 11 c0
       -2.2297215 -2.1817765 -2.579609 -2.268627
0003b0 d6 79 4e c0 76 a2 0c c0 f4 a3 3c bf b8 e2 aa bf
       -3.2261863 -2.1974158 -0.7368767 -1.3350439
0003c0 7d 6e 07 c0 8a 44 13 c0 9b f6 06 c0 84 66 dd bf
       -2.1161187 -2.3010583 -2.1088016 -1.729691
0003d0 cd 55 19 c0 ab 76 da bf f5 1b f1 bf 1c 6f f8 bf
       -2.3958619 -1.7067465 -1.8836657 -1.9408908
0003e0 9a 4a bd bf 17 59 b0 bf 39 10 0d c0 a8 c0 14 c0
       -1.4788392 -1.3777188 -2.2041152 -2.3242588
0003f0 a5 bf 1e c0 3f d8 c9 bf 8c 14 c3 bf 52 59 20 c0
       -2.480447 -1.5769118 -1.5240645 -2.5054517

fc1.bias f4 [256]
000000 fd 8b 44 c1 24 51 72 c1 f3 d0 1f c1 a3 95 28 c1
       -12.284177 -15.14481 -9.988513 -10.536532
000010 09 68 7d c1 8c 64 86 c1 ac af 28 c1 c5 03 5b c1
       -15.837899 -16.799095 -10.542889 -13.68842
000020 99 0a 32 c1 c9 bd d0 c0 b3 af b2 c1 f1 bb 9a c1
       -11.127587 -6.523167 -22.33579 -19.341768
000030 16 dc 8f c1 84 0e e4 c0 7f ff 00 c2 ef e0 93 c1
       -17.982464 -7.126772 -32.249508 -18.48483
000040 74 25 0f c2 16 b7 ef c0 60 8c a7 c1 60 21 fe c1
       -35.786575 -7.4910994 -20.943542 -31.766296
000050 bb b5 09 c1 36 80 d8 c1 50 39 46 c1 f1 9f 76 c1
       -8.606868 -27.062603 -12.388992 -15.414048
000060 35 6c 0a c1 41 b4 7a c1 c7 c2 2e c0 bf 7a 35 c1
       -8.651418 -15.669007 -2.7306383 -11.342467
000070 0b 8a 58 c1 da a5 ec c1 01 28 67 c1 45 c0 5a c1
       -13.533702 -29.580982 -14.447267 -13.671941
000080 3b 5d 03 c1 3f 67 b8 c0 4a 3c ca c0 98 77 17 c1
       -8.210261 -5.7626033 -6.3198595 -9.466698
000090 e3 d3 8f c1 e6 b4 9e c1 1f 70 7a c1 2e 70 be c0
       -17.97846 -19.83833 -15.652373 -5.951194
0000a0 d9 de bd c1 ea 20 b3 c1 3e 59 91 c1 00 29 7e c1
       -23.733812 -22.391071 -18.168575 -15.88501
0000b0 e5 b7 81 c0 39 4b d9 c0 68 6d cd c0 72 92 e1 c0
       -4.053698 -6.7904325 -6.4196053 -7.0491266
0000c0 b5 fb 6f c1 60 1d 69 c1 0d 39 1a c1 5b de d1 c0
       -14.998952 -14.569672 -9.638928 -6.558393
0000d0 90 fa ae c1 14 4b fd c0 77 00 aa c0 53 23 a1 c1
       -21.872345 -7.915415 -5.3125567 -20.142248
0000e0 0a d3 05 c1 e0 b6 8e c1 dd 31 21 c1 3a 13 81 c1
       -8.364023 -17.839294 -10.074674 -16.134388
0000f0 07 25 11 c1 f4 38 84 c1 59 9d 98 c1 24 c6 cc c1
       -9.07154 -16.52781 -19.07683 -25.596748
000100 a7 61 9c c1 a0 7c ea c0 11 f8 9f c1 ad 42 d5 c0
       -19.547682 -7.327713 -19.996126 -6.664389
000110 65 0a 31 c1 1f dc 71 c1 6e 20 8b c1 11 29 08 c1
       -11.065038 -15.1162405 -17.390835 -8.510026
000120 5c d4 04 c1 ee 1b f1 c0 21 19 a3 c1 3f 4a 92 c1
       -8.301846 -7.5346594 -20.38727 -18.286253
000130 62 53 5d c1 82 40 5a c1 86 37 45 c1 b0 3b a1 c1
       -13.832857 -13.640749 -12.326056 -20.154144
000140 7c 2f 60 c1 43 17 80 c1 c7 c6 77 c1 ec 4e 35 c1
       -14.011593 -16.011358 -15.48603 -11.331768
000150 77 b2 93 c1 10 28 99 c1 ca 26 87 c1 40 08 4d c1
       -18.462141 -19.144562 -16.89394 -12.814514
000160 01 00 54 c1 fd 64 35 c1 dd 8e 32 c1 11 40 b7 c0
       -13.250001 -11.337155 -11.159879 -5.7265706
000170 d1 1e 27 c1 16 7d 48 c0 6b 59 ba c1 76 cf c0 c1
       -10.445024 -3.1326346 -23.293661 -24.1013
000180 ba 2e 3a c1 b8 3d b0 c1 08 18 0d c1 bd c5 8c c1
       -11.636408 -22.030136 -8.818367 -17.596552
000190 93 b7 3b c1 e3 e1 bd c0 10 73 92 c1 1c c2 ee c0
       -11.732318 -5.933824 -18.306183 -7.461195
0001a0 97 98 15 c1 18 c2 75 c1 63 98 9d c1 a1 81 0f c1
       -9.349753 -15.359886 -19.699408 -8.969148
0001b0 d8 37 11 c1 5a 23 07 c1 9f c9 88 c1 c9 f6 4b c0
       -9.076134 -8.446131 -17.098448 -3.1869376
0001c0 4a 97 92 c1 ab d0 14 c1 48 3e b8 c1 e3 8e 3d c1
       -18.323872 -9.300944 -23.03041 -11.847384
0001d0 85 0e 46 c1 fa c9 48 c1 b2 85 fb c0 e7 37 5b c1
       -12.378545 -12.549311 -7.86007 -13.701148
0001e0 a2 e2 53 c1 29 2a 50 c1 1f 3a a2 3e 09 bf 82 c1
       -13.24283 -13.010293 0.31684968 -16.343279
0001f0 1a 1b 1b c1 6b e1 60 c1 ce 1a 7b c1 0f f5 74 c1
       -9.694117 -14.055034 -15.694044 -15.309829
000200 f3 3c 91 c1 4b d6 29 c1 9e 7a 30 c1 b5 50 31 c1
       -18.15476 -10.614818 -11.029936 -11.082204
000210 b7 ce 31 c1 63 25 49 c1 7a 1f 7f c1 96 30 7a c1
       -11.1129675 -12.571628 -15.945185 -15.636862
000220 99 96 09 c1 e6 33 ad c1 72 78 0a c1 d9 0f c8 c0
       -8.599267 -21.650341 -8.654406 -6.2519345
000230 29 fa 32 c1 7f e8 d2 c0 6a dc 09 c0 74 4e c0 c0
       -11.186074 -6.590881 -2.154078 -6.009577
000240 e5 84 4d c1 c9 93 d6 c0 5d f2 22 c1 2a ad eb c0
       -12.844945 -6.70554 -10.184171 -7.364888
000250 dc 18 a0 c1 11 7b 43 c1 8b ee 37 c1 79 d7 ab c1
       -20.012138 -12.2175455 -11.495738 -21.480211
000260 3c 7d a0 c1 02 11 6f c1 da 29 96 c1 6e a9 91 c1
       -20.06115 -14.941652 -18.770435 -18.20773
000270 90 a6 a6 c1 37 8c d0 c0 22 7c 8b c1 4e fe 27 c1
       -20.83133 -6.517116 -17.435612 -10.499586
000280 c8 44 f6 c0 56 fc d3 c1 66 31 6e c1 21 21 67 c1
       -7.695896 -26.49821 -14.88706 -14.445588
000290 21 3a bb c1 ed 02 85 c0 4b 23 7f c1 3e 81 9d c1
       -23.403383 -4.156607 -15.946116 -19.688107
0002a0 ff 2a 50 c1 ee 01 f4 c0 17 35 9a c1 68 68 80 c1
       -13.010497 -7.6252356 -19.275923 -16.05098
0002b0 cd f3 9b c1 b2 1a 7c c1 c3 28 a7 c0 8a d2 81 c1
       -19.494043 -15.756517 -5.223726 -16.227802
0002c0 0d d5 50 c1 04 34 89 c1 6e e7 85 c1 d0 02 ab c1
       -13.052014 -17.150398 -16.738003 -21.376373
0002d0 ae fe 97 c1 8e 66 d5 c0 bb 94 5c c1 c1 1c 2d c1
       -18.999355 -6.668769 -13.786311 -10.81952
0002e0 10 4b 84 c1 9d 30 3a 3f 02 f3 29 c1 fa 0a 8e c1
       -16.536652 0.7273043 -10.621828 -17.75536
0002f0 90 7e c8 c1 4e e9 d9 c1 94 46 cb c0 59 3f 82 c1
       -25.061798 -27.238918 -6.3523655 -16.280931
000300 13 1c 0a c1 cb 48 03 c1 92 f9 8a c1 39 49 29 c1
       -8.631854 -8.205272 -17.37186 -10.580377
000310 9d 26 9b c1 53 ab 07 c1 fb 9f 18 c1 c9 27 7d c1
       -19.393854 -8.479327 -9.539058 -15.822213
000320 d5 cb 11 c1 56 ba 55 c1 61 a5 c9 c1 d1 5b 9f c0
       -9.112264 -13.357992 -25.205751 -4.979958
000330 bc 36 a8 c1 e0 3a a6 c1 c2 10 69 c1 7d 2a a8 c0
       -21.026726 -20.778748 -14.566591 -5.2551866
000340 67 01 be c1 7e d6 29 c1 51 34 0c c0 25 40 6c c1
       -23.750685 -10.614866 -2.1906931 -14.76566
000350 ee 44 7b c1 65 f3 21 c1 60 3a 42 c1 0d ee a9 c1
       -15.704329 -10.1219225 -12.139252 -21.241236
000360 8d 9f c3 c1 c5 e2 36 c1 70 1d b5 c1 ac b3 49 c1
       -24.452906 -11.430364 -22.639374 -12.606365
000370 58 9e e9 c0 01 2f 2e c1 87 3f 2b c1 c0 8b f5 c0
       -7.300579 -10.886476 -10.70301 -7.6733093
000380 ae 9e af c0 18 10 93 c1 94 68 cc c0 87 64 1c c1
       -5.48812 -18.382858 -6.387766 -9.774543
000390 e9 e3 2f c1 19 a2 83 c1 16 63 75 c1 40 db 0f c1
       -10.993142 -16.45415 -15.336691 -8.991028
0003a0 1d 63 88 c1 2a cf 07 c1 e7 7a e5 c0 58 3e 78 c1
       -17.048395 -8.488077 -7.1712527 -15.515221
0003b0 e3 a5 b0 c1 f4 69 e1 c0 03 0f 56 c1 5b 84 1b c1
       -22.081 -7.0441837 -13.378665 -9.719813
0003c0 10 7d f7 c0 cc 83 4d c1 75 41 93 c1 6a 9d a2 c1
       -7.7340164 -12.844677 -18.406961 -20.326862
0003d0 e6 73 7b c1 7f cb 99 c1 45 d1 45 c1 b2 56 15 c1
       -15.7157955 -19.224363 -12.363591 -9.333666
0003e0 83 37 5a c1 36 fe 94 c1 ee 06 f7 c1 fb a1 e8 c0
       -13.638553 -18.624126 -30.878384 -7.269773
0003f0 10 e8 73 c1 60 08 87 c1 c7 b3 dd c0 0b 21 23 c1
       -15.244156 -16.87909 -6.9281955 -10.195567

fc2.weight f4 [1, 256]
000000 df a2 1b bd be 75 01 3d 18 e3 b1 bd 50 80 44 3d
       -0.037997123 0.03160643 -0.08685893 0.04797393
000010 99 da 04 3d 60 52 07 bd 17 49 ad 3c ac cb 1a bd
       0.032435033 -0.033037543 0.021153016 -0.037791893
000020 41 05 45 bd ea 4a 1f 3d 2a 0c 9e bc d7 14 b7 bc
       -0.048100714 0.038889803 -0.01929291 -0.022348804
000030 e6 47 b3 3d 07 85 26 3d 9f 66 09 bd 7e 47 3a bd
       0.08753948 0.04065421 -0.033545133 -0.045478337
000040 ac 3d 03 bd 8a 22 2e bd 71 09 49 3d 14 6d 8e bc
       -0.032041237 -0.042513408 0.04908127 -0.017385997
000050 9b d3 06 3d a5 03 11 3d 23 9e 0a bd 29 e4 06 3d
       0.032916646 0.035403866 -0.033842217 0.032932434
000060 37 4e 28 bd 02 22 de bc 68 9d 45 3d 52 ca 28 3d
       -0.041090216 -0.027115826 0.048245817 0.041208573
000070 89 61 10 3d ec 51 8a bc d5 62 06 bd 83 43 1d 3d
       0.035249267 -0.016884767 -0.032809097 0.038394462
000080 c5 a7 66 bd 7b 62 c6 bd a7 fb bb 3c ff 53 3c bd
       -0.05631234 -0.096867524 0.022947146 -0.045978542
000090 d3 6b 3e 3d b6 7e 37 3d 77 bb 21 3d 33 7e fd 3c
       0.046489548 0.044798575 0.03948542 0.030943966
0000a0 a4 26 fd bc 9b e7 bf bc 7e 05 2a bd 24 69 1c 3d
       -0.030902214 -0.023425868 -0.041509144 0.038186207
0000b0 32 4a 82 3d c0 51 3f 3d 53 8d 54 bd 6b 1e 54 3d
       0.06361808 0.046708822 -0.05189259 0.05178682
0000c0 52 cf 05 3d d5 ca 0b 3d 4f 8c 7f be d2 00 fd 3c
       0.03266842 0.034128983 -0.24955867 0.03088418
0000d0 18 ba 0a bd 82 bb ee bd d9 6b 70 3d 1b 07 f2 3c
       -0.03386888 -0.11656858 0.0586966 0.029544404
0000e0 82 30 a8 bd bd e1 06 be eb 0f c7 bd 67 c9 21 bd
       -0.08212377 -0.1317205 -0.09719833 -0.039498713
0000f0 2f 1f f5 3d 24 9a 01 3d 90 52 06 3c a4 6f 2f bd
       0.119688384 0.03164114 0.008198395 -0.04283108
000100 81 b2 6d bd 79 e6 20 bd 70 92 35 bd c8 92 1a 3d
       -0.058031563 -0.039282296 -0.044329107 0.037737638
000110 9b d8 54 3d f0 46 c0 bc 9f f4 fb 3c 8e 1e 23 be
       0.051964384 -0.023471326 0.030756293 -0.15929624
000120 a2 25 1c 3d e4 2b 2b 3d 0a 72 e0 bc 14 75 ec bc
       0.038121827 0.041789904 -0.027398128 -0.028864421
000130 62 19 a7 3c cf dd 6b 3c b5 41 26 bd c1 d9 20 bd
       0.020397846 0.014396145 -0.040590007 -0.039270166
000140 0b 73 23 bd ab 05 d4 3c d2 06 90 3c d4 87 e7 bc
       -0.039904635 0.025881609 0.017581377 -0.02826301
000150 70 a4 2c 3d 0b 33 61 3d 48 da 08 bd 28 b6 15 bd
       0.042149007 0.05498032 -0.033411294 -0.03655067
000160 dd 24 1d 3e fe 97 0f 3d 91 4a 7d bd e6 18 30 3d
       0.15346093 0.03505706 -0.06183869 0.042992495
000170 b0 fc 71 bd c9 0e 44 3d 27 17 37 bd ed 6f 65 3d
       -0.059078872 0.047865663 -0.044699814 0.056014944
000180 8c 6b d9 3c 5d 59 75 bd 1a 20 d7 3c 60 0b ed 3c
       0.02654054 -0.059899677 0.026260424 0.028936088
000190 c1 0b 5d bd 59 19 8c 3d 34 1f ca bc 1e 31 46 bd
       -0.053966288 0.06840772 -0.024673082 -0.048386686
0001a0 d1 7b 11 bd 8e 2c f5 bc 17 ac 0c bd 2a 08 1f bd
       -0.03551847 -0.029928472 -0.034343805 -0.038826145
0001b0 5b 30 a0 be 3c af e5 3c 10 ff b8 3c 0b cb 99 bd
       -0.31286892 0.02803766 0.02258256 -0.075094305
0001c0 5a 0b a7 bc 6d 61 36 bd 58 de 60 bd 97 98 68 bd
       -0.020391155 -0.044526506 -0.054899544 -0.056786146
0001d0 73 08 bd 3c 11 18 3b 3d 38 99 46 3d 8a 85 df 3c
       0.023075318 0.04567725 0.048485965 0.027285356
0001e0 f9 1a 69 bd f1 e1 1b 3d f9 32 37 be 54 9c 27 3d
       -0.05691049 0.03805727 -0.17890538 0.04092057
0001f0 75 69 0e 3d 44 27 04 bd 17 c3 21 3d 9f 9f ad bd
       0.03476854 -0.03226401 0.039492693 -0.08477711
000200 e7 dc da bc d6 d2 f0 bc 6c 5d 98 bc f0 cb e5 bd
       -0.026716663 -0.02939741 -0.018599235 -0.112205386
000210 ba 2d cd 3c 9b 07 d3 bc 82 79 f7 3c 3e fc 13 bd
       0.025046218 -0.025760463 0.030209307 -0.03612923
000220 6d 5f 43 3d 58 35 bd bc 8b c6 63 3d d3 6c 3c 3d
       0.047698427 -0.023096725 0.055609267 0.04600222
000230 14 85 31 bd b7 87 13 3d 41 1b d1 3d 92 f7 8f 3d
       -0.043339804 0.0360181 0.102102764 0.07029642
000240 2a a2 0a bd 0e d1 ab 3d d0 05 e9 bc 4d 73 5a 3d
       -0.033846058 0.083894834 -0.028445154 0.053332616
000250 9a 5f 47 bd 12 cf ed bc f3 67 3c bd 15 f2 a8 bc
       -0.048675157 -0.029029403 -0.04599757 -0.020623246
000260 b4 ea 19 3d 97 5f 19 3d 46 93 0c bd 82 98 15 bd
       0.037577346 0.037444677 -0.03432014 -0.036522396
000270 5c b9 15 3d 28 5e 54 bd a3 5c 42 bd d3 5e f5 3c
       0.036553726 -0.051847607 -0.047451627 0.029952442
000280 49 b1 29 3e 42 96 1c bd 24 30 07 3d aa 79 e4 bc
       0.16571535 -0.038229235 0.033004895 -0.027890045
000290 57 23 72 3d bf fa 83 bd 60 85 bb 3d ad d1 a5 bc
       0.059115734 -0.064443104 0.09156299 -0.020241583
0002a0 af b1 a9 3e e7 27 ca 3c b0 6f 4f 3d 75 10 3e 3d
       0.33143374 0.02467723 0.050643623 0.046402413
0002b0 24 da 3d bd b5 9c 34 3d ef ff d9 bc 43 9c 2b 3d
       -0.046350613 0.04409476 -0.026611296 0.04189707
0002c0 7f f3 7e bd ce 04 1a bd 6c dc 10 3d d4 e8 84 bd
       -0.062243935 -0.03760224 0.03536646 -0.06489721
0002d0 a6 f0 4f bd 1d 81 1c 3d 2e 84 12 3d ac be 49 bd
       -0.05076661 0.03820907 0.035770588 -0.049254104
0002e0 f3 87 7b bd 9a 2b ce 3d 0e 99 0e bd 7d e4 4c bd
       -0.06140895 0.1006691 -0.034813933 -0.05002259
0002f0 ee 59 c8 bc 34 c3 4f 3d 83 a8 de bd f8 a4 59 3d
       -0.024456944 0.05072327 -0.10871985 0.053135842
000300 c8 1f 41 bd a9 21 14 bd be d0 ea 3c 98 7d 7f 3d
       -0.04714945 -0.036164913 0.02866399 0.062375635
000310 4d 36 81 bc 3f 1c 3b 3d ea ca 1f 3d 01 19 32 3d
       -0.015772963 0.045681234 0.039011873 0.043480877
000320 f0 ac cf 3d 58 db de 3c a8 fb 02 3d 67 ae 05 3d
       0.10140407 0.0272042 0.03197828 0.032637026
000330 aa 88 bc 3c ad 9f f4 3c f8 6a cc bc 55 1d 16 bd
       0.023014385 0.029861296 -0.02495335 -0.036649067
000340 39 9c ac bc db ae 3c 3d 41 df 17 3d f3 e9 fc bc
       -0.021070587 0.046065193 0.037078146 -0.030873274
000350 f9 82 be 3c 8f 0b 1b 3d c5 42 e0 3c d5 c9 2c bd
       0.023255812 0.03785282 0.027375588 -0.04218467
000360 87 57 2d 3d 39 34 1c 3d 84 7c da 3b b2 91 06 bd
       0.0423198 0.03813574 0.0066676755 -0.03285379
000370 46 67 44 bd 48 d5 e7 bc e9 9a 19 3d 94 8d 2f bd
       -0.04795005 -0.028299943 0.03750125 -0.04285963
000380 b1 54 71 3d ac 66 3b bd a3 fb 61 3e 8e 14 4a 3e
       0.05891866 -0.045752212 0.22068648 0.19734403
000390 60 60 3a bd 49 b7 96 3d 58 88 03 bd 65 13 2d 3d
       -0.045502067 0.073591776 -0.03211245 0.042254824
0003a0 36 d3 1c bd 3b ed 6d 3d 93 48 70 bd f0 ba 1c 3d
       -0.038287364 0.05808757 -0.058662962 0.038264215
0003b0 0b 3e eb bc a5 2d 15 3d c4 2d d5 bc 61 1b 16 3d
       -0.028716108 0.036420483 -0.0260228 0.036647204
0003c0 54 85 ae 3d 7d e8 45 3d 1f 13 29 bd bb e4 f0 bc
       0.08521524 0.04831742 -0.041278 -0.029405942
0003d0 af 47 31 bd 3a 86 30 bd c1 2b 50 bd 8e 12 86 bd
       -0.043281253 -0.04309676 -0.050822977 -0.06546508
0003e0 62 08 98 3c 61 13 34 bd 19 07 f6 bc 6d 8e 12 3d
       0.018558685 -0.043963794 -0.030032681 0.03578036
0003f0 c5 6f c4 bc 06 a0 3a bd bc 57 69 bd f6 6a 1d 3d
       -0.023979077 -0.045562766 -0.056968436 0.038432084
