resources/models/1L-256.pth (torch, 795962 bytes, 3 tensors)

fc1.weight f4 [256, 768]
00000000: cd2c c0bc 15db abbc 63e1 8f3c f41c 2a3b
00000010: cd1d 5cbc 0c2a 233c 03bc a9bc 1c79 f3bc
00000020: 43dd 833f f50c 35c0 64ce b13f 36bc aabf
00000030: 583b 143f ddcc be3e 83ed 783e f714 b33d
00000040: 51a4 853f 3c73 a9c0 1922 c83f 947d 01c0
00000050: ede0 c93e 4238 b33e cc95 6f3e 50ef e63d
00000060: 82ac 853f f9a2 09c0 00c0 e43f 558c 06bf
00000070: 787c 1b3f 0540 333e 1ceb cd3e 9c88 323e
00000080: 8718 ab3f 79ce b3be 7db1 ba3f 9786 e7be
00000090: cd77 e73e b1ea e63d b18c e03d facd 1d3e
000000a0: e213 943f 9e64 cd3f 4db7 873f fcd8 22be
000000b0: b0c4 093f 1fda 83be 109f ab3e 2c03 f8be
000000c0: 821e 283f e5ba bb3f 2846 0040 4d30 7cbf
000000d0: 1cf6 99be d686 9abd d509 9f3f 83bf 1d3f
000000e0: 1589 c73c 9fc6 0ebd c5a8 813c fd66 ebbc
000000f0: 59a0 55ba 6afd 84bc f117 8bbc d920 58bc
00000100: b4a9 4cc0 d068 08be 9fae 2ebf f87b c13e
00000110: 3504 4cbe 7de6 7abf 7a94 db3e 9232 05c0
00000120: 199c 5ebe dd39 87bc 700a 273e 0600 7fbf
00000130: 73e7 4e3e ea24 4fbb 8b93 f9be 9c74 2cbf
00000140: 5e42 0bbe 3bca 89bf 00aa b8bd fde3 14be
00000150: 4d1c 53be 33ad 79bd 3ccb 5fbf 52d3 7c3e
00000160: 505e c93e b05d 1abe c856 ebbd f725 cfbc
00000170: 0cd3 dfbe 8003 923e 38d9 8bbe d5e0 13bf
00000180: 552a 87be e49d b4be e13b 633e 5701 7c3e
00000190: af22 b7be b36f 88bf 98bf 0bbf 7908 03bd
000001a0: 9917 2abf a1a6 c2be 8a65 213e bbe6 77bf
000001b0: f491 8cbd 041f afbe 8784 a83e 8e99 193d
000001c0: 5716 8c3d c23a dfbd bd19 e23d c987 0abf
000001d0: 0c97 1fbf f8d4 06c0 d0cd 15bf 68dc 0c3c
000001e0: a6b7 9ebf 23cc 83bf 85d6 f6be 3210 86be
000001f0: 00d1 85bf c3b6 5cbf 2170 8ebf b3eb 6abf
00000200: b2e5 82bf e6a7 42bf 00bf 70bd 3228 52bf
00000210: d2f8 a23c 56ca 0bbf 3d27 28bf cf18 5b3d
00000220: f1c2 adbf 674a 18be 0e9d e7be 82c4 253d
00000230: 1ca9 f9be 80a4 4f3b 75e4 a3be e9ff 7ebe
00000240: b411 583e 6990 6dbf 6f75 1c3e 8665 1bbf
00000250: 2e3f d23d ff32 d0be 8f6c d43d aebf 113e
00000260: cb02 bebf 57e2 ee3d c8db ebbe bd25 c4bd
00000270: f093 34bf 8a41 5ebe 4bfa 76be 1118 8dbf
00000280: 78e6 c03e 3781 2bbf 53a6 2f3f 14a8 cbbf
00000290: d919 9bbd 3822 b8be 18fa d8be 5608 acbe
000002a0: f666 0bbf 31fb 32bd ec5f 35be 366d a03d
000002b0: 01d3 22bf 94d9 40be c0ce 8dbf 2726 81be
000002c0: 6dd2 ce3f b897 d7be fd12 be3e 1dcd bebe
000002d0: 10f9 edbe 6392 24bf 4e1f 79be 9c48 c0bf
000002e0: 7dd9 393e bc9a 963f 1831 b0bf eb72 903e
000002f0: 4d53 43bf 6e64 54bf c47a c4bf 1c76 97bf
00000300: e4b6 11be 2d38 04be 7214 1f3e d044 a2be
00000310: 92d1 33be 59ab a1be 70bb 63be 3b26 bdbe
00000320: d217 913d a512 113e a2a7 1e3f e4c9 df3e
00000330: 6c32 d13d fba7 eb3d 6ed8 a6bd 0926 8b3d
00000340: 5308 0bbf 6fc0 873d ae09 2cbe 3295 00bc
00000350: b576 90be 2164 ec3b 4257 acbd 8392 86bd
00000360: f86a fc3e 77a0 fd3e 6695 033f dd6c 1d3e
00000370: 8dfe 823d 3e60 12be 3a8a 94be 78a6 9cbe
00000380: e47f 153f ee08 563f 2c86 e23e 9245 8f3e
00000390: c682 f73e 7c18 143f 3da4 ca3e 6994 053e
000003a0: 18cd 063f 8cd0 5c3f f1f5 183f 67c0 583e
000003b0: fa6a ff3e 3ed9 f9bd 8ff9 7b3e fa97 863e
000003c0: cbc9 0f3f 7b23 393f 4f97 413e 5926 d13c
000003d0: f5d9 b73e 96d8 ba3d bd6d 39bd 982c e83e
000003e0: 6c18 af3e df5d e33e 7e8c 183f 15eb dcbd
000003f0: b9eb cc3e b561 3e3e 5342 e03c 4b83 7f3e
-0.023458863 -0.02097849 0.017563527 0.0025957199 -0.013434839 0.009958755 -0.020719534 -0.029720835
1.0301899 -2.8289158 1.389111 -1.3338687 0.5790305 0.37265673 0.24309354 0.08744233
1.044077 -5.2953167 1.5635406 -2.0232897 0.39429417 0.3500386 0.23396987 0.11276114
1.044327 -2.150572 1.7871094 -0.5255788 0.607368 0.1750489 0.40218437 0.17434925
1.336686 -0.35118464 1.4585415 -0.4521987 0.45208588 0.112752326 0.10964335 0.15410605
1.1568568 1.6046331 1.0602814 -0.15903085 0.53815746 -0.2575235 0.33519793 -0.4843992
0.6567155 1.4666411 2.004282 -0.985112 -0.3007058 -0.07545249 1.2424875 0.6162035
0.024357358 -0.03485739 0.015827546 -0.028735632 -0.0008149199 -0.016234118 -0.01697919 -0.013191425
-3.1978579 -0.13321233 -0.682352 0.37789893 -0.1992348 -0.9800795 0.42886716 -2.0812116
-0.21739234 -0.016507084 0.16312575 -0.9960941 0.20205478 -0.0031607696 -0.4874538 -0.6736543
-0.13599536 -1.0764841 -0.090168 -0.14540096 -0.20616265 -0.06095619 -0.87419486 0.24689987
0.39329767 -0.15074801 -0.114911616 -0.025286658 -0.43715703 0.28518295 -0.27314162 -0.5776494
-0.26399484 -0.3527671 0.2219081 0.24609886 -0.3576865 -1.0659088 -0.54589224 -0.031990502
-0.6644226 -0.38017753 0.1576139 -0.9683644 -0.06863776 -0.3420335 0.3291361 0.037499957
0.068401985 -0.10899879 0.110400654 -0.5411344 -0.62339854 -2.1067486 -0.5851717 0.008597471
-1.2399795 -1.0296673 -0.4821054 -0.2618423 -1.0454407 -0.8621637 -1.1127969 -0.917659
-1.0226347 -0.7603744 -0.0587759 -0.82092583 0.019894037 -0.54605615 -0.6568487 0.053490456
-1.3575116 -0.14872132 -0.4523701 0.040470608 -0.48761833 0.0031683743 -0.32010236 -0.2490231
0.21100503 -0.9279848 0.15279172 -0.6070179 0.10265957 -0.40663907 0.103722684 0.14233276
-1.4844602 0.11664265 -0.46066117 -0.095775105 -0.70538235 -0.21704689 -0.24118917 -1.102297
0.37675834 -0.6699404 0.68613166 -1.5910668 -0.075732894 -0.35963607 -0.42378306 -0.3360011
-0.5445398 -0.043696586 -0.17712373 0.0783333 -0.63603216 -0.18833 -1.107872 -0.2522442
1.6157967 -0.4210794 0.37123862 -0.37265864 -0.46479082 -0.6428587 -0.24328348 -1.5022159
0.18149371 1.1765971 -1.3764982 0.28212675 -0.7629898 -0.82965744 -1.5349965 -1.1832919
-0.14229923 -0.12912054 0.15535143 -0.31693125 -0.17560413 -0.3157604 -0.2223947 -0.3694323
0.070846215 0.14167269 0.6197454 0.43708718 0.10214695 0.11506649 -0.081467494 0.06794364
-0.54309577 0.06628501 -0.16800568 -0.007848071 -0.28215566 0.0072140847 -0.084150806 -0.06570914
0.4930036 0.49536487 0.5139984 0.1537356 0.06396208 -0.14294526 -0.29011708 -0.30595756
0.5839827 0.83607376 0.4424299 0.27982765 0.4834196 0.5784986 0.3957843 0.13044895
0.526567 0.8625572 0.59750277 0.21167146 0.49886304 -0.12199639 0.24606918 0.26287824
0.56167287 0.72319764 0.18905376 0.02553098 0.35908476 0.09123342 -0.04527067 0.45346522
0.3419832 0.44407555 0.59589374 -0.10787026 0.40023592 0.1859196 0.027375376 0.24952428

fc1.bias f4 [256]
00000000: 2bf1 cdbf 3fa2 263f 24fe c2bf 5484 2dc0
00000010: a59b 8f3d 0cc8 83bf 0a90 debe dac5 00c0
00000020: c6c3 03c0 b038 12c0 0d8e d83f 4ff7 82bf
00000030: 4fa6 fabe 57b4 15bf cdd1 d4bf c140 95bf
00000040: 0231 cfbf c677 35bf 03fb f23f 8b4b d4bf
00000050: 82d5 b4bf 506d d5bf bcf2 a73e 5504 03c0
00000060: 16be 2540 3e50 0fc0 3a63 2a40 6475 30c0
00000070: c168 7bbf 516c 3ac0 3766 94bf 16df a5bf
00000080: 4ee1 23bf 5501 22c0 f8a4 92bf d636 dcbf
00000090: 5824 3cbf eef2 c9be cdce 9dbf 7ed3 f83f
000000a0: 4719 18bf 207c ccbf 8de5 893d d8a7 38bf
000000b0: 9d96 2fbf 84d3 eabf 26ea d1bf 9e72 5c3f
000000c0: e616 20bf 74a3 93bf 3565 4dbf 3020 06c0
000000d0: f696 fc3f d343 cdbf 3ce1 74bf 203d d4bf
000000e0: b206 ffbf 63be de3f 70b3 eebf 8d63 1dc0
000000f0: 27a7 0f3f c435 bebf f3ac 99bf 6711 55bf
00000100: d2e0 99bf 4ffe 10bf cf27 adbe 47a0 cfbf
00000110: 49b6 fdbf 52f4 d5bf 0bdf e23f fbbe abbf
00000120: 6278 27c0 df7e 4440 f8ef 2940 c8d4 0ebf
00000130: 8539 17c0 16f1 3dbf 2b63 eebf e1b0 b0bf
00000140: 9228 f6bf 19b0 58bf 23f8 ecbf c4f2 0740
00000150: e0c2 20c0 e5ba 9e3f 8f45 e1bf 60c1 b4bf
00000160: 10f6 08c0 9241 2ec0 fe4c 82bf 2814 95bf
00000170: 4dd2 79bf 8fcb 21bf e1b8 78bf 5535 153f
00000180: b5db bbbf e95b 01c0 a0e7 56bf eddf 433f
00000190: 5ae3 95be cce0 ed3e e885 093f 84e6 11c0
000001a0: b513 c6bf 9683 a0be 5b3a a5bf e161 31bf
000001b0: 5292 97bf 7d56 f7bf 2db8 f4bf 30b8 b6bf
000001c0: 5bba 4ac0 b7ca 07c0 ec9c 84bf da95 4340
000001d0: d44d 2740 af0f 0ac0 1294 acbf 9a2f 09c0
000001e0: 429c d9bc 66f7 e73e 9f41 9cbf df7c a1bf
000001f0: 46ec 00c0 bad9 f1bf d07b 0bc0 cf40 17bf
00000200: 0f50 cfbf 3756 f7bf ae2b 85bf c372 0bc0
00000210: 757c 6dbf 5e11 fdbf ea90 e8bf 21f5 debe
00000220: 4d63 55c0 6f5a 20c0 6a5c 1fbf 1f95 ccbf
00000230: 5bed d63e 748b 14bf 5ed8 afbf 4bc1 debf
00000240: 99de dbbf a59a aebe d69c e7bf 7d14 0ec0
00000250: 9d44 c4bf 2767 903e 7d0d 71bf e587 0b3f
00000260: f2c3 40bf 566d 2bbf ddfb 8fbe ad36 1abf
00000270: a7f7 00c0 1245 aebf 16db 3dbf 0a6d 94bf
00000280: 5447 93bf a2b6 08c0 5ff9 9f3f c3b4 353d
00000290: 47c3 19c0 99ab b9bf bf36 43c0 8942 20c0
000002a0: 3eb3 71bf 880c 3cc0 d63f 34bf 493b adbf
000002b0: e7e8 17c0 3b00 dcbf d742 f9bf f40f f0bf
000002c0: 2531 f3bf bf03 9fbf f658 273f 711a c5bf
000002d0: 70b5 88bf 9bb4 d2be 842f ae3e 7c21 3bbf
000002e0: b5be babf 8f1b 07c0 3225 d9bf e508 6ebf
000002f0: 2325 97bf 174c 9b3f 5621 abbf 7df4 b3be
00000300: 8659 a7bf e62d 02c0 0783 7fbf 5200 febf
00000310: 413a 243f 8efd a73f bbfb 07c0 323f 0bc0
00000320: 9d83 18c0 bb3f 27c0 8b5e 04bf 5926 0840
00000330: a1c0 e0bf 26e5 b4be 6a33 c6bf 241a d2bf
00000340: 0ecb 04c0 aaff cebf 37dd 3ac0 5543 f6bf
00000350: 78bd dbbf 3649 93bf 27b0 9bbf dd73 1540
00000360: a04d dc3c d79f 0440 60ed 3dbf 4e14 c3bf
00000370: 1e4c 0040 41d9 1ebf 0021 4140 0cdc 2ec0
00000380: c397 e7bf df66 b2bf 6b66 bebf 2e73 dbbf
00000390: 0d12 33bf 638a 1bbf 6872 50bf e36c 2bc0
000003a0: fd12 28c0 d0f2 13bf dbe1 473e f77d ebbf
000003b0: 6eb6 dc3f 3389 9abf 5c63 e63f 71c0 bcbf
000003c0: 7915 3bc0 629d ef3f 942a 9fbf 0e40 4ebf
000003d0: 8e43 ebbf 01dd 8cbf b8a9 8bbf c97f a5bf
000003e0: e9c8 3bbf 9ad0 bebf 1ca1 ddbf 0bc6 66bf
000003f0: 9223 13bf 0cf9 1ec0 6935 a0bf 1bd0 43bf
-1.6089224 0.6509132 -1.5233808 -2.7112017 0.07012109 -1.0295424 -0.43469268 -2.012076
-2.058824 -2.28471 1.691835 -1.0231723 -0.48955008 -0.584783 -1.6626526 -1.1660386
-1.6186831 -0.70885885 1.8982853 -1.6585554 -1.4127657 -1.6673985 0.3280238 -2.0471394
2.589727 -2.2392726 2.6623063 -2.757165 -0.98206717 -2.912861 -1.1593693 -1.2958705
-0.6401566 -2.5313313 -1.1456594 -1.7204235 -0.73492956 -0.39443153 -1.2328736 1.9439542
-0.5941357 -1.597538 0.067332365 -0.7213111 -0.6858919 -1.83458 -1.6399581 0.8611239
-0.6253494 -1.1534257 -0.80232555 -2.0957146 1.973357 -1.6036323 -0.9565618 -1.6581154
-1.9923918 1.7401851 -1.864851 -2.459201 0.5611443 -1.4860158 -1.2005905 -0.8322968
-1.2021735 -0.56638044 -0.33819434 -1.6220788 -1.9821254 -1.6715186 1.7724317 -1.3417658
-2.6167226 3.0702436 2.6552715 -0.5579343 -2.3628857 -0.7419599 -1.8624014 -1.3803979
-1.9231131 -0.84643704 -1.8513225 2.1241922 -2.5118942 1.2400786 -1.7599353 -1.4121513
-2.1400185 -2.722752 -1.0179746 -1.1646776 -0.9758652 -0.6320123 -0.971571 0.58284503
-1.4676424 -2.0212348 -0.8394718 0.7651356 -0.29275018 0.4646057 0.5371995 -2.2796946
-1.5474764 -0.31350392 -1.2908434 -0.69289976 -1.1841528 -1.9323269 -1.9118706 -1.427496
-3.1676242 -2.1217477 -1.0360389 3.0560212 2.6141253 -2.1572073 -1.3482687 -2.1435304
-0.026563767 0.45305938 -1.2207526 -1.2616233 -2.014421 -1.889457 -2.179432 -0.59083265
-1.6196307 -1.9323186 -1.0403955 -2.1788795 -0.9276803 -1.9770925 -1.8169224 -0.43546394
-3.3341858 -2.5055196 -0.6225039 -1.5983008 0.41977963 -0.5802529 -1.3737905 -1.7402738
-1.7177306 -0.3410236 -1.8094738 -2.2200005 -1.5333439 0.282037 -0.94161206 0.54504234
-0.7529899 -0.6696371 -0.28121844 -0.6023968 -2.0151155 -1.3614829 -0.74162424 -1.1595776
-1.1506143 -2.136147 1.2497977 0.04436184 -2.4025438 -1.4505492 -3.0502164 -2.504061
-0.94414127 -2.9382648 -0.70409906 -1.3533717 -2.3735902 -1.718757 -1.9473523 -1.8754869
-1.8999373 -1.2423018 0.6537012 -1.5398694 -1.068037 -0.41153416 0.34020627 -0.7309797
-1.4589449 -2.111057 -1.6964476 -0.9298232 -1.1808208 1.2132596 -1.3369548 -0.35147467
-1.3074195 -2.0340514 -0.99809307 -1.9843848 0.6415139 1.3124254 -2.1247394 -2.1757321
-2.383033 -2.6132648 -0.5170676 2.1273406 -1.7558786 -0.35331076 -1.548444 -1.6414227
-2.0748935 -1.6171772 -2.919752 -1.9239298 -1.7167196 -1.1506717 -1.2163132 2.3351967
0.026892483 2.0722558 -0.7419033 -1.5240571 2.0046458 -0.62050253 3.0176392 -2.7321806
-1.8093189 -1.3937644 -1.4875005 -1.7144525 -0.6994942 -0.60758036 -0.8142457 -2.678521
-2.626159 -0.5779238 0.19519751 -1.8397816 1.7243173 -1.207312 1.7999072 -1.4746228
-2.9231856 1.8719904 -1.2434869 -0.8056649 -1.8379991 -1.1004945 -1.0911169 -1.2929622
-0.7335344 -1.490741 -1.7314792 -0.9014594 -0.5747615 -2.4839506 -1.25163 -0.7648942

fc2.weight f4 [1, 256]
00000000: 89dd a0bd 7309 643d 0ad3 c33e 9e7c 783e
00000010: f4e4 0fbd d244 41bd 2fa3 563d 631a b5bd
00000020: 4690 8b3d 7690 c73d 9fe9 3abd 11e0 b2bd
00000030: 410c b43d a1f3 4fbd 4108 3b3d 2ee5 393d
00000040: acad 683f 2c2f 50bd 9658 90bd 9cbf 493d
00000050: 9320 f8bd 90d9 b9bd 7dde 583d c865 763d
00000060: d8b2 b63d 3cd0 1ebe d412 aa3d 0f7a 103f
00000070: 238d c13d 6ec5 eabd 1bee 843d 15f5 fcbd
00000080: f4f3 b33d df9e 9ebd e0c8 b4bd 36cb 8bbd
00000090: f226 99bd 5fdd 473d 7647 753d 121d 723d
000000a0: 7bd7 753e c04f 8dbd 6939 a1bd 402f 78bd
000000b0: dd3b 193e b848 c03d 9ee4 77bd 0658 2d3d
000000c0: c53f 9bbd aafc 1dbf 3cd0 b83e f244 233e
000000d0: fdb4 7fbd 7004 6f3d 547c 47bd f5a2 823d
000000e0: b69e 803d 4e25 3ebd c80d a7bd a7b2 c33e
000000f0: 9348 343d 14a1 b23d 7d82 45bd 768f 40bd
00000100: 70bb 72bd 6a70 74bd 415c 65bd 541f bbbd
00000110: e88e a4bd 858b a03d 4713 543d d1db 4bbd
00000120: 7c4c b3bd 65fe b83d 0390 60bd 9d85 d7bd
00000130: 015c bebd f355 ce3d 2458 2dbd fcb4 90bd
00000140: 75c6 89bd 52bd 60bd 96f5 40bd ed17 273e
00000150: 5b73 c83d f074 3fbd f0ff 533d 2c60 b93d
00000160: 624d 7ebd cd12 4ebd 0ff5 233d 076a 90be
00000170: fff9 81be 638b 47bd d445 8d3d 607c 0abd
00000180: 9ba3 4a3d ecbe b63d 7548 8abd 9aaa fbbc
00000190: c39d 813d eea1 3e3d 9da9 493d 2164 0e3e
000001a0: 3d79 92bd 50c5 72bd f465 c43d 74de 43bd
000001b0: 618e 6cbd 7814 9bbd 66de 983d ac8c 98bd
000001c0: a321 13be 603d 8bbd 6612 893d b475 a8bd
000001d0: f3a9 a53d ea58 63bd 9380 81bd 41db a63d
000001e0: bdae 313d d8da 86bd ccc5 ce3d 892f 3a3d
000001f0: bc68 80bd eb66 bcbd 030c 54bd 6e7a ac3d
00000200: 3447 6ebd 7e63 bc3d f040 af3d f5b0 ae3d
00000210: 6036 103e 3985 94bd b05f b03d b7e5 8c3d
00000220: ae9f b2bd 572c c83d 3163 413e b148 2bbd
00000230: c302 79be c9f6 bebd 23a4 f4be c07f aa3d
00000240: ea4f 9ebd 07fb 553e 12bb 9c3d a8f4 4dbd
00000250: 8a15 c03d fe49 3bbd 29f7 81bd bf46 713d
00000260: 84e4 743d 5282 62bd f06e 1cbd 8860 06be
00000270: 68ed 8dbd d0bc 4b3d ea2d 773d ea63 adbd
00000280: c746 6c3d 331e 31bd 56e4 833d 0579 4ebd
00000290: fd04 47bd 501c 9a3d 3429 8abe 9531 a7bd
000002a0: 6537 35bf 414d 9e3e 03b3 283d 10f9 51bd
000002b0: edba 90bd 8df8 60bd ef3e 173e 4425 84bd
000002c0: 4078 623d 68d8 4fbd 16a2 8c3d 0c55 50bf
000002d0: 7f44 54bd 8e20 843d 0642 a3bd 8862 38bf
000002e0: ef3b 58bd 922d 273f 7ca6 ccbd 4859 2f3d
000002f0: f43b 1dbd bf14 813d 7025 533d cf13 15be
00000300: 48c9 57bd 5cdf 933d 4028 013e 6431 d9bd
00000310: 3fb0 903d 8f7f 613d 79f4 58bd 1aba 723d
00000320: e1c9 da3d a82f a7bd 2655 7dbd 7976 81be
00000330: 3baf d63d adda 533d abc2 b8bd f8ab 67bd
00000340: 2d4a 6d3e a1ce 45bd fff4 98be e20e 70bd
00000350: 221e 273d 3b02 523d b4a1 53bd 3a27 37bd
00000360: ac6b a33e 6162 7a3d 689b 6c3d 5029 54bd
00000370: bf99 88bd c5e4 593d 1160 dbbd 1eb0 ccbd
00000380: 9dea 8b3d df7d b43d fa9d 433d 7958 353d
00000390: 8539 433d 8468 863d df3a 3c3d 14c1 943d
000003a0: 1be6 29be 26a3 91bd 81ba 533d c938 5abd
000003b0: 00e2 7ebd 604b 803d 3596 533d 17ad b33d
000003c0: 7c5d acbd bc5b 5dbd ea30 06be 2a47 91bd
000003d0: 0c5c 8abd 0c79 24bd cdf9 423f d8bf ad3d
000003e0: 5781 a6bd f1ad 82bd 5f38 433d 5c4c 523e
000003f0: 4c7d 533d 5fa2 d5bd 36de 20bd c6df 0b3f
-0.078547545 0.055673074 0.38246948 0.24266288 -0.035130456 -0.047184773 0.052401718 -0.088429235
0.06814627 0.097443506 -0.045632955 -0.087341435 0.087914 -0.050769452 0.04566217 0.04538458
0.9089 -0.050826237 -0.070481464 0.049255 -0.12115588 -0.090747 0.052946556 0.06015566
0.089208305 -0.15509123 0.083043724 0.56436247 0.09450748 -0.11463438 0.064907275 -0.12351433
0.08786765 -0.07745146 -0.08827376 -0.06825869 -0.07478131 0.0487951 0.059882604 0.059109755
0.2400798 -0.06899977 -0.07872278 -0.060591936 0.14964242 0.0938887 -0.06052076 0.042320274
-0.075805224 -0.6171366 0.3609637 0.1594427 -0.062428463 0.05835384 -0.048702553 0.06378738
0.06280272 -0.046422295 -0.081569254 0.38222238 0.044014525 0.087221295 -0.048220146 -0.047011815
-0.059260786 -0.05967752 -0.055996183 -0.09136835 -0.0803507 0.07839111 0.051776197 -0.04977018
-0.087548226 0.09032897 -0.05482484 -0.105235316 -0.09294892 0.10074987 -0.042320386 -0.0706577
-0.06727306 -0.05486805 -0.04710921 0.1631772 0.09787627 -0.04674238 0.051757753 0.090515465
-0.062085517 -0.0503109 0.040028628 -0.28205892 -0.25386044 -0.048716914 0.06898084 -0.03381002
0.049472433 0.08923134 -0.06752101 -0.030720998 0.06328919 0.046541147 0.04923402 0.13905384
-0.071520306 -0.059270203 0.095897585 -0.04781957 -0.05775297 -0.075722635 0.07464294 -0.07448706
-0.143683 -0.06798816 0.06692962 -0.08225575 0.08089056 -0.055504717 -0.06323352 0.08147288
0.043379534 -0.0658471 0.100963205 0.04545549 -0.062699765 -0.091993175 -0.051769268 0.08421789
-0.058173373 0.09198664 0.08557308 0.085298456 0.14083242 -0.07251973 0.08612001 0.06879752
-0.08721863 0.09774082 0.18885495 -0.04181737 -0.2431746 -0.09324414 -0.47781476 0.08325148
-0.07730086 0.2089654 0.07652868 -0.05028215 0.09379108 -0.04572486 -0.0634597 0.05890536
0.059788242 -0.055300064 -0.038191736 -0.13122761 -0.06930047 0.049740613 0.06034652 -0.08466323
0.057684686 -0.04324169 0.06440036 -0.050408382 -0.04858874 0.075249314 -0.2698456 -0.08163754
-0.7078765 0.30918315 0.041186344 -0.051262915 -0.07066903 -0.054924536 0.14770101 -0.0645242
0.05529046 -0.05074349 0.06866853 -0.8137977 -0.051823135 0.06451522 -0.07971577 -0.72025347
-0.052791532 0.6530391 -0.09992692 0.042809755 -0.038387254 0.06302785 0.051549375 -0.14558338
-0.05268219 0.07220337 0.1261301 -0.10605124 0.07064866 0.05505329 -0.052967522 0.05925951
0.106830366 -0.081633866 -0.061848782 -0.252857 0.10482641 0.051722217 -0.09021505 -0.056560487
0.23172827 -0.04829276 -0.29874417 -0.058607943 0.04080022 0.05127166 -0.051667884 -0.044715144
0.31918085 0.061128978 0.057765394 -0.05179721 -0.0666995 0.053196687 -0.107116826 -0.09994529
0.06831858 0.088130705 0.04775808 0.044273827 0.047662277 0.065629035 0.04595458 0.07263389
-0.16591685 -0.07111196 0.051691536 -0.05327681 -0.06222725 0.06264377 0.05165692 0.08773249
-0.08416268 -0.054042563 -0.13104597 -0.070936516 -0.06755838 -0.0401545 0.76162416 0.08483857
-0.08130138 -0.06380833 0.04766118 0.20536941 0.051633164 -0.104313605 -0.039274417 0.54638326
