resources/models/1L-32.pth (torch, 106139 bytes, 3 tensors)

fc1.weight f4 [32, 768]
000000 dd 4f 8c bc bc 6a 61 ba bb d4 0c bd 20 27 55 bc
       -0.017127926 -0.00085989735 -0.034382563 -0.013009816
000010 70 d7 13 bc a4 36 55 bc 0c a4 06 bc 66 44 32 3c
       -0.009023532 -0.013013516 -0.008217823 0.010880565
000020 2c ce e4 3e 29 79 74 3d 60 a7 da 3e f7 5f ad 3d
       0.44688547 0.05968586 0.42705822 0.084655695
000030 c6 28 26 bd 16 72 8a be c1 fa 0a 3f fe 40 9d 3e
       -0.04056623 -0.27040166 0.5428887 0.30713648
000040 6c 13 ea 3e ff 75 f4 3e 23 73 8f be 9c d4 31 3f
       0.45717943 0.47746274 -0.2801753 0.6946504
000050 c3 e6 0e bf 54 ea db 3e fd 5f 25 be 2c b2 f6 3e
       -0.55820864 0.42952216 -0.16149898 0.4818281
000060 03 6d 5f 3e a5 36 3c 3e e5 57 df 3e 79 a1 35 bf
       0.21818928 0.1838022 0.43621746 -0.7094951
000070 75 1c 93 3e 95 2b 2a be fb 91 ec 3e 13 6a bc 3e
       0.28732648 -0.16618188 0.46205124 0.36799678
000080 65 62 03 bf 90 50 b8 3e 3c 88 a8 be 74 81 ef 3e
       -0.51322013 0.35998964 -0.3291644 0.46778452
000090 e1 be 1f bf 87 25 62 3f e0 81 0c bd e5 a4 a4 3e
       -0.62400633 0.8833851 -0.034303546 0.32157055
0000a0 ab 97 86 bf 1f 70 9b be 67 32 42 3f 6a 83 27 bf
       -1.0515035 -0.3035898 0.7585816 -0.65434897
0000b0 b7 aa 6f 3f 77 01 a7 be db 77 84 3f 34 43 e6 3e
       0.93619865 -0.32618305 1.0349077 0.44973147
0000c0 f5 6c d6 bf a5 d9 3b 3e e7 43 6d bf 79 4f 9f 3f
       -1.6752001 0.18344744 -0.92681736 1.2446128
0000d0 c5 68 4c bf 55 90 06 40 7b b0 ae bf 27 a6 26 3f
       -0.79847366 2.1025593 -1.3647608 0.6509728
0000e0 8f a8 98 3c 3e 7e ff bb d1 b9 b1 bc 64 d6 03 bd
       0.018635063 -0.0077970317 -0.02169505 -0.03218688
0000f0 a4 64 be 3c a1 7c 11 bd 70 7f 9d bb 83 9a 14 3c
       0.023241349 -0.035519246 -0.0048064515 0.009070042
000100 f6 46 1c 3e a7 c3 9a 3e 47 0c ad 3e 13 c0 9f 3f
       0.15261444 0.30227396 0.3379843 1.2480491
000110 f1 b1 d8 3e 1a 23 3c 3f 3e 84 f0 3e bd 86 d6 3f
       0.4232326 0.7349106 0.46975893 1.6759869
000120 79 48 7e 3f b4 d8 74 3f 6d eb 2b 3f 36 25 a5 3e
       0.99329334 0.9564316 0.67156106 0.32254952
000130 2b 71 19 3f 6a 4e b7 3e b5 61 7a 3f f9 d6 a7 3d
       0.59938306 0.35802013 0.9780534 0.081953
000140 7a 0e cf 3e 8b 33 03 3f f5 25 d2 3e f0 c8 98 3e
       0.40440732 0.51250523 0.41044584 0.29840803
000150 6e 45 ef 3e ed c1 c8 3e ed cc cd 3e 52 e6 82 3f
       0.46732658 0.39210454 0.40195408 1.0226538
000160 90 47 61 3f fe ff ae 3e aa 2c 5a 3f f9 3b 1f 3f
       0.8799982 0.34179682 0.852244 0.62200886
000170 21 bf 25 3f e3 a5 fb 3e 7d 69 48 3f 5e 58 23 bb
       0.64744765 0.4915 0.7828596 -0.0024924497
000180 0d d8 ed bc 15 7a 82 3f af 8b 5b 3f e8 2a 31 3f
       -0.029033685 1.0193506 0.85760015 0.69206095
000190 79 0d eb 3e 71 15 aa 3e d1 22 10 3f 9f 5b 4d 3f
       0.45908716 0.33219483 0.56303126 0.8021793
0001a0 6d 33 88 3f 7e 59 3f 3f ac d4 8c 3e 8a 50 17 3f
       1.0640694 0.7474593 0.27506006 0.5910727
0001b0 02 93 16 3f ac 85 27 3f f4 df 7c 3e 0c 2b cb 3e
       0.58818066 0.6543834 0.24694806 0.3968128
0001c0 41 22 d5 3b 35 af 0b 3f b0 db a6 3e 1f 56 78 3f
       0.0065043275 0.5456422 0.32589483 0.9700641
0001d0 ac 15 a6 3d ee 39 21 3f 57 68 8c 3d f9 31 d6 3f
       0.08109602 0.6297902 0.06855839 1.6734
0001e0 c3 ab a5 be d0 18 f9 3e 8c 88 55 3f 45 89 c4 3e
       -0.32357606 0.48651743 0.8341148 0.38385978
0001f0 2c 65 de 3e 4d f8 e1 3e c9 ff 24 3f 5e e4 02 bf
       0.43436563 0.4413475 0.644528 -0.5112971
000200 af 28 c0 3f 4d 30 17 bf ea 7e 9d 3f cf 09 8f 3e
       1.5012416 -0.59058076 1.2304356 0.2793717
000210 f2 30 a0 3f 87 0e 86 bd 3c ac 9d 3f b1 80 8e be
       1.2514937 -0.065457396 1.2318187 -0.2783256
000220 61 c8 10 bf 30 50 bd 3f 4a 43 1d be 01 f0 84 3f
       -0.56555754 1.4790096 -0.153577 1.0385743
000230 b8 a7 ee bd 62 ea 5c 3f 06 a5 2b be 6c 23 cc 3f
       -0.116530836 0.8629514 -0.1676217 1.594831
000240 a2 46 ab 3f 92 f7 94 be 88 9f b7 3f a7 86 de bc
       1.338093 -0.2909513 1.434556 -0.027163817
000250 46 f9 55 3f 41 b4 d5 bb ed d2 a8 3f cb 82 27 3e
       0.83583486 -0.006521732 1.318937 0.16358487
000260 16 9e 5d be 3f 48 a3 3f 3f 8d 30 3e 63 1f 8d 3f
       -0.21642336 1.2756423 0.17241381 1.1025203
000270 c2 4e 46 be e8 a3 84 3f d9 6d 91 3c 92 4e a8 3f
       -0.19365981 1.036252 0.017752575 1.3148978
000280 90 37 db 3f f4 18 82 bd 3d 09 89 3f 2a b0 79 3e
       1.7126331 -0.06352416 1.0705944 0.24383608
000290 a3 06 82 3f c3 bf ef 3b 7d b5 91 3f 06 59 14 3e
       1.0158275 0.007316561 1.1383511 0.14487085
0002a0 5d 40 b4 bd 5f 4f 26 3f 86 47 ab bd d5 a9 8a 3f
       -0.08801339 0.6496486 -0.083632514 1.0833079
0002b0 54 df fa 3e ef 64 95 3f 01 ad a9 3e 06 52 fc 3f
       0.4899851 1.1671427 0.33139804 1.9712532
0002c0 ef a3 d0 3f ec 5c 97 3d ae cb 80 3f ab e9 a2 bd
       1.6300029 0.0739077 1.0062158 -0.07954725
0002d0 00 1f 97 3f 0f 90 da 3c 7e 28 82 3f 78 92 0b bf
       1.1806335 0.02668002 1.0168607 -0.5452037
0002e0 11 d0 4b be d2 53 b0 3f 1d 90 97 be 41 23 8d 3f
       -0.1990359 1.377558 -0.29602137 1.1026384
0002f0 8b 92 6c 3c b8 d8 83 3f 02 8b 09 bd 79 b7 8e 3f
       0.014439235 1.0300512 -0.033579834 1.1149741
000300 27 4a 8a 3e 23 98 21 3f a0 bf 31 3f 15 d0 33 3f
       0.270097 0.6312277 0.6943302 0.70239383
000310 51 54 7f 3f 81 3e 65 3f 9c 12 9b 3f 36 74 2e 3f
       0.9973803 0.895485 1.2115054 0.68146074
000320 9c 07 4c 3f 14 44 66 3f 4b a7 3b 3f b7 29 80 3f
       0.7969911 0.8994763 0.73302144 1.001273
000330 54 ae 65 3f d0 9f 8c 3f e9 b4 98 3f f4 db 9a 3f
       0.8971913 1.0986271 1.1930209 1.2098374
000340 59 44 58 3f 81 32 7c 3f 3f c2 47 3f a8 da 7a 3f
       0.8447929 0.9851456 0.7803077 0.9798989
000350 8c b5 77 3f 5a 86 8a 3f a7 7c a3 3f 92 0d 80 3f
       0.96761394 1.0822251 1.2772416 1.0004141
000360 e2 e7 9c 3f 4a bf 43 3f 26 0b 8d 3f 9a d3 74 3f
       1.2258265 0.7646376 1.1019027 0.9563538
000370 64 ce 9a 3f f3 c6 52 3f 4c c0 96 3f 17 49 82 3f
       1.2094235 0.8233482 1.1777434 1.0178555
000380 ce 8d cb 3f fb b3 4d 3f 2e 3d 81 3f 0a 3f 8c 3f
       1.590265 0.80352753 1.0096796 1.0956738
000390 7b 30 95 3f d0 2f a0 3f 98 96 5a 3f 61 e2 5e 3f
       1.165542 1.2514591 0.8538604 0.87064177
0003a0 32 19 c7 3f d3 97 7d 3f 1e 6e 89 3f f5 80 88 3f
       1.5554564 0.9905979 1.073673 1.0664355
0003b0 46 97 a7 3f 60 fa 74 3f 0b 0f 71 3f 6e b6 48 3f
       1.309304 0.9569454 0.9416358 0.78403366
0003c0 c9 91 d7 3f 80 19 36 3f ce 37 74 3f a3 08 52 3f
       1.6841365 0.7113266 0.9539765 0.8204443
0003d0 bc d5 92 3f d9 29 95 3f d3 51 85 3f 15 f6 86 3f
       1.1471477 1.1653396 1.0415596 1.0543848
0003e0 c1 4f d3 3f 82 91 4b 3f e8 9c 25 3f 36 ce 42 3f
       1.6508714 0.795189 0.64692545 0.760959
0003f0 6d 7c 74 3f c0 93 65 3f cc 6d 88 3f 88 79 85 3f
       0.9550236 0.89678574 1.0658507 1.0427713

fc1.bias f4 [32]
000000 58 8c 46 bf 2a 3d 4d bf a0 76 b1 bf 2b 52 85 bf
       -0.775579 -0.80171454 -1.3864326 -1.0415701
000010 64 2b 3b c0 ac 9b 92 bf 31 09 eb bf 00 96 01 c0
       -2.9245234 -1.1453757 -1.836218 -2.0247803
000020 43 ab 4f 3f 85 1e bf 3f 0e f7 cd bf 5c ed 50 40
       0.811207 1.4931189 -1.609102 3.2644873
000030 b6 7d 16 40 df 8a 6b bf b8 62 c1 3f bd 0c 37 bf
       2.3514228 -0.92008775 1.5108252 -0.7150381
000040 01 fe 1d c0 6e 95 26 c0 7e 18 25 c0 08 cd b3 bf
       -2.4686282 -2.6028705 -2.57962 -1.4046946
000050 64 9e 1c c0 af d1 f8 bf 92 9c ab bf 27 62 05 40
       -2.4471674 -1.943899 -1.3407156 2.0841157
000060 3e cb 87 bf 2e 9c d3 bf 35 f5 20 bf 6c 39 23 c0
       -1.06089 -1.6532037 -0.62874156 -2.5503798
000070 55 e9 77 bf d4 f7 da bf f4 ee 21 c0 e5 7c d1 bf
       -0.9684041 -1.7106881 -2.5302095 -1.636624

fc2.weight f4 [1, 32]
000000 75 a5 1f 3e 11 f4 52 3e fd 7d 0c 3e ba 7c 14 3e
       0.1559046 0.20600916 0.13719936 0.14500704
000010 4b 58 ef 3d 3f 18 01 3e c1 1c e9 bd 9a df d4 bd
       0.116867624 0.12606905 -0.113824375 -0.10394211
000020 e6 5a 10 bf e7 4b 25 be 15 41 03 be c4 98 25 3e
       -0.563887 -0.16142236 -0.12817796 0.16171557
000030 a5 ef 75 3e a5 3b be be 29 fe 0e be e2 95 27 3f
       0.24017198 -0.3715488 -0.13964142 0.6546308
000040 4e 2f 1f be 56 15 d4 bd 57 2a d6 bd 5a 59 ff 3d
       -0.15545389 -0.10355632 -0.104572944 0.12468214
000050 96 1a d0 3d a5 43 b8 bd 3d 28 97 3d dc 6e ee 3d
       0.10161321 -0.08997277 0.07380722 0.116422385
000060 97 0c 28 be 78 9b 24 3e ac e9 30 bf 75 ea 18 3e
       -0.16411053 0.16074932 -0.69106555 0.14933188
000070 3a 7d ca 3d 7f 3d cd bd 1d 30 e1 3d 70 bc bf 3d
       0.09887166 -0.10021495 0.10995505 0.093621135
