resources/models/1L-32.pth (torch, 106385 bytes, 3 tensors)

fc1.weight f4 [32, 768]
000000 dd 4f 8c bc bc 6a 61 ba bb d4 0c bd 20 27 55 bc
       -0.017127926 -0.00085989735 -0.034382563 -0.013009816
000010 70 d7 13 bc a4 36 55 bc 0c a4 06 bc 66 44 32 3c
       -0.009023532 -0.013013516 -0.008217823 0.010880565
000020 ee a1 d7 3e b7 5c 45 3e 5d 23 f2 3e 11 cd bd bd
       0.4211573 0.19273649 0.47292605 -0.09267629
000030 ff 13 c1 3d ff 4d 27 be 3c 03 0c 3f 98 b4 8a 3e
       0.09427642 -0.16338347 0.54692435 0.27090907
000040 a8 13 8d 3e 9c ad d8 3e 45 49 54 be 52 67 34 3f
       0.2755406 0.42319953 -0.20731075 0.70470154
000050 5a 3f a4 be 24 7d f1 3e 6a d3 6f bc 3a ae e8 3e
       -0.32079583 0.47165787 -0.014637807 0.45445424
000060 0f be 9a 3c d1 13 8c 3d 8e e8 ea 3e ca 30 08 bf
       0.018889455 0.06839717 0.4588055 -0.53199446
000070 c9 d1 db 3e 18 d1 06 bc 08 f5 10 3f 6d a6 a4 3e
       0.4293349 -0.008228563 0.5662389 0.32158223
000080 99 3a 05 bf a0 81 95 3d 4c bf b2 be 21 89 c8 3e
       -0.5204254 0.07300115 -0.34911573 0.3916712
000090 00 53 93 be a9 aa 42 3f 08 b0 a3 3d 29 8b b6 3e
       -0.2877426 0.76041657 0.0799256 0.35653046
0000a0 d3 12 8c bf 2d 8c 73 bf 94 d6 3a 3f 8b 8d 19 bf
       -1.0943245 -0.95135766 0.7298367 -0.599816
0000b0 e1 89 82 3f 7b 35 e2 bd 3b cc 80 3f a2 3f 76 3e
       1.0198327 -0.11045357 1.0062326 0.24047711
0000c0 ae 2e 02 c0 37 70 f5 3e aa 87 5d bf fa 03 93 3f
       -2.034099 0.47937176 -0.8653513 1.1485589
0000d0 09 74 09 bf ab b9 f1 3f 9d 87 1c bf e2 7a c8 3e
       -0.5369268 1.8884786 -0.6114443 0.39156252
0000e0 8f a8 98 3c 3e 7e ff bb d1 b9 b1 bc 64 d6 03 bd
       0.018635063 -0.0077970317 -0.02169505 -0.03218688
0000f0 a4 64 be 3c a1 7c 11 bd 70 7f 9d bb 83 9a 14 3c
       0.023241349 -0.035519246 -0.0048064515 0.009070042
000100 87 d0 b5 3e 66 ba 1c 3f ff 48 6b 3e cd 13 6c 3f
       0.35510656 0.6122192 0.22977065 0.92217714
000110 a6 cb cc 3e ca ad 07 3f 5c fc 64 3d 45 6b 90 3f
       0.3999912 0.52999556 0.05590473 1.1282736
000120 b4 99 10 3f d3 d4 47 3f 62 5e 3e 3f bc 20 54 3e
       0.5648453 0.7805912 0.74362767 0.20715612
000130 34 de 3d 3f 36 a8 cf 3e a2 79 6a 3f 6e e6 ad 3d
       0.7416718 0.40558022 0.91591847 0.084912166
000140 8f 5d 0d 3f cc c7 1e 3f 6a 9c 0d 3f f3 a4 15 3f
       0.55220884 0.62023616 0.55316794 0.5845482
000150 4f 4e f8 3e c9 5e a9 3e 97 29 02 3f 4b 91 2a 3f
       0.48497245 0.33080128 0.5084471 0.6662795
000160 ec 95 d8 3e 7b 34 af 3e 21 18 11 3f 42 75 0d 3f
       0.4230188 0.34219727 0.5667744 0.55257046
000170 26 ad 29 3f 43 c2 56 3e 75 04 25 3f 0a 3f 13 3d
       0.6627983 0.20972542 0.64459926 0.03594879
000180 4e 71 d3 bd 60 dc fd 3e 53 59 d5 3e ff b4 b6 3e
       -0.103243455 0.49582195 0.4166971 0.35684964
000190 87 09 3f 3e 2c b8 95 3e 15 4f ce 3e 9c 92 3f 3f
       0.18655978 0.29242074 0.4029471 0.74833083
0001a0 2b 2d 04 3f 18 38 0d 3f 9b 2c 2e bb 81 92 ba 3e
       0.5163142 0.5516372 -0.002657688 0.364399
0001b0 79 57 bc 3e 52 5d 31 3f db 54 a8 3e 90 9c fb 3e
       0.36785486 0.6928302 0.3287724 0.49142885
0001c0 ab f4 89 be fc cd 8f 3e 3e 1f 3d 3e 6b 02 0c 3f
       -0.2694448 0.2808684 0.18468949 0.5469119
0001d0 71 1e 0c 3e ee 4f dd 3e 54 99 4c 3d 0e e4 b1 3f
       0.13683487 0.43225044 0.049950913 1.3897722
0001e0 a0 61 c3 be ea a6 a6 bd 47 f7 a7 3e ab 7b b3 3e
       -0.3816042 -0.08137305 0.32805845 0.3505529
0001f0 f5 8d ef 3e f5 9f a9 3e c1 23 4a 3f 29 29 a9 be
       0.46787992 0.3312985 0.78960806 -0.33039215
000200 64 6c b5 3f 2d 68 f9 be e4 8a 77 3f 9b 03 83 3d
       1.4173703 -0.48712292 0.96696305 0.06397172
000210 d1 bf 90 3f ed da 72 be d9 f9 86 3f 95 20 cf be
       1.1308538 -0.23716326 1.0544997 -0.40454546
000220 f1 cc fc be 80 7e 9d 3f e2 4b 9e bd 16 31 8b 3f
       -0.49375108 1.230423 -0.07729317 1.0874355
000230 e4 2e b1 be 3b 90 45 3f 77 ea 0f be 3c 17 91 3f
       -0.34606087 0.77173203 -0.14054285 1.1335216
000240 26 b2 4e 3f 05 7e 39 be c3 a3 92 3f 19 cb af bd
       0.8074058 -0.18114479 1.1456226 -0.0858366
000250 5e 06 37 3f b4 5c f6 bd da 99 86 3f cd 0d bf 3d
       0.7149409 -0.120294005 1.0515702 0.09328804
000260 fe de fb be 87 c3 74 3f dd 50 e5 bc 6f fe 2b 3f
       -0.49193567 0.9561085 -0.02799266 0.6718511
000270 60 18 6e be 6f ce 33 3f df 4c 2a bc 59 a8 93 3f
       -0.23251486 0.7023687 -0.010394304 1.1535751
000280 49 27 93 3f 10 8d 90 ba 44 6b 15 3f d7 e9 d9 3b
       1.1496364 -0.0011028368 0.583668 0.0066501903
000290 60 47 46 3f 41 ca 11 3e c6 f5 6e 3f 04 6c 28 be
       0.7745266 0.1423731 0.9334377 -0.16447455
0002a0 68 02 09 3e 63 56 c2 3e 55 d7 1e be 56 ea 32 3f
       0.13379824 0.37956533 -0.1551183 0.6988882
0002b0 cd 8d c6 3d 87 5c 6c 3f 63 e9 29 3d 0a 32 ac 3f
       0.09695015 0.92328686 0.04148234 1.3452771
0002c0 ec 46 97 3f 5b 21 bf be 7d 3d 2c 3f 15 18 86 bd
       1.1818519 -0.37330136 0.67281324 -0.06547562
0002d0 05 37 89 3f 46 a8 c2 bb 88 1c 63 3f 36 da f3 be
       1.0719916 -0.00594047 0.8871541 -0.4762742
0002e0 77 73 44 be 71 82 3b 3f 27 b5 db be ce fd 64 3f
       -0.19184671 0.7324591 -0.42911646 0.89449775
0002f0 cc 3e 9f 3b 37 eb 43 3f 2d 0c 75 bd 93 2e 7e 3f
       0.004859781 0.76530784 -0.059826065 0.99289817
000300 49 09 62 3e 5c ca ea 3e 53 b9 ed 3e dc 6c 24 3f
       0.22073855 0.45857513 0.46430454 0.64228606
000310 ec 54 41 3f 38 60 46 3f ac 4d 7e 3f 1e 3c 4a 3f
       0.75520205 0.7749057 0.9933727 0.7899798
000320 79 61 19 3f 02 4b 12 3f 61 a9 b6 3e 63 83 36 3f
       0.59914356 0.571457 0.356761 0.7129423
000330 9c e1 44 3f 90 04 83 3f 01 57 84 3f e0 8b 57 3f
       0.7690675 1.0235767 1.0339051 0.8419781
000340 ba bc 28 3f bb fd 37 3f 6c ba e9 3e 6e e2 39 3f
       0.65912974 0.71871537 0.4565004 0.7261113
000350 29 a4 6d 3f 5b b8 52 3f 66 57 6f 3f 0d 8a 70 3f
       0.92828614 0.82312554 0.93492734 0.9396065
000360 53 f0 32 3f 55 ff d1 3e 5e 56 39 3f 72 71 7e 3f
       0.69897956 0.41015115 0.7239741 0.99391854
000370 25 2b 5d 3f 83 27 5c 3f b4 4d 63 3f e8 5f 59 3f
       0.8639396 0.8599779 0.8879044 0.84911966
000380 81 c0 a0 3f ab ab fc 3e bf e9 51 3f 17 89 47 3f
       1.2558748 0.49349722 0.81997293 0.7794356
000390 b2 90 67 3f d3 0a 6a 3f 28 ed 40 3f 4d 06 61 3f
       0.9045516 0.91422766 0.7536187 0.8790024
0003a0 94 49 9b 3f 34 68 27 3f d8 68 35 3f bc d0 0b 3f
       1.2131829 0.65393376 0.70863104 0.5461538
0003b0 da 68 5c 3f b2 f3 3e 3f 87 6b 2f 3f cb 6e 0c 3f
       0.8609749 0.745906 0.6852345 0.54856557
0003c0 0f 5f 8e 3f 61 65 e0 3e 85 85 17 3f e8 3d 36 3f
       1.112276 0.43827346 0.5918811 0.7118821
0003d0 1f 82 1f 3f 9c aa 82 3f 83 90 f6 3e c3 18 08 3f
       0.62307924 1.0208316 0.4815713 0.53162783
0003e0 6f 23 ba 3f 2d e9 84 3e 04 03 fa 3e 86 9a e3 3e
       1.4542063 0.2595915 0.48830426 0.4445383
0003f0 ad a2 1e 3f fe 97 44 3f 7f 10 22 3f 4a 4a 10 3f
       0.61966974 0.7679442 0.6330642 0.56363356

fc1.bias f4 [32]
000000 59 72 c7 be 1d 2b 20 bf 79 f9 8c bf c8 52 2b bf
       -0.38954428 -0.62565786 -1.1013633 -0.6692319
000010 ae 5b 0c c0 1f 5d 84 bf 1b 34 c5 bf 24 02 d7 bf
       -2.1930957 -1.0340918 -1.5406526 -1.6797528
000020 93 71 39 3f 15 5a 93 3f 41 d3 97 bf 69 44 20 40
       0.72438926 1.1511866 -1.1861345 2.5041754
000030 7c b3 de 3f d3 76 2b bf f3 dd 9d 3f 8c a0 0e bf
       1.7398524 -0.66978186 1.2333359 -0.55713725
000040 60 84 fb bf df f4 f9 bf 22 64 f8 bf 30 f6 81 bf
       -1.9649773 -1.9527854 -1.9405558 -1.0153255
000050 ab c4 f0 bf f5 98 a9 bf 72 e5 46 bf 56 0c e6 3f
       -1.8810018 -1.3249804 -0.77693856 1.7972515
000060 cc 10 58 bf d5 db a9 bf 35 38 ea be 01 7e fa bf
       -0.8440063 -1.3270212 -0.45746008 -1.9569703
000070 4b a9 33 bf 72 73 b4 bf fc 95 ee bf 59 36 b6 bf
       -0.70180196 -1.4097731 -1.8639522 -1.4235336

fc2.weight f4 [1, 32]
000000 3e 91 2c 3e 01 eb 75 3e e4 84 21 3e 7e 6b 2c 3e
       0.1685228 0.24015428 0.1577335 0.1683788
000010 2f 0a 1d 3e 61 a3 09 3e 47 de 00 be 08 bb 12 be
       0.15335916 0.1344123 -0.12584792 -0.1432916
000020 a6 cb 2c bf 71 2a 59 be fc 11 06 be fc 0f 37 3e
       -0.6749824 -0.21207596 -0.13092798 0.17877191
000030 9d 0d 96 3e 09 eb f3 be e3 ea 43 be 41 5b 4b 3f
       0.2930726 -0.47640255 -0.19132571 0.7943612
000040 92 3a 31 be bb 34 e2 bd 5a c6 01 be 1a 1a 0c 3e
       -0.17307499 -0.11045214 -0.12673321 0.13681832
000050 d0 14 be 3d 49 fc fc bd e2 d4 c4 3d 2b 01 28 3e
       0.092813134 -0.12352807 0.09610917 0.16406696
000060 4b e5 43 be 7d 29 50 3e 9b fd 48 bf dd 0c 15 3e
       -0.19130437 0.20328327 -0.7851197 0.14555688
000070 a7 ee d2 3d 8c 04 f5 bd 87 87 13 3e 12 f3 e7 3d
       0.102994256 -0.11963758 0.14407168 0.11325659
