resources/models/1L-32.pth (torch, 106139 bytes, 3 tensors)

fc1.weight f4 [32, 768]
0	0xbc8c4fdd	-0.017127926
1	0xba616abc	-0.00085989735
2	0xbd0cd4bb	-0.034382563
3	0xbc552720	-0.013009816
4	0xbc13d770	-0.009023532
5	0xbc5536a4	-0.013013516
6	0xbc06a40c	-0.008217823
7	0x3c324466	0.010880565
8	0x3f07cfb3	0.530513
9	0xbcb18a30	-0.021672338
10	0x3ebac026	0.36474723
11	0xbe9688ad	-0.2940115
12	0xbd04ca88	-0.03241971
13	0xbf026639	-0.5093723
14	0x3eea0683	0.45708093
15	0x3e47f4d4	0.19526988
16	0x3efd29cd	0.49445954
17	0x3f037c3b	0.51361436
18	0xbed801c2	-0.4218884
19	0x3f3c8f6f	0.7365636
20	0xbf5fc740	-0.87413406
21	0x3eb0ab00	0.34505463
22	0xbe9a227c	-0.30104434
23	0x3f144804	0.5792239
24	0x3e55d46e	0.20881817
25	0x3e760585	0.24025543
26	0x3eaf10c6	0.34192485
27	0xbf5a1823	-0.8519308
28	0x3ea28019	0.31738356
29	0xbd9bf47b	-0.0761499
30	0x3ec7db30	0.39034414
31	0x3ebf2c35	0.37338415
32	0xbe834c65	-0.25644222
33	0x3ecd3e2f	0.40086505
34	0xbe9805b6	-0.29691857
35	0x3ec6a464	0.38797295
36	0xbf3a64a5	-0.7280982
37	0x3f456a0b	0.77114934
38	0x3c0c3444	0.008557383
39	0x3ef13c60	0.47116375
40	0xbf81ebf4	-1.0150132
41	0xbd28ff66	-0.041259192
42	0x3f69fb37	0.9139895
43	0xbf57024d	-0.83987886
44	0x3f29c591	0.6631709
45	0xbea738d4	-0.32660544
46	0x3f91513f	1.1352919
47	0x3f1a9089	0.60376793
48	0xbfea99cd	-1.8328186
49	0x3f0af0fe	0.54273975
50	0xbf90f010	-1.1323261
51	0x3f4f7c56	0.81049097
52	0xbfa1c480	-1.2638092
53	0x3fcfdabf	1.6238631
54	0xbf920709	-1.1408397
55	0x3f7b931f	0.98271364
56	0x3c98a88f	0.018635063
57	0xbbff7e3e	-0.0077970317
58	0xbcb1b9d1	-0.02169505
59	0xbd03d664	-0.03218688
60	0x3cbe64a4	0.023241349
61	0xbd117ca1	-0.035519246
62	0xbb9d7f70	-0.0048064515
63	0x3c149a83	0.009070042
64	0xbec97382	-0.39345938
65	0x3e9f812e	0.31153244
66	0x3f14c52b	0.58113354
67	0x3f7f6eb5	0.997783
68	0x3f38ea75	0.72232753
69	0x3f49c76d	0.78819925
70	0x3d865d7d	0.065608
71	0x3fe36ea2	1.7768137
72	0x3f3b32be	0.731243
73	0x3f373cd7	0.7157721
74	0x3f4bb2bd	0.7956961
75	0x3e0e1f27	0.13879071
76	0x3f5e692c	0.8687923
77	0x3e937003	0.28796396
78	0x3f432347	0.76225704
79	0x3e279984	0.16367155
80	0x3c4e06a0	0.012574822
81	0x3f5c8933	0.8614685
82	0x3f017c00	0.50579834
83	0x3f338a67	0.7013306
84	0x3f0c0342	0.5469247
85	0x3e72eee7	0.23723947
86	0x3e90546a	0.28189403
87	0x3f55eab8	0.8356128
88	0x3f80c243	1.0059284
89	0x3f19fc42	0.6015054
90	0x3f4ca058	0.79932165
91	0x3f383516	0.71956
92	0x3f266aa2	0.6500646
93	0x3e969f36	0.29418343
94	0x3f3971e1	0.7243939
95	0xbe38da5e	-0.1805205
96	0x3dc3d422	0.095619455
97	0x3f542c26	0.82879865
98	0x3f512950	0.8170366
99	0x3f1fee56	0.62473047
100	0x3f1500cf	0.5820436
101	0x3ea8793f	0.32905003
102	0x3efd0542	0.49418074
103	0x3f3d9a35	0.74063426
104	0x3fa576b2	1.2926848
105	0x3f7ab83b	0.97937363
106	0x3f2a3c13	0.66497916
107	0x3ef56add	0.47933093
108	0x3f493b03	0.7860567
109	0x3f2c82a6	0.67386854
110	0x3f2128fd	0.6295317
111	0x3f332724	0.699816
112	0xbd8f52fe	-0.069982514
113	0x3e9a35a7	0.30119058
114	0x3e447c5e	0.19188067
115	0x3f7d908c	0.99048686
116	0x3dcd43a9	0.10022671
117	0x3f0a802b	0.5410182
118	0x3e875db6	0.26438683
119	0x3fe6d86e	1.8034799
120	0x3e123ac4	0.1428023
121	0x3e37c797	0.17947231
122	0x3f1b3089	0.60620934
123	0x3e963d18	0.29343486
124	0x3f54d1ad	0.8313244
125	0x3eb4a58c	0.35282552
126	0x3f7bf657	0.9842276
127	0xbf1065d5	-0.56405383
128	0x3ff95a0e	1.9480608
129	0xbf1b56ff	-0.6067962
130	0x3fb886a1	1.4416085
131	0x3e18db06	0.14927301
132	0x3fb2444c	1.3927093
133	0xbda2d774	-0.07951251
134	0x3fae6d18	1.3627043
135	0xbdbf0f93	-0.093291424
136	0xbf64975c	-0.89293456
137	0x3fd997d0	1.6999454
138	0xbe6c6142	-0.23083976
139	0x3fd09396	1.629504
140	0xbe81d4c5	-0.25357643
141	0x3f7cf879	0.9881664
142	0xbe71d943	-0.23618035
143	0x3fe041d9	1.7520095
144	0x3fe8c35b	1.8184618
145	0xbe5e420e	-0.21704885
146	0x3fc0b991	1.505663
147	0x3df643b8	0.12024635
148	0x3f866f42	1.0502703
149	0xbe5bd58c	-0.2146818
150	0x3fd20364	1.6407285
151	0x3eaaf422	0.33389384
152	0xbbe057f6	-0.0068464233
153	0x3fbebcc3	1.4901356
154	0x3e18a86c	0.14907998
155	0x3f95c35e	1.1700246
156	0xbe965546	-0.29361933
157	0x3f9bee24	1.218205
158	0x3debeb62	0.11519505
159	0x3fd5de09	1.6708385
160	0x3fd6b3b5	1.6773592
161	0x3df6c7ef	0.12049853
162	0x3fa81a58	1.313304
163	0x3e80df91	0.25170568
164	0x3fa22416	1.2667263
165	0x3dfb9b83	0.12285521
166	0x3fadc457	1.3575543
167	0x3d147911	0.03624827
168	0x3e060161	0.13086464
169	0x3f918118	1.1367521
170	0x3da94143	0.08264401
171	0x3f98a60c	1.1925673
172	0x3efabab7	0.48970577
173	0x3fa91ec3	1.3212513
174	0x3ecaf54c	0.39640272
175	0x3fdd443b	1.7286447
176	0x3feb3fec	1.8378882
177	0xbec66e08	-0.38755822
178	0x3fae01fc	1.3594356
179	0x3ed74a1d	0.4204873
180	0x3f96a7ef	1.1769999
181	0x3e8f270c	0.27959478
182	0x3f9c920a	1.2232068
183	0xbeef1e4d	-0.46702805
184	0x3bfb53ce	0.0076699024
185	0x3f8ce943	1.1008686
186	0xbe315d80	-0.17320824
187	0x3fb8d8e2	1.4441187
188	0x3e427710	0.18990731
189	0x3fb7b730	1.4352779
190	0x3e48c0bd	0.19604774
191	0x3fb8a13c	1.4424205
192	0x3ec2af5e	0.3802442
193	0x3f24c1a8	0.64357996
194	0x3f36366d	0.711768
195	0x3f3a5dcf	0.7279939
196	0x3f8c0a4a	1.094064
197	0x3f8999e3	1.0750087
198	0x3f9ec627	1.2404221
199	0x3f5bb546	0.85823476
200	0x3f2d47a7	0.6768746
201	0x3f79c0f7	0.97560066
202	0x3f6b2a29	0.91861206
203	0x3f8a759a	1.0817139
204	0x3f94bde9	1.1620456
205	0x3f98eade	1.1946676
206	0x3f963a92	1.1736624
207	0x3f87ac20	1.0599403
208	0x3f5b854d	0.85750276
209	0x3f90d695	1.1315485
210	0x3f81991d	1.0124851
211	0x3f83aba8	1.028676
212	0x3f844782	1.0334322
213	0x3f82117d	1.0161587
214	0x3fa175cc	1.2614074
215	0x3f977485	1.1832434
216	0x3fb74b94	1.431994
217	0x3f558749	0.83409554
218	0x3f8e827a	1.1133568
219	0x3f8e5918	1.1120939
220	0x3f9dd953	1.2331947
221	0x3f8a91fd	1.0825802
222	0x3f8f208c	1.1181808
223	0x3f924eb9	1.1430274
224	0x3fe8be07	1.8182992
225	0x3f88679a	1.0656617
226	0x3f98a623	1.1925701
227	0x3f977c40	1.1834793
228	0x3f8d737b	1.1050867
229	0x3fb1a36f	1.3878001
230	0x3f9c3f34	1.2206788
231	0x3f787490	0.9705286
232	0x3fec4a22	1.8460124
233	0x3f6951e4	0.9114058
234	0x3fba7ec0	1.4569931
235	0x3f8faf0f	1.1225299
236	0x3f8f18b7	1.1179417
237	0x3f7cc795	0.9874204
238	0x3fa74377	1.3067464
239	0x3f5ae876	0.8551096
240	0x3ff446a9	1.9084064
241	0x3f49a87d	0.7877272
242	0x3f9b1c26	1.2117965
243	0x3f96da54	1.1785378
244	0x3f904617	1.127139
245	0x3fa0dea2	1.2567942
246	0x3f98f144	1.1948628
247	0x3fa43c82	1.2830966
248	0x3ffc2634	1.9699159
249	0x3f63be62	0.88962376
250	0x3f89317d	1.0718228
251	0x3f822d56	1.0170085
252	0x3f943040	1.1577225
253	0x3f73bdc5	0.9521144
254	0x3f777063	0.96655864
255	0x3f94fd83	1.1639866

fc1.bias f4 [32]
0	0xbf837c47	-1.0272301
1	0xbf5b6a6c	-0.8570926
2	0xbfd65b8a	-1.6746686
3	0xbfa57f6f	-1.2929515
4	0xc052bd71	-3.2928126
5	0xbfa1f6d4	-1.2653451
6	0xc007fe34	-2.1248903
7	0xc00ec989	-2.2310507
8	0x3f576ef1	0.8415366
9	0x3fdeb1cd	1.739801
10	0xbff1ea1b	-1.8899568
11	0x406da413	3.7131393
12	0x402fd0dc	2.7471228
13	0xbf9180b1	-1.1367399
14	0x3fda536b	1.7056707
15	0xbf565ce4	-0.8373549
16	0xc0393070	-2.8935814
17	0xc0416993	-3.0220687
18	0xc03c89c4	-2.9459085
19	0xbfd0ea23	-1.6321453
20	0xc0309eff	-2.7597044
21	0xc01f8cae	-2.4929614
22	0xbfe2b054	-1.7710061
23	0x400da4d5	2.2131855
24	0xbfa095d6	-1.2545726
25	0xbfe88975	-1.8166949
26	0xbf3de6d5	-0.74180347
27	0xc020dbed	-2.5134232
28	0xbf97372e	-1.1813715
29	0xbfef985b	-1.871837
30	0xc03e7d66	-2.9764037
31	0xbfe696a9	-1.8014728

fc2.weight f4 [1, 32]
0	0x3e1252e4	0.14289433
1	0x3e57a3e0	0.21058607
2	0x3e0539d9	0.13010348
3	0x3e1642ea	0.14673963
4	0x3dd97bec	0.10619339
5	0x3e0b1642	0.1358271
6	0xbdae0f7b	-0.084990464
7	0xbdc2e1dc	-0.095157355
8	0xbefa7414	-0.48916686
9	0xbe142cef	-0.14470266
10	0xbdf9fc48	-0.12206322
11	0x3e1c2535	0.15248568
12	0x3e4847b6	0.19558606
13	0xbead8ccf	-0.3389649
14	0xbe0df446	-0.13862714
15	0x3f18f8dd	0.59754735
16	0xbe1adbb2	-0.1512287
17	0xbdd01856	-0.10160892
18	0xbdbfd76b	-0.093672596
19	0x3dc588bb	0.0964522
20	0x3da0fe3b	0.078609906
21	0xbdbf3d30	-0.093378425
22	0x3d912be4	0.070884496
23	0x3dd70b9e	0.10500263
24	0xbe0ed86c	-0.13949746
25	0x3e23eee7	0.16009103
26	0xbf28cfbf	-0.65941995
27	0x3e410ad5	0.18851788
28	0x3dc3a14d	0.0955225
29	0xbdadf344	-0.08493665
30	0x3deb8eaf	0.11501824
31	0x3dbc0e8d	0.09182463
