resources/models/256.pth (torch, 792821 bytes, 4 tensors)

fc1.weight f4 [256, 768]
00000000: 8660 523c 83ce 0f3c f692 57bc d4ce 94bc
00000010: c845 573c ed75 003c ec93 bcba 15ac 8b3c
00000020: e7ce a0bf 0f35 36c0 18bf b6bf b6aa 263f
00000030: c020 aabf 7026 9b3c dbe2 5e3f f057 7bbf
00000040: e146 0abf 60fd bb3e 24bf 183e 27f9 10c0
00000050: ea90 c1be c162 8b3f 0632 8ebf a97d 35c0
00000060: acdf dabf fa58 de3e ab8b 0cbf d8ae 11c0
00000070: 796a d7bf 4ef8 36c0 a706 d63f 1f0b b1bf
00000080: 148b cbbf 1354 62bd b417 8ebf c19b 21c0
00000090: 1a87 aa3f fb44 3b3f 95c1 0dc0 77b4 19bd
000000a0: ad54 f5bf c3c4 a5bf 75d0 61be 354d 49bf
000000b0: bf6e 6dbf e8f1 cdbf a27f 83bf 7976 003e
000000c0: e20e 323e ca2a e53f ce99 c3be 0662 923f
000000d0: ac2e 0c40 7244 d8bf c1ad 5dbf fa3d 87bf
000000e0: 81f7 4fbc b57f a33b e4b1 36bc e1b1 e63a
000000f0: 7a66 3e3c cf7d f33b 0a52 9c3b 8aaf 7fba
00000100: ed1b f1bc ed02 72bf 727c d0be cf6d 35bf
00000110: afa0 87be b843 26be 2e97 263f a3f2 1b3d
00000120: 4f0b 433d 3c0a 8bbf a1e9 72bf 3891 03bf
00000130: 3398 813f e974 56bf f740 1c3f 84a2 83be
00000140: d395 1a3f abf2 02bf 20e4 8abd 8418 e43e
00000150: 7433 873e 2339 673f 3840 2f3f 6477 e5bb
00000160: a4df 36bf c9fa ca3c 75cc 9abf 7b4f 4dbf
00000170: 4d95 bc3e 45b5 f73d af9e 1f3f f40f 8cbe
00000180: b6a7 413e fb22 87be 382a dcbe 9718 b7be
00000190: 1fc8 06bf b0e2 023f fd9f 3040 faba 6cbf
000001a0: 2f97 c73f 5b8b 6fbe 75a6 153e 41a9 093f
000001b0: 0e88 0d40 013f 9cbe 19c1 e23d c371 39bf
000001c0: a822 6b3e 6f2f ebbd 3be5 cf3f df7c 41bf
000001d0: aa48 fabe bac8 a63e 61df 973c 79d1 3b3f
000001e0: 6b7d b23f 9025 a23f b777 0f3e aa61 53be
000001f0: ef86 efbc e9bc f9be 5747 e1be 8806 6e3e
00000200: 6dce 15bf 3dbe 65be 9664 25be 43b2 07bf
00000210: b939 113d 91ca c53d 6326 c9be e9d6 9d3f
00000220: 3352 f2bd 8f76 71bf 189e 1540 71fe a1bf
00000230: 5bca c6be 0f91 3540 6382 6440 f304 fd3e
00000240: 339c 29bf dc22 203f 254f f03f 7bb4 893f
00000250: 23b6 8d3f ce6a 6840 0513 a73f 3dd7 493b
00000260: 5b8a a23f 5217 2c40 25fa f3be 88a5 a0bc
00000270: c503 e33f d055 893e ca15 2f3f 988e a9bf
00000280: 45db 83bf 1f0d 7540 6684 87be 3bd2 8240
00000290: 98fb 4cbf 75fd 66be 3a8e 29be 8055 16bf
000002a0: ce2f 8d3f 70cc 13bf cfa7 ef40 2ef7 a1be
000002b0: 68f4 5840 9548 f6be ed93 2740 f00a e4be
000002c0: c76f 673f 145d 1bbd 2238 fa3f a8ae de3f
000002d0: 3f0b 183f 209b 3940 3fb0 0a3f e472 a03e
000002e0: efea 7140 76ff d63d d8d9 6b3f 5a28 323d
000002f0: f6f8 223f 8de2 563f 7add f63f 3cb2 9fbf
00000300: b99d ccbe fe32 583f 3fa1 c7bf f4a4 a73e
00000310: 5b11 59bf 4927 51bf f7a4 d1bf 2462 00c0
00000320: d1f4 c03f cc7a 8cbe 12e7 ae3f 232f 973f
00000330: dbd8 85bf 6730 113f 4e21 25bf 8ce5 0e3f
00000340: 4b17 983e 7d30 d43f 1f40 7740 5543 64bf
00000350: 8579 26bf b35a 7e40 4054 2340 8d79 4e3f
00000360: bd50 2e40 607c 7e3f 910f 753f fb9e 5abf
00000370: 8717 583f 2223 7c3f 248b 83bf 3d70 45be
00000380: 7b73 923e 1b0f 403e f82f 293e 03f8 aebd
00000390: e75b 27bf 24e9 da3e ffe0 173f 0bf6 4940
000003a0: 8562 bbbf dfdf c73f e062 323f 394a 0c40
000003b0: 5941 f63f 147e 9c40 9b50 f03d dd3a 5d3f
000003c0: 811b 00be f9b6 28be 0231 a03f 9025 2340
000003d0: 68bd 933e 39ec 823f dd9c a8be 8d3e c13f
000003e0: 33fe 2c40 b8bb f0be 0677 9a3f 8bab 6fbe
000003f0: e367 12bd f057 c4bf b3b2 a23f 2480 1340
0.012840396 0.008777264 -0.013157597 -0.01816503 0.013139196 0.007840616 -0.0014387346 0.017049829
-1.2563142 -2.8469884 -1.4277067 0.65104234 -1.3291245 0.018939227 0.87064904 -0.98181057
-0.540144 0.36716747 0.14916664 -2.265207 -0.37805873 1.0889512 -1.1109016 -2.8357947
-1.7099509 0.4342726 -0.54900616 -2.2762966 -1.6829368 -2.8589053 1.672078 -1.3831519
-1.5901818 -0.05525596 -1.1100984 -2.5251315 1.332248 0.7315213 -2.2149403 -0.03752562
-1.9166466 -1.2950672 -0.22052176 -0.78633434 -0.9274711 -1.6089449 -1.0273325 0.12545194
0.1738849 1.7903683 -0.3820328 1.1436164 2.1903486 -1.6895888 -0.8659325 -1.0565789
-0.012693287 0.004989589 -0.011150811 0.001760062 0.011621112 0.007430769 0.004770522 -0.00097536354
-0.029432261 -0.94535714 -0.40719944 -0.7087068 -0.2648978 -0.1623677 0.6507443 0.038073193
0.047618207 -1.0862498 -0.9488774 -0.5139346 1.0124573 -0.8377214 0.6103663 -0.25709927
0.60384864 -0.5115153 -0.06781793 0.44549954 0.26406443 0.9032156 0.68457365 -0.007002758
-0.71435 0.024777787 -1.2093645 -0.801994 0.36832657 0.12095121 0.62351507 -0.2735592
0.18911633 -0.26393875 -0.4300096 -0.35760948 -0.5264911 0.5112715 2.759765 -0.92472804
1.5593013 -0.23393004 0.1461428 0.53773886 2.211429 -0.30516818 0.11071987 -0.7243921
0.22962439 -0.114836566 1.624183 -0.75581163 -0.48883563 0.32575017 0.018539133 0.73366505
1.3944525 1.2667713 0.14010511 -0.20642725 -0.029239146 -0.4877694 -0.4399974 0.23244679
-0.58518106 -0.22435851 -0.16151652 -0.5300638 0.03545544 0.09657777 -0.392871 1.233121
-0.118320845 -0.9432153 2.3377743 -1.2655774 -0.3882626 2.8369787 3.5704582 0.49417838
-0.66253966 0.6255319 1.8774153 1.0758203 1.1071209 3.6315188 1.3052679 0.0030798458
1.2698473 2.6889234 -0.47651783 -0.019610181 1.7735525 0.26823282 0.6839262 -1.3246641
-1.0301291 3.8289258 -0.264682 4.088163 -0.800714 -0.22557624 -0.16558161 -0.5872421
1.1030214 -0.5773382 7.4892344 -0.31633896 3.3899174 -0.4810225 2.6184037 -0.44539595
0.90404934 -0.037930563 1.954838 1.7397051 0.5939216 2.900093 0.5417518 0.31337655
3.7799642 0.10497944 0.9212928 0.043495513 0.63661134 0.8393944 1.9286339 -1.2476268
-0.39964083 0.8445281 -1.5596083 0.32743037 -0.8479211 -0.8170057 -1.6378468 -2.00599
1.5074712 -0.27437437 1.3664267 1.181126 -1.0456804 0.5671448 -0.64503944 0.5581901
0.2970527 1.6577297 3.8632886 -0.8916524 -0.65029174 3.9742858 2.5520172 0.8065422
2.7236779 0.9940853 0.9572688 -0.85398835 0.844109 0.9849111 -1.0276837 -0.19281097
0.2860373 0.18755762 0.16522205 -0.08543398 -0.65374607 0.42755997 0.5932769 3.1556423
-1.4639441 1.5615195 0.6968212 2.1920302 1.9238693 4.8903904 0.11734124 0.86417943
-0.12510492 -0.16476049 1.2514956 2.5491676 0.28855443 1.022834 -0.32932177 1.5097214
2.703015 -0.47018218 1.2067573 -0.23405282 -0.035743605 -1.5339336 1.2710785 2.304696

fc1.bias f4 [256]
00000000: 8c6b a6c1 1dce 53c1 d9d9 0cc1 ea78 8dc1
00000010: 828f 0cc1 bf6e 0ac2 9e15 05c2 7342 f1c1
00000020: ef19 43c1 b9f6 27c2 1f2f adc1 9ae8 79c1
00000030: 0abe 60c2 43d1 e2c1 47aa 81c0 6007 dec1
00000040: 902b 85c1 a5fc 76c1 d2da 34c2 933b 87c0
00000050: 5815 31c1 6886 8fc1 e0ce aac1 bb02 39c1
00000060: 4c60 a9c1 1a95 aec1 e386 01c2 55b0 53c2
00000070: 1bdf 9dc1 6d60 27c1 52b6 89c0 eaec 96c1
00000080: 35be 84c1 373b 37c0 a105 f8c0 3ddf 0fc1
00000090: 58a7 17c1 3c61 3dc2 fb11 5fc1 9ef8 10c1
000000a0: b09d e0c1 6d7b 8ec1 588b 33c2 f6f6 ccc1
000000b0: 9f54 86c0 a7ff 45c2 eb6c 0dc2 d2a9 05c2
000000c0: 2a29 77c1 126b 35c1 c6de 2bc1 b5e4 16c2
000000d0: b98c 3cc2 c500 16c1 3d05 91c1 e2d9 10c1
000000e0: bd30 8fc1 d77a bbc0 3d37 38be ef69 56c1
000000f0: d945 5cc1 5ea0 d8c1 e8e1 8cc1 8b5a 22c1
00000100: a255 0fc2 743f 4bc2 4384 3ec2 5943 94c1
00000110: c5fe 2dc0 35d4 10c2 47b2 86c1 b4e8 fdc1
00000120: 9f04 2bc1 da6f 56c2 6565 29c2 9c55 d2c1
00000130: ba6d 19c2 8854 95c1 0c1d 15c2 037a 86c1
00000140: 4113 0bc2 cb01 ccc1 2039 84c1 cb17 61c2
00000150: fa0f 05c2 f656 75c2 d36b 5cc2 2850 4dc2
00000160: 1cae d7c0 ff68 9ac0 6e9d 8dc0 ea47 0ac1
00000170: 7b90 43c1 4303 dcc1 b6c9 87c1 9bd9 54c2
00000180: c393 4cc2 8ba8 bec1 4178 f3c1 a1df 30c2
00000190: 546d b8c1 bd30 22c1 4c89 93c1 a048 6bc1
000001a0: bf21 e3c0 3e85 dbc1 3dc0 9dc1 fafe 49c2
000001b0: 54db 53c1 46e0 93c1 d068 fec0 a57a 5bc2
000001c0: d715 0cc2 758a 87c0 84c3 5bc1 7597 01c2
000001d0: ddfd 7fc1 2577 50bf 63cf 3cc1 a3d1 22c0
000001e0: 177a 70c1 0b62 85c0 2928 b4bf 010e 8fc1
000001f0: 1f3e bbc1 86b7 1ac2 2f75 92c1 d3f2 43c1
00000200: 66a2 02c2 298d 39c1 56dc 5ec1 af88 a2c1
00000210: f151 bec1 ad07 47c2 ab16 afc1 15c7 48c1
00000220: a456 14c2 7820 87c1 8ceb 03c2 db35 9ac1
00000230: 7d53 b3c1 4c61 44c2 a7a8 49c2 1084 c0c1
00000240: a9ed b8c1 a106 a0c1 2a30 7cc1 ba36 2fc1
00000250: 2b53 33c1 dae6 fdc1 d56c 17c1 d249 f1c1
00000260: a920 dec1 5493 f9c0 204a 8bc1 5418 9cc0
00000270: 41ec 43c1 9858 a5c1 569a 9fc1 bc51 03c1
00000280: 690b 34c1 9084 03c2 3ce0 d3c0 dadf 3ec2
00000290: a469 07c2 4d74 64c0 dd5f 13c1 4d99 b0c0
000002a0: 567f b2c1 e1a8 1bc2 057f b9c1 464a 08c2
000002b0: 10fd 13c1 cc1f abc1 09d8 15c1 803b 77c1
000002c0: b64a e8c0 a0c3 81c1 27f0 83c1 4aaf 24c2
000002d0: 0792 8bc1 0bd9 85c1 3881 57c1 50e4 abc1
000002e0: 6705 8fc0 a26e e0c1 c3a5 40c1 e0a0 0fc2
000002f0: b861 c3c1 66a8 29c2 92b2 96c1 849f 00c2
00000300: 969d bac1 1780 10c2 6ffd 8cc1 beae 5dc1
00000310: f6ba b6c1 e370 78c1 2de5 5cc2 e0d2 1ac1
00000320: 531c 93c1 460b 9bc0 e45d 4ac1 f00b 15c1
00000330: 26cf bac1 db4e 38c2 b952 bcc1 197b cac1
00000340: 52fc 7fc1 7371 0ac1 d8c5 0dc1 30be 2ec1
00000350: 8367 29c1 4d84 f0c1 e0ae f4c1 a96a d6c1
00000360: 36f9 bac1 0cfa 2ac2 0e4d 8fc0 99b6 0cc1
00000370: e378 d7c1 43df 75c1 f7a0 1ec2 3027 f1c0
00000380: 7b44 37c2 1b8c d9c1 e43d 82c1 51b5 65c1
00000390: 1ee8 35c1 6975 abc1 3962 cec0 d911 5ac1
000003a0: bddc e4c0 19d4 c0c1 6d28 f2c1 5551 5cc1
000003b0: b7c9 cfc1 a1bf 21c1 cece 15c2 40af 52c2
000003c0: c162 e9c1 c5de bfc1 164a ddc1 955d 18be
000003d0: 0ad2 93c1 5c88 8ac1 c895 82c1 d876 07c2
000003e0: 5df1 e2c0 81b0 6cc1 248d 9ec1 a639 a1c1
000003f0: e8b1 0ec2 e82b ddc1 4308 11c1 f9d2 33c1
-20.802513 -13.237821 -8.803185 -17.68404 -8.785036 -34.60815 -33.27111 -30.157446
-12.193831 -41.99094 -21.648008 -15.6192875 -56.185585 -28.352179 -4.052036 -27.753601
-16.64627 -15.436681 -45.21369 -4.2260222 -11.067711 -17.940628 -21.351013 -11.563167
-21.17202 -21.822803 -32.381725 -52.9222 -19.733938 -10.461041 -4.303506 -18.86568
-16.592875 -2.8629892 -7.750687 -8.992002 -9.478355 -47.344955 -13.94189 -9.060698
-28.076996 -17.810266 -44.886078 -25.620586 -4.1978297 -49.49966 -35.356365 -33.41584
-15.44755 -11.33864 -10.741888 -37.723347 -47.137424 -9.375188 -18.127558 -9.053194
-17.898798 -5.858745 -0.17989822 -13.400863 -13.767053 -27.078304 -17.610306 -10.147105
-35.833626 -50.811966 -47.62916 -18.532885 -2.718675 -36.207233 -16.83705 -31.738625
-10.688628 -53.60923 -42.34902 -26.291801 -38.357155 -18.666275 -37.278366 -16.809576
-34.768803 -25.500875 -16.527893 -56.273235 -33.265602 -61.334923 -55.105297 -51.328278
-6.7400036 -4.825317 -4.4254675 -8.642557 -12.222774 -27.501593 -16.973492 -53.212505
-51.1443 -23.832296 -30.433718 -44.218388 -23.053383 -10.136899 -18.44204 -14.705231
-7.0978694 -27.44006 -19.718866 -50.499 -13.241047 -18.484509 -7.9502945 -54.86977
-35.021328 -4.2356515 -13.735233 -32.397907 -15.999478 -0.814318 -11.8006315 -2.5440452
-15.029807 -4.168218 -1.4074756 -17.881838 -23.405333 -38.679222 -18.307219 -12.246783
-32.658592 -11.596963 -13.928793 -20.31674 -23.79001 -49.757496 -21.886068 -12.548604
-37.08461 -16.890854 -32.980026 -19.276297 -22.415766 -49.095016 -50.4147 -24.064484
-23.116045 -20.003237 -15.761759 -10.950861 -11.207805 -31.73772 -9.46407 -30.161045
-27.765947 -7.7992344 -17.411194 -4.8779697 -12.245179 -20.668259 -19.95036 -8.207455
-11.252786 -32.879456 -6.6211224 -47.718605 -33.853165 -3.5695984 -9.210904 -5.5187135
-22.312176 -38.91492 -23.187021 -34.072533 -9.249283 -21.390526 -9.365243 -15.452026
-7.25912 -16.22052 -16.492262 -41.17118 -17.446302 -16.730978 -13.469048 -21.48648
-4.4694095 -28.05402 -12.040469 -35.907104 -24.422714 -42.41445 -18.837193 -32.155777
-23.326946 -36.125088 -17.623747 -13.855162 -22.84129 -15.52756 -55.223804 -9.676483
-18.38883 -4.845126 -12.6479225 -9.315414 -23.351147 -46.077007 -23.540392 -25.310106
-15.999102 -8.652698 -8.860802 -10.9214325 -10.587771 -30.0646 -30.585388 -26.80208
-23.371685 -42.744186 -4.478156 -8.7945795 -26.934027 -15.367007 -39.657192 -7.5360336
-45.816875 -27.19341 -16.28022 -14.356767 -11.369169 -21.43233 -6.44949 -13.629357
-7.1519456 -24.103563 -30.26974 -13.769856 -25.973494 -10.109284 -37.451958 -52.671143
-29.17322 -23.983774 -27.661175 -0.14879449 -18.477558 -17.316582 -16.323135 -33.86606
-7.0919633 -14.793092 -19.818916 -20.153149 -35.673737 -27.646439 -9.064517 -11.239007

fc2.weight f4 [3, 256]
00000000: b799 cec0 ac03 19bd 9527 30bd b7af d2bd
00000010: ca80 243e da43 a0c0 021a a1c0 8275 aac0
00000020: 5360 253e d9cf 91c0 0db3 81bd 12fc c4c0
00000030: daa0 f6bf fa39 afc0 a85a 6ebf 156d 9fc0
00000040: 7a12 86c0 e477 1cc0 b4df e3bd 6fec 83bf
00000050: 3b9c edbf 4965 95c0 bb09 1bbe 9cc4 40be
00000060: 7379 b9c0 4878 0cc1 e6aa b3c0 d95c 0bc0
00000070: 224a 91bd dae8 833d 4247 b7bf 9594 82be
00000080: 6cef a5c0 190c 62bd 0bea 08c0 1a0d 3f3e
00000090: 30b5 933e 46d6 22c0 318a 9ac0 d7ee 2f3e
000000a0: 4614 bec0 1077 bac0 b0f9 53c0 d1e2 c3c0
000000b0: ce0f d5be 5a17 91be 63bc 8ec0 143a b5c0
000000c0: 9c1d c5c0 5108 22c0 049d 513e 10e3 3fc0
000000d0: 0457 b13c f53a 38c0 ddee b2c0 f3f9 29be
000000e0: f590 e0c0 c5bd 27bf 4a66 9abe 0b5d 38c0
000000f0: a8a2 ffc0 e5e8 bec0 9f8e dfc0 66c0 edc0
00000100: fccf 893e 189b a7be 3fad a33c 6b46 9fc0
00000110: c868 e33e f800 c8c0 48df 8f3c 8a1d 9dc0
00000120: 0767 83c0 62a0 16c0 cec8 253e 2688 fac0
00000130: 56db 89c0 82e8 80c0 a581 8ac0 10dc 8ac0
00000140: e85f bcc0 68de d9c0 55ba a7c0 11a8 9d3e
00000150: 8d72 a3c0 dddb a1bf 7dcd d1be 9be3 92be
00000160: dfa9 74bf aaf1 5bbf 65d4 803e 5596 c2be
00000170: 9366 7dc0 db3a c9c0 797c 0c3e 9380 f4bf
00000180: e337 0c3e 74df 95c0 105b 9cc0 3137 75c0
00000190: 7008 bbc0 9a2e 70c0 5db5 9cc0 ad35 81c0
000001a0: c2d1 493e 2e85 a5c0 1649 c1c0 389c 71bf
000001b0: 7ba4 54c0 54ff 9dc0 6294 8ebf 9230 15c0
000001c0: dd4c 623e 6ad5 06bf c500 fb3d 558c 42c0
000001d0: bfe5 90c0 83e1 8bbe 236a 50c0 bfd8 b3be
000001e0: f7ff 71c0 b58f 0ebd 284f 6f3e 2f29 89c0
000001f0: 8fcc b9c0 cd2a 9ac0 04ba 9ec0 904e 98bf
00000200: 6104 bbc0 0ec5 5c3e 3f0f 73c0 43a6 a4c0
00000210: 4814 d4c0 13d6 d7bf eda8 adc0 87a8 3fc0
00000220: d0ab 7ec0 4346 0ac0 b2c1 aac0 554c 9fc0
00000230: efd1 d5c0 b8bc 92c0 306b 1ebf e3b7 bec0
00000240: ceeb edc0 4d70 9cc0 eb56 a6c0 888a 4c3e
00000250: 6d6d d5c0 713c cfc0 8eb3 0dbd a3c8 adc0
00000260: ab77 b5c0 c803 28be f0e8 a2c0 9172 7cbe
00000270: 463a 29c0 b357 20be 45bc b8c0 55dd 10c1
00000280: 22a4 ccc0 7bae 8ac0 b776 37bf 99cc 85bd
00000290: 9fba 00c0 b434 d13d 3b9e cbbf 73b3 053e
000002a0: 89eb d8c0 7add f63e f175 a7c0 4e87 c9c0
000002b0: 7b4f e43d 2b58 d2bd c917 c1bf e907 8cc0
000002c0: db78 2b3e 7013 7d3c ddce 44bd 4574 b1c0
000002d0: ed31 a6c0 aa73 133e 61e6 cb3e defb bdc0
000002e0: df8c 93bf c14a ffc0 3013 1fc0 0ea7 12bf
000002f0: 072a adc0 9bc6 53c0 abcf afc0 0592 c3c0
00000300: 7f3d 8cc0 9372 aac0 bbe5 76c0 2506 0cc0
00000310: dcaf bec0 8e3b b33e 697e b5bf 8bf5 b9be
00000320: 90e0 93c0 c9e4 95bf a320 b5c0 f2ca 903d
00000330: 7df8 c4c0 7582 07c0 743e cdc0 12fb 32c0
00000340: a7e3 9ac0 9eb7 153d 4a53 34c0 b88f 45bc
00000350: 2226 00c0 b4e8 a6c0 c821 a8c0 2e66 a5c0
00000360: b7fa dac0 426b 113f 07d2 19be 3ade 43c0
00000370: b657 d3c0 e01c 883e bf93 72c0 bf99 3c3e
00000380: 38d1 44c0 abdc c5c0 013b 41c0 f3cf 80c0
00000390: 0980 9dbd 6771 8bc0 bd6f a8be e3a9 c6c0
000003a0: 389a 8e3e 5171 b9c0 154b b4c0 b787 8ec0
000003b0: be2a adc0 f822 f3bf 6d02 8cc0 0054 5dc0
000003c0: de46 3ebd ae0c ccc0 84c9 bec0 5a58 8c3c
000003d0: 1eae abc0 3890 0ebe d7d5 eec0 5a99 c2c0
000003e0: aaa3 3d3e 68f3 2fc0 a153 a8c0 792c 86c0
000003f0: 1c28 88c0 ab83 9cc0 d99b 30be dde1 41c0
-6.456264 -0.037357017 -0.0430065 -0.10287421 0.16064754 -5.0082827 -5.034425 -5.326844
0.16150026 -4.556622 -0.06332979 -6.1557703 -1.9267838 -5.475827 -0.9310708 -4.9820657
-4.1897554 -2.4448175 -0.11126652 -1.0306529 -1.8563303 -4.668614 -0.1514043 -0.18825
-5.7960753 -8.779366 -5.6146116 -2.177542 -0.07094218 0.06440897 -1.4318621 -0.25503984
-5.1854763 -0.05518732 -2.1392848 0.18657342 0.28849173 -2.5443282 -4.829369 0.17180954
-5.939975 -5.827034 -3.3121147 -6.1214375 -0.4161362 -0.28338128 -4.4604964 -5.6633396
-6.1598644 -2.5317576 0.20470053 -2.9982338 0.021647938 -2.8785985 -5.591658 -0.16599254
-7.017695 -0.6552394 -0.30156165 -2.880679 -7.9886055 -5.9659295 -6.98616 -7.429736
0.26916492 -0.32735515 0.019980071 -4.977346 0.4441588 -6.2501183 0.017562523 -4.909856
-4.1063266 -2.353539 0.16189882 -7.8291197 -4.3080244 -4.0283823 -4.3283257 -4.339363
-5.8867073 -6.808399 -5.2414956 0.30792287 -5.1077332 -1.2645222 -0.40977088 -0.28689274
-0.955717 -0.85915625 0.25162044 -0.3800532 -3.9593856 -6.2884345 0.13719358 -1.9101738
0.13693194 -4.683527 -4.886116 -3.8314936 -5.84478 -3.7528443 -4.897139 -4.037802
0.19708923 -5.1725073 -6.0401716 -0.94378996 -3.322539 -4.937418 -1.1139033 -2.3310895
0.22099634 -0.52669394 0.12256006 -3.0398152 -4.528045 -0.2732049 -3.256478 -0.35126302
-3.7812479 -0.03480502 0.2337004 -4.2862773 -5.8062205 -4.8177247 -4.960207 -1.1898975
-5.8442845 0.21559545 -3.7978055 -5.1452956 -6.6274757 -1.6862205 -5.426871 -2.994661
-3.9792366 -2.1605384 -5.3361444 -4.978068 -6.6818767 -4.585537 -0.61882305 -5.959947
-7.4350348 -4.8887086 -5.19811 0.1997472 -6.6696076 -6.476128 -0.034595065 -5.430742
-5.670858 -0.16407692 -5.0909348 -0.24653079 -2.6441817 -0.15658455 -5.772982 -9.054036
-6.3950357 -4.333799 -0.7166552 -0.065331645 -2.0113904 0.102151304 -1.5907663 0.13056736
-6.778752 0.48215848 -5.233147 -6.2977667 0.11147972 -0.10270723 -1.5085384 -4.3759656
0.16745321 0.015446529 -0.048048843 -5.545443 -5.1935945 0.14399591 0.39824203 -5.9369955
-1.1527365 -7.977875 -2.485546 -0.57286155 -5.4113803 -3.308997 -5.4941 -6.1115746
-4.382507 -5.326486 -3.8577716 -2.187875 -5.958967 0.35006374 -1.4179202 -0.36320147
-4.6211624 -1.1710445 -5.660234 0.07069959 -6.155333 -2.1173375 -6.4138737 -2.796574
-4.8402896 0.036552064 -2.8175836 -0.012058191 -2.0023274 -5.215906 -5.2541237 -5.168723
-6.843105 0.5680429 -0.15021525 -3.0604386 -6.604457 0.2658453 -3.7902677 0.18418024
-3.0752697 -6.183187 -3.0192263 -4.0253844 -0.076904364 -4.357593 -0.3289775 -6.208238
0.27852035 -5.7950826 -5.6341653 -4.4540668 -5.4114676 -1.8995047 -4.375296 -3.458252
-0.046454303 -6.376548 -5.962099 0.017131973 -5.3650045 -0.13922203 -7.4636035 -6.0812197
0.18519464 -2.7492313 -5.2602086 -4.192929 -4.254896 -4.8910728 -0.17246951 -3.0294106

fc2.bias f4 [3]
00000000: f2ad 59be c9ba 163f 7576 7dbe
-0.21257761 0.5887876 -0.24752219
