resources/models/256.pth (torch, 792821 bytes, 4 tensors)

fc1.weight f4 [256, 768]
00000000: 0688 513c 3e34 0f3c 76ba 56bc 8f34 94bc
00000010: 486d 563c 3bd8 ff3b 3ad4 bbba 2721 8b3c
00000020: 1b39 babf c921 36c0 8937 8fbf 52f1 223f
00000030: bcdc 80bf 897e b33e bcbc 3e3f 51a9 79bf
00000040: c3c5 89bf dd9d 163f e55f f83e 041e 11c0
00000050: 49de e0be d188 4c3f 6c75 48bf dc44 09c0
00000060: a21a 9abf 5bbc 7d3f 12d7 3bbe 9314 11c0
00000070: 7671 f9bf e445 35c0 2e08 0340 f90e c0bf
00000080: 7338 c6bf 9832 a13c 1a93 01bf 842f 35c0
00000090: 38a3 cd3f fbfd e13e a736 0dc0 7828 0fbe
000000a0: 7f5d f4bf 271b a5bf e3bb db3d 0c84 48bf
000000b0: a2e9 6dbf 6819 cdbf 47f7 acbf d87d 02bf
000000c0: 9d19 f93e d6e9 f03f a5d0 c2be 8fb2 923f
000000d0: e7c5 1e40 f26b d7bf eac5 5cbf 0cb3 86bf
000000e0: 011f 4fbc 19d6 a23b f1f8 35bc 0aca e53a
000000f0: 309e 3d3c a186 f23b c5b7 9b3b 05a9 7eba
00000100: bf24 f0bc bf0b 71bf f2a3 cfbe dcb4 34bf
00000110: c115 87be 1c9a 25be 92ed 253f 855c 363d
00000120: 2642 423d 4e7f 8abf 73f2 71bf 4a06 03bf
00000130: be32 823f 699c 55bf b2a6 1b3f 9617 83be
00000140: 8efb 193f bd67 02bf fdda a1bd 8e1c e93e
00000150: 86a8 863e 5063 9d3e 70f4 2a3f 9b18 da3a
00000160: b126 36bf a031 ca3c 3032 9abf ead8 8ebf
00000170: 66b2 2e3f 17be f63d d3fc 6f3f 0685 8bbe
00000180: 8dde 403e 0d98 86be 6142 dbbe a45f b6be
00000190: 313d 06bf 05a8 033f 4a1a 0f40 1b68 69bf
000001a0: 06ce c63f 2d94 6ebe e185 1a3e 531e 093f
000001b0: 20fd 0c40 bca4 9bbe 9037 d93e d0b8 38bf
000001c0: 7a2b 6a3e 4138 eabd bb0c cf3f b6b3 40bf
000001d0: 2542 f9be 1e1f a63e 558f ab3e 8618 3b3f
000001e0: 78c4 b13f f47b a13f 95a1 35be 2a89 52be
000001f0: c18f eebc 64b6 f8be 805f e0be 5a0f 6d3e
00000200: 2834 15bf d719 6fbe db85 30be 5174 58be
00000210: 1133 b43e 6801 c53d 072b c4be a43c 9d3f
00000220: 055b f1bd 617f 70bf e80d 1440 d554 a1bf
00000230: 3201 c6be 1cd8 3440 a7b0 8940 70c2 323e
00000240: 97f2 28bf 4079 1f3f fc60 0b40 6af3 f03f
00000250: 50a3 8b3f 1dd2 9840 a936 a53f 140e 493b
00000260: b470 a33f 602e 4040 f702 f3be f650 0abc
00000270: 3a2b 2c40 e2ca 883e cf3a 303f fce4 a8bf
00000280: 5750 83bf d4e7 8340 78f9 86be 83cc 8b40
00000290: 7986 49bf 9e15 66be 9ee4 28be 772d 18bf
000002a0: 84a9 403f 2b32 13bf b82e ed40 924d a1be
000002b0: 970f 8040 6751 f5be 1a88 2740 1923 e3be
000002c0: f087 663f 65a0 58bc 99c1 fa3f 3732 0340
000002d0: fa70 173f 3f65 3a40 5125 0a3f 48c9 9f3e
000002e0: 645d 8d40 f626 d63d 15e6 673f 676f 313d
000002f0: 5a4f 223f 0d0a 563f 9d36 f83f a008 9fbf
00000300: 9d13 35bf 3d5d 1f3f fd01 ebbf 9566 273f
00000310: 1412 93bf 9b7a 8ebf 77cc d0bf dcb2 ffbf
00000320: 3eca e83f a242 86be f1a6 d43f 1485 bc3f
00000330: ed4d 85bf 2296 103f b277 24bf f0b3 113f
00000340: 005f 1e3f 6936 fe3f 24d9 8840 1242 9abf
00000350: e9cf 25bf 0e24 9640 a4aa 2240 2abb 4f3f
00000360: 521f 2140 db75 7d3f 13ce 703f e7c1 59bf
00000370: 058e 5a3f 10ee 293f 8d2e 83bf 7600 ff3d
00000380: 67c7 1d3f c5c6 003f 1fd5 f63e 9384 0c3f
00000390: dbc3 28bf 18da 3e3f 0a15 183f 3647 5e40
000003a0: 6ed6 b9bf 95b7 0b40 caa8 313f 46fa ec3f
000003b0: 2b4a f53f 1839 ae40 d5e7 dd3e b493 5e3f
000003c0: 2562 e5be de5c 1e3e 5cac c93f 5b7a 3b40
000003d0: 2323 933e 5352 833f d269 34bc 60d3 b73f
000003e0: 3eac 3040 8ac4 efbe 8ccf 643f c15c aa3d
000003f0: 9c32 b4be c78e c3bf 55a0 ca3f f6fd 3a40
0.012788778 0.008740483 -0.013105979 -0.018091468 0.013087578 0.007807759 -0.0014330216 0.016983582
-1.4548677 -2.845812 -1.1188823 0.63649476 -1.0067363 0.35057476 0.74506736 -0.9752398
-1.0763477 0.5883463 0.48510662 -2.267457 -0.4391959 0.79896265 -0.7830417 -2.1448278
-1.2039378 0.9911553 -0.18343762 -2.2668808 -1.948775 -2.8323908 2.0473742 -1.5004569
-1.5485977 0.019677445 -0.50615084 -2.8310251 1.6065435 0.44139084 -2.2064607 -0.13980281
-1.9091033 -1.2898911 0.10729196 -0.7832649 -0.9293462 -1.6023378 -1.3512963 -0.5097327
0.48652354 1.8821361 -0.38049808 1.1460742 2.480829 -1.6829817 -0.8623949 -1.0523391
-0.012641669 0.00496937 -0.011106716 0.0017531526 0.011573359 0.007401303 0.0047521316 -0.0009714517
-0.029314397 -0.9415855 -0.40554768 -0.7058847 -0.26383784 -0.1617207 0.6481563 0.044521827
0.047426365 -1.08201 -0.94510573 -0.5118147 1.0171735 -0.8344179 0.6080123 -0.25603932
0.60149467 -0.5093954 -0.07903097 0.45529598 0.26300448 0.30739832 0.6677923 0.0016639413
-0.7115279 0.024681866 -1.2046566 -1.1159947 0.68240964 0.120479755 0.93745154 -0.27249926
0.18834896 -0.2628788 -0.4282408 -0.35619843 -0.5243712 0.5142825 2.2359796 -0.9117448
1.5531623 -0.23298712 0.15090133 0.53561896 2.2029495 -0.3039912 0.42425203 -0.72157
0.22868147 -0.11436511 1.617576 -0.7527422 -0.48683277 0.32445616 0.3350779 0.73084295
1.3888083 1.2615952 -0.1773742 -0.20560136 -0.029121282 -0.48576653 -0.4382286 0.23150387
-0.5828271 -0.23349701 -0.17238562 -0.21138121 0.3519521 0.09619409 -0.38314077 1.2284131
-0.11784939 -0.93944365 2.3133488 -1.2604014 -0.38672787 2.8256903 4.302814 0.17456985
-0.6599516 0.6229439 2.1777945 1.8824284 1.0909214 4.7756486 1.2907306 0.0030678557
1.2768769 3.0028305 -0.474632 -0.008442154 2.6901383 0.26717287 0.68839735 -1.319488
-1.0258893 4.1220493 -0.26362205 4.368715 -0.78720814 -0.22469184 -0.1649346 -0.59444374
0.7525866 -0.57498425 7.411953 -0.31504494 4.001903 -0.47913668 2.617682 -0.44362715
0.90051174 -0.013221835 1.9590331 2.0499399 0.59156764 2.9124296 0.5396319 0.31208253
4.41765 0.1045665 0.9058545 0.043319132 0.6340233 0.83609086 1.9391667 -1.2424507
-0.7073305 0.62251645 -1.8359982 0.653909 -1.1489892 -1.1131166 -1.6312398 -1.9976459
1.818672 -0.26222712 1.6613446 1.4728112 -1.0414406 0.56479084 -0.6424514 0.5691519
0.6186371 1.9860355 4.2765064 -1.2051413 -0.6477037 4.691901 2.541665 0.81144965
2.5175366 0.9900796 0.94064444 -0.85061496 0.85372955 0.6637888 -1.0248581 0.1245126
0.6163239 0.503033 0.48209473 0.5488979 -0.6592385 0.74551535 0.59407103 3.4730964
-1.4518564 2.18308 0.69398177 1.8513877 1.9163259 5.4444695 0.43340936 0.8694413
-0.4480144 0.15465114 1.5755725 2.929343 0.28737745 1.0259498 -0.011011558 1.4361382
2.7605128 -0.46829635 0.8937919 0.08318473 -0.35194862 -1.5277947 1.583018 2.9217505

fc1.bias f4 [256]
00000000: 6e7a a0c1 c8fb 4dc1 d9c2 0ac1 dd35 8ec1
00000010: 6dea 0bc1 ac75 09c2 5921 03c2 4ba5 f5c1
00000020: 54a9 43c1 d111 2ac2 8769 afc1 5d7f 79c1
00000030: a87d 63c2 e7a4 e3c1 591f 81c0 391d e3c1
00000040: a2a0 84c1 45bc 70c1 82d3 36c2 a5b0 86c0
00000050: 10be 35c1 08c4 8ec1 2dd5 a9c1 be9e 3bc1
00000060: 9524 a8c1 be94 aec1 dc7b 02c2 5b9b 51c2
00000070: 9529 a0c1 4e81 24c1 642b 89c0 5d11 98c1
00000080: 66a9 84c1 f60d 27c0 730e f7c0 2297 0fc1
00000090: 3a3e 15c1 071d 3ec2 8d65 68c1 47f5 12c1
000000a0: 153a dec1 2a7b 91c1 42fa 32c2 d69b cac1
000000b0: c79e 85c0 5b00 47c2 8fbc 0fc2 9a25 09c2
000000c0: 411a 78c1 8207 3fc1 2fee 2cc1 af5d 16c2
000000d0: 3fcd 3ac2 524e 15c1 a46e 8bc1 625c 0ec1
000000e0: 1dea 8fc1 e4c1 bac0 169a 15be 5e1e 5ec1
000000f0: 025e 5bc1 6b3c ddc1 86e1 8ec1 dd04 25c1
00000100: 08eb 10c2 e108 4cc2 09aa 3fc2 b277 98c1
00000110: 2805 19c0 f0df 11c2 9e7a 87c1 3dd1 fec1
00000120: b934 28c1 2b6e 59c2 68bb 28c2 b646 d1c1
00000130: c224 1ac2 29bf 96c1 16dd 13c2 c9a5 84c1
00000140: 8f85 0cc2 962c d0c1 43e8 85c1 85e6 5fc2
00000150: f4dc 02c2 495d 78c2 6b93 5ec2 395d 4ec2
00000160: 9cd5 d6c0 bace 99c0 b706 89c0 be2b 09c1
00000170: 52c7 42c1 d7e9 dbc1 1f4a 89c1 59cb 55c2
00000180: 7a3f 4fc2 b971 bdc1 d3cf f3c1 a6e9 30c2
00000190: 934a bac1 fe70 26c1 34d4 92c1 40db 70c1
000001a0: 9bf5 dec0 dd93 ddc1 091c 9dc1 6cd7 4ac2
000001b0: a0a1 5ac1 cba8 92c1 4b62 fdc0 2803 5bc2
000001c0: 59ae 0dc2 87ff 86c0 7949 5bc1 e0ec 03c2
000001d0: 09ee 81c1 a59e 4fbf 88ba 47c1 cdd1 1dc0
000001e0: 5ed0 6fc1 c77f 84c0 3388 a8bf 4507 91c1
000001f0: 8845 bdc1 d274 1cc2 3882 96c1 aa29 43c1
00000200: 5b50 04c2 012e 38c1 7ff4 5dc1 91d0 a1c1
00000210: bb87 bfc1 433c 4ac2 040f b2c1 0ca7 52c1
00000220: e95d 15c2 c3a2 8ac1 9983 03c2 e523 9bc1
00000230: f3cd b7c1 5049 46c2 79b4 49c2 58e2 c0c1
00000240: 3726 b6c1 21f2 9fc1 cb69 7fc1 af4e 34c1
00000250: f56c 32c1 4edb fdc1 c025 18c1 0649 f5c1
00000260: dd2a dfc1 906e f7c0 0124 88c1 0f7e 9bc0
00000270: 1823 43c1 72db a4c1 f989 9fc1 cec6 02c1
00000280: 33e8 35c1 421e 02c2 bc07 d3c0 fda7 40c2
00000290: 6cd7 06c2 cbe8 61c0 98c5 12c1 5ae0 afc0
000002a0: c178 b5c1 9dfc 1ac2 331f b6c1 5408 0ac2
000002b0: 6002 16c1 59bd aac1 c43d 15c1 26e6 7ac1
000002c0: c9da e5c0 e066 80c1 81aa 83c1 5388 23c2
000002d0: f418 89c1 2520 84c1 0534 54c1 0238 adc1
000002e0: 797a 8ec0 57df e3c1 79dd 3fc1 0d0e 11c2
000002f0: a5cd c1c1 3b11 2cc2 edb4 95c1 5f26 00c2
00000300: f2be bec1 ab10 12c2 73bb 93c1 e7c6 5cc1
00000310: 2d63 b4c1 2b22 75c1 7371 5bc2 16de 17c1
00000320: e28e 95c1 0171 9ac0 a7ca 48c1 e451 14c1
00000330: 2027 bac1 7e49 3bc2 9de1 bdc1 7e4f c9c1
00000340: b06e 7ec1 9f89 0ac1 66f0 13c1 b682 32c1
00000350: e7bd 28c1 3cff f0c1 3a71 f3c1 cab0 d7c1
00000360: 78cb bbc1 a5e4 2dc2 ecbb 8ec0 b781 10c1
00000370: 9a37 d8c1 6a39 77c1 d707 21c2 86d6 f1c0
00000380: 900a 39c2 e411 d7c1 f6b2 81c1 d18b 67c1
00000390: abfb 38c1 a3af abc1 b989 cdc0 5939 59c1
000003a0: 7b2e e5c0 2b0c c3c1 a4f2 f5c1 5c1f 5bc1
000003b0: 0a8a d1c1 0516 21c1 a4cb 18c2 a280 54c2
000003c0: fb5e eac1 1c9b bdc1 bcc1 e0c1 50c3 17be
000003d0: ec68 92c1 b1af 89c1 0ae7 76c1 6c37 07c2
000003e0: 792c e4c0 75c6 74c1 79cc a0c1 6ac4 a4c1
000003f0: 53e7 10c2 0966 e3c1 84ed 0ec1 e54c 37c1
-20.05978 -12.87397 -8.67257 -17.7763 -8.744733 -34.364914 -32.782566 -30.70571
-12.22884 -42.5174 -21.926527 -15.593595 -56.87271 -28.455519 -4.0350766 -28.389269
-16.578434 -15.045964 -45.70655 -4.209063 -11.358902 -17.845718 -21.22909 -11.726255
-21.017862 -21.822628 -32.620956 -52.401714 -20.020304 -10.281569 -4.2865467 -19.008478
-16.582714 -2.610227 -7.720514 -8.974398 -9.327692 -47.528347 -14.524793 -9.184882
-27.77836 -18.185139 -44.744392 -25.326092 -4.175632 -49.750347 -35.93414 -34.28672
-15.50641 -11.939333 -10.80815 -37.591488 -46.700436 -9.331621 -17.429024 -8.897554
-17.989313 -5.8361683 -0.1460956 -13.882414 -13.710451 -27.654501 -17.860119 -10.313687
-36.229523 -51.00867 -47.91605 -19.058445 -2.3909397 -36.46869 -16.934872 -31.852167
-10.512872 -54.357586 -42.183014 -26.159527 -38.535896 -18.84334 -36.965904 -16.58095
-35.13043 -26.02177 -16.738409 -55.975117 -32.715775 -62.0911 -55.643963 -51.591038
-6.7135754 -4.806485 -4.2820697 -8.573179 -12.173662 -27.48918 -17.161192 -53.44858
-51.81199 -23.680529 -30.476477 -44.228172 -23.286413 -10.402586 -18.353615 -15.053528
-6.967481 -27.697199 -19.638689 -50.710373 -13.664459 -18.332418 -7.9182487 -54.753082
-35.42026 -4.2186923 -13.705438 -32.981323 -16.241228 -0.8110145 -12.48304 -2.4659302
-14.988371 -4.140598 -1.3166565 -18.12855 -23.65895 -39.114082 -18.813583 -12.197672
-33.078472 -11.511231 -13.872191 -20.22684 -23.941275 -50.55885 -22.257332 -13.165783
-37.34171 -17.329473 -32.878513 -19.392527 -22.975561 -49.571594 -50.426243 -24.11052
-22.76866 -19.993227 -15.963328 -11.26921 -11.151601 -31.732082 -9.509216 -30.660656
-27.89593 -7.7322464 -17.01758 -4.859138 -12.196068 -20.607151 -19.94237 -8.173536
-11.369189 -32.52955 -6.594694 -48.16405 -33.710373 -3.5298336 -9.173241 -5.4961367
-22.683962 -38.746693 -22.765234 -34.508133 -9.37558 -21.342455 -9.3275795 -15.681189
-7.182957 -16.050232 -16.458254 -40.88313 -17.137184 -16.515696 -13.2627 -21.652348
-4.4524503 -28.484053 -11.99157 -36.26372 -24.225412 -43.016827 -18.713343 -32.03747
-23.843235 -36.516277 -18.466528 -13.79856 -22.548426 -15.320842 -54.86079 -9.49172
-18.694767 -4.8262944 -12.549476 -9.269993 -23.269104 -46.82177 -23.735163 -25.163815
-15.902023 -8.658599 -9.246191 -11.156912 -10.546363 -30.124626 -30.430286 -26.961323
-23.47435 -43.473286 -4.4604397 -9.031669 -27.02715 -15.451517 -40.257656 -7.557437
-46.260315 -26.883736 -16.212383 -14.471635 -11.561442 -21.46076 -6.423062 -13.576501
-7.161924 -24.380941 -30.743477 -13.695156 -26.192402 -10.067876 -38.198868 -53.125618
-29.296377 -23.700737 -28.094597 -0.148206 -18.301231 -17.210787 -15.431406 -33.804123
-7.130429 -15.298451 -20.09984 -20.595905 -36.225903 -28.424822 -8.932987 -11.456273

fc2.weight f4 [3, 256]
00000000: ff8e d8c0 d337 bebd b6c2 54bb 12af c3bd
00000010: adef e43d 821b b9c0 417d 9fc0 69a4 b8c0
00000020: 4a8d fb3d a201 8dc0 7223 793d 90ac bcc0
00000030: ee72 c6bf 0e28 acc0 7a63 6dbf 4314 a7c0
00000040: 8c87 85c0 3257 08c0 3fb5 f03d 8161 83bf
00000050: 0cd4 ebbf a2e7 8fc0 ea4a d8bd 9b53 31be
00000060: 0a57 c3c0 9f66 17c1 cdd7 aac0 9ade 28c0
00000070: ceed ecbc bb10 8d3d 4f8e b6bf fa44 6bbe
00000080: 553e a3c0 fcd7 eebd 1d5f 08c0 3632 3a3e
00000090: 701e 763e b50a 29c0 dc05 9fc0 a56a 193e
000000a0: 1e03 c6c0 a2ff bac0 99cb 77c0 32e6 bbc0
000000b0: 7d2c f2be 0bee 05bf dde8 92c0 9794 a4c0
000000c0: 98ce bbc0 384e 1ac0 4117 203e 788e 30c0
000000d0: 7e9c 7e3c 3021 37c0 3cfd b1c0 dc57 73be
000000e0: b48a f2c0 2914 27bf 17d4 a9be d68e 26c0
000000f0: 239c fec0 5b34 bec0 f3d0 e8c0 bf44 e6c0
00000100: b16e 4e3c 929f 02be 49f1 853e d0cb 97c0
00000110: 136d d83e b681 bbc0 7d7a 5abd cf81 97c0
00000120: 54e6 82c0 e555 e9bf b3cc 4e3e 2d7f f1c0
00000130: 35f2 89c0 3eb3 8ac0 625d 96c0 b24b 91c0
00000140: 696c b6c0 edec c5c0 82ba 9cc0 29ff bb3e
00000150: 45af abc0 23e6 75bf 068f acbe bcf7 afbe
00000160: b1b2 73bf d309 5bbf 41f3 9e3e 11b7 b2be
00000170: 0e60 7cc0 aed0 d2c0 a440 d93d 75ef f6bf
00000180: 9d71 5bbd 8347 a2c0 2eff 9fc0 aa7d 79c0
00000190: 508c b7c0 ceb2 4ac0 ac1d 9cc0 4095 98c0
000001a0: 8a34 2f3e c60c a5c0 a3a7 c0c0 4ef7 94bf
000001b0: 3a8b 57c0 6483 a5c0 7409 8ebf 26b0 18c0
000001c0: d4ee 0e3e 7c4a 06bf 8a5d 103e e45f 39c0
000001d0: 6332 90c0 9556 8bbe 1c4e 62c0 de80 a1be
000001e0: 7629 84c0 bd6f 59bd e69f 623e e1be 92c0
000001f0: 5355 b9c0 2914 9bc0 22f9 9dc0 4bb4 97bf
00000200: cf3d c5c0 18ee 2f3e 1118 72c0 b9fc a3c0
00000210: 55cf d7c0 2fbc fbbf 3598 bac0 7dbf 5bc0
00000220: 8768 85c0 95d9 01c0 d273 b8c0 75f5 a3c0
00000230: b78e ccc0 f97a 8cc0 4644 81bf 1508 b5c0
00000240: ef8c 02c1 3200 a1c0 ffa2 acc0 b783 453e
00000250: a7aa d4c0 e41f d4c0 0821 263b c626 abc0
00000260: b92b c2c0 cd00 1cbe b3cf a3c0 0c6c 7bbe
00000270: aa90 28c0 ba0f 603d eb35 c1c0 1043 10c1
00000280: dc1a cdc0 84df 91c0 c4bd 36bf 8f70 983d
00000290: b0c7 febf ff45 f23d 25cf cabf 8528 053e
000002a0: a09a d1c0 6a49 b93e 37cd b0c0 9149 bfc0
000002b0: a4e3 8f3d b39b fcbd a04e c0bf a77e 8fc0
000002c0: 98dc 153e 5b93 90bc 32dd 49bd 5690 c2c0
000002d0: 84af a6c0 677f 273e e507 db3e 312f bdc0
000002e0: 9af2 92bf c17b 03c1 9469 1ec0 fc0a 2bbf
000002f0: 20d0 9ac0 038c 45c0 eaf2 a6c0 e6f4 c1c0
00000300: 4a54 81c0 4078 b6c0 deb9 7dc0 377b 0bc0
00000310: 4b70 ccc0 3587 b73e 1540 acbf 28e8 99be
00000320: 9536 93c0 844a 95bf b662 b4c0 f077 293d
00000330: e075 c4c0 c7a9 f7bf 8a9f c1c0 fb72 3ac0
00000340: edc6 9ec0 eb96 21bc 77f5 42c0 e763 81bc
00000350: 8341 ffbf 9654 9fc0 3680 b1c0 0eae a8c0
00000360: 43d1 dcc0 b632 ff3e c237 19be 0546 44c0
00000370: 096e d3c0 a6cb 633e c093 84c0 7cfb 2b3e
00000380: 7a3f 3ec0 6742 d0c0 d871 40c0 0368 81c0
00000390: 2c12 aebd 28f2 8fc0 21c6 a7be bae0 c5c0
000003a0: d03d 6b3e 78d8 b1c0 e929 bbc0 94f6 75c0
000003b0: 3007 a8c0 ca2b f2bf 205b 75c0 b0c9 53c0
000003c0: e227 403d 4e2f c8c0 ad63 bac0 6ccd 8b3c
000003d0: 6ee7 b8c0 7bb7 0fbe 8462 f5c0 3cd2 ccc0
000003e0: 8968 1a3e 8979 32c0 12f7 a5c0 55b5 80c0
000003f0: d9f5 86c0 99dc aac0 4499 13be 41c1 2dc0
-6.7674556 -0.092879914 -0.003246469 -0.095548764 0.11178527 -5.784608 -4.98404 -5.7700696
0.12282808 -4.4064493 0.06082482 -5.8960648 -1.5503824 -5.3798895 -0.92729914 -5.2212234
-4.1727962 -2.130322 0.1175332 -1.0264131 -1.8424087 -4.4970255 -0.10561164 -0.17317049
-6.104375 -9.462554 -5.338843 -2.6385865 -0.028921988 0.06887957 -1.4262179 -0.22975531
-5.101359 -0.116622895 -2.1308053 0.18183216 0.24035048 -2.6412785 -4.9694653 0.14982088
-6.1878805 -5.843705 -3.8718016 -5.87185 -0.47299567 -0.5231635 -4.5909257 -5.1431384
-5.868969 -2.411024 0.1563387 -2.7586956 0.01554024 -2.8614006 -5.5621624 -0.23763984
-7.5794315 -0.65265137 -0.33169624 -2.602468 -7.9565597 -5.943891 -7.2755065 -7.195892
0.012599633 -0.12756184 0.26160648 -4.7436295 0.42270717 -5.859584 -0.05333947 -4.734596
-4.090616 -1.8229338 0.20195274 -7.5467744 -4.3108163 -4.33438 -4.6988993 -4.54049
-5.7007337 -6.1851716 -4.897767 0.3671811 -5.365145 -0.96054286 -0.33702868 -0.34368694
-0.95194536 -0.85561866 0.31044963 -0.34905294 -3.9433627 -6.5879736 0.10608032 -1.9291826
-0.053575147 -5.0712295 -4.9999 -3.898295 -5.735878 -3.1671634 -4.878622 -4.768219
0.17109886 -5.1578093 -6.0204635 -1.1637971 -3.3678727 -5.172289 -1.1096635 -2.3857512
0.13958293 -0.52457404 0.14098182 -2.8964777 -4.5061507 -0.27214494 -3.5360174 -0.3154363
-4.130061 -0.053085078 0.22131309 -4.5858006 -5.7916656 -4.846211 -4.9366617 -1.1851896
-6.163795 0.1718067 -3.782719 -5.1246 -6.744059 -1.9666804 -5.83108 -3.4335625
-4.1690097 -2.0289052 -5.764138 -5.123713 -6.3924212 -4.3900113 -1.009896 -5.6572366
-8.159408 -5.031274 -5.394897 0.19288526 -6.6458316 -6.628893 0.0025349278 -5.348483
-6.067837 -0.1523468 -5.119104 -0.24552935 -2.6338296 0.054702498 -6.037832 -9.016373
-6.4095287 -4.5585346 -0.7138331 0.07443344 -1.990469 0.11829757 -1.5844465 0.13003738
-6.550125 0.36188823 -5.5250506 -5.9777303 0.07025841 -0.12334385 -1.5023994 -4.4842105
0.14634931 -0.01764839 -0.049283214 -6.080119 -5.2089252 0.16357194 0.4277946 -5.9120107
-1.1480286 -8.217713 -2.475194 -0.66813636 -4.837906 -3.0866706 -5.2171526 -6.061145
-4.041539 -5.702179 -3.9644694 -2.1793954 -6.3887076 0.35845342 -1.3457056 -0.30059934
-4.600413 -1.1663365 -5.6370497 0.041374147 -6.139389 -1.9348687 -6.050725 -2.9132679
-4.961783 -0.009862642 -3.046232 -0.015794707 -1.9941868 -4.9790754 -5.5469007 -5.271247
-6.9005446 0.49843377 -0.14962676 -3.0667737 -6.607182 0.22245654 -4.143036 0.16795152
-2.9726243 -6.5081058 -3.0069485 -4.0439467 -0.0849956 -4.49831 -0.32768348 -6.1836824
0.22972798 -5.5576744 -5.848866 -3.843175 -5.2508774 -1.8919613 -3.8336868 -3.309185
0.046913035 -6.2557745 -5.8246675 0.017065726 -5.7782507 -0.14034836 -7.668276 -6.4006634
0.1507894 -2.788668 -5.18641 -4.0221353 -4.2175107 -5.3394284 -0.14413935 -2.7149203

fc2.bias f4 [3]
00000000: 607d 7ebe 51cc 183f 4e20 66be
-0.24852514 0.5968676 -0.22473261
