resources/models/Player-128.pth (torch, 396795 bytes, 3 tensors)

fc1.weight f4 [128, 768]
-0.009438192 0.011188205 -0.0060073477 -0.011125561 0.023093948 -0.004803461 -0.017171502 0.02904681
-0.13934405 -0.66059566 0.89032423 -1.0100313 0.24225043 -0.14148894 -0.17623098 -0.101150446
-0.08148867 -0.952466 1.308067 -1.9420444 0.24137484 -0.28797373 -0.18704207 -0.029005365
0.05615793 -0.9495758 1.7294695 -1.7698203 0.44902173 -0.281285 -0.2190804 -0.2196171
0.13226007 -0.9597396 1.3990047 -1.2098905 0.35027236 -0.22226366 -0.23643516 -0.26117045
-0.091079995 -0.36352286 1.2044152 -0.565359 0.29866347 -0.26057386 -0.34496742 -0.5079619
-0.23297353 -0.20838293 1.0962108 -0.39494738 0.35254598 -0.47710186 -0.89290136 -0.7054563
0.003484949 -0.022503162 -0.014500982 -0.024166642 0.023232067 -0.010629239 0.032670613 -0.010291913
0.46425173 -0.61301756 -0.5856951 -0.31456798 0.017377226 -0.17773822 -0.04070259 -0.3035307
-0.41873327 -0.3595862 -0.096572526 -0.18850793 -0.26001918 -0.31608436 0.021664008 -0.11692257
0.0032030554 -0.37822825 -0.8531013 -0.40583926 -0.29451492 -0.13097158 -0.08772305 0.03862291
-0.43904623 -0.43840796 -0.034599226 -0.5242844 -0.17775646 -0.2639747 -0.17847773 0.012505147
0.101283 -0.5753464 0.17980503 -0.52773595 -0.34478047 -0.1715166 -0.1763651 -0.36906835
-0.23551421 -0.41573012 -0.05810909 -0.36479577 -0.347003 -0.3422197 -0.15093778 -0.06854447
-0.12887931 -0.032528654 -0.40261304 -0.13530037 -0.31734636 -0.07153933 -0.034738418 -0.06303678
-0.92268944 -0.28288308 0.16763501 0.015026097 -0.45836633 -0.07785138 -0.45470712 -0.010615535
0.050658286 -0.045363735 -0.22681905 -0.18527631 0.07700501 -0.21421365 -0.12411025 0.18033327
0.43833253 -0.059650447 -0.075936794 -0.07891764 -0.26832846 -0.11565121 -0.15441155 -0.13996074
0.042537373 0.13327108 0.13100088 -0.0685088 -0.15788022 -0.21249804 -0.1285614 -0.13570932
-0.34922937 -0.11176697 -0.087296635 -0.21549408 -0.13098687 -0.3695948 -0.21817882 -0.4178631
-0.050784558 -0.21630768 0.03952456 -0.9914524 -0.24045523 -0.14658657 -0.40600994 -0.30167753
-0.4312814 -0.09757518 -0.2614243 -0.79694974 -0.5979671 -0.45046735 -0.4086624 -0.42063606
-0.11466838 -0.41996574 -0.044548612 -0.6077691 -0.29196686 -0.3910767 -0.47943535 -0.53744084
-0.57451844 -0.016996372 -0.5109933 -0.611434 -0.2719656 -0.23519239 -0.620951 -0.23967312
-0.7087126 -0.54179597 -0.33808178 -0.6860374 -0.46155784 -0.50709075 -0.31210446 -0.5491505
-0.4304904 -0.32391202 -0.24289018 -0.6850929 -0.22692233 -0.28606322 -0.3035795 -0.16900888
-0.38675243 -0.2186534 -0.27310553 -0.5993586 -0.32595915 -0.36783785 -0.36757526 -0.3137623
-0.09552742 -0.21871352 -0.11023959 -0.56450796 -0.2897781 -0.32799754 -0.20629211 -0.40579662
-0.176318 -0.2673339 -0.23202248 -0.4204015 -0.36756423 -0.19747312 -0.18711565 -0.23493071
-0.103444636 -0.17708477 -0.1098038 -0.32360053 -0.29525337 -0.23713881 -0.26115313 -0.28172567
-0.24192002 -0.29662374 -0.2875641 -0.48330554 -0.37040323 -0.4805331 -0.43580955 -0.36160678
-0.3168738 -0.5231489 -0.28355026 -0.47658503 -0.39920393 -0.31317964 -0.46820813 -0.41417682
00000000: a5a2 1abc bc4e 373c 49d9 c4bb fc47 36bc
00000010: 852f bd3c 5a66 9dbb 40ab 8cbc 93f3 ed3c
00000020: 35b0 0ebe cc1c 29bf 4aec 633f b548 81bf
00000030: 7f10 783e 7ae2 10be e575 34be f727 cfbd
00000040: 88e3 a6bd d0d4 73bf bd6e a73f e994 f8bf
00000050: f72a 773e 4b71 93be f587 3fbe a99c edbc
00000060: dc05 663d 6617 73bf 425f dd3f 7989 e2bf
00000070: 2de6 e53e 9604 90be 9d56 60be 4ee3 60be
00000080: 2f6f 073e 7fb1 75bf 9612 b33f b1dd 9abf
00000090: e656 b33e 1699 63be 0f1c 72be 22b8 85be
000000a0: 2688 babd ab1f babe 472a 9a3f 5ebb 10bf
000000b0: 6bea 983e f069 85be 929f b0be cb09 02bf
000000c0: 9d90 6ebe 5662 55be a350 8c3f 8b36 cabe
000000d0: e880 b43e b246 f4be 2f95 64bf c998 34bf
000000e0: be63 643b 8d58 b8bc 8795 6dbc 1ff9 c5bc
000000f0: 2d51 be3c 4226 2ebc 9fd1 053d 699f 28bc
00000100: 67b2 ed3e b8ee 1cbf 1df0 15bf 0e0f a1be
00000110: af5a 8e3c 0201 36be c2b7 26bd 6068 9bbe
00000120: 3564 d6be af1b b8be d1c7 c5bd 3908 41be
00000130: 3c21 85be cfd5 a1be b878 b13c 1a75 efbd
00000140: 5aea 513b 22a7 c1be d964 5abf 2aca cfbe
00000150: a9ca 96be 6a1d 06be 24a8 b3bd 0e33 1e3d
00000160: abca e0be 0277 e0be ebb7 0dbd 8137 06bf
00000170: ca05 36be b127 87be dec2 36be 63e2 4c3c
00000180: 766d cf3d e749 13bf cf1e 383e b419 07bf
00000190: 1187 b0be 0ca2 2fbe 0e99 34be 87f6 bcbe
000001a0: a32a 71be 94da d4be cc03 6ebd 83c6 babe
000001b0: 61aa b1be 6c37 afbe 6f8f 1abe 0b61 8cbd
000001c0: f0f8 03be c43c 05bd 4c23 cebe 2e8c 0abe
000001d0: 397b a2be 3683 92bd df49 0ebd 6d19 81bd
000001e0: 6035 6cbf 0dd6 90be 83a8 2b3e 0530 763c
000001f0: feae eabe 8b70 9fbd 5fcf e8be c8ec 2dbc
00000200: 107f 4f3d 53cf 39bd 4143 68be 13b9 3dbe
00000210: cdb4 9d3d d35a 5bbe 842d febd 49a9 383e
00000220: 1f6d e03e 0754 74bd c084 9bbd 929f a1bd
00000230: 5962 89be 8bda ecbd 101e 1ebe de51 0fbe
00000240: ab3b 2e3d 3778 083e 1825 063e 574e 8cbd
00000250: 5aab 21be 1699 59be 9aa5 03be 62f7 0abe
00000260: 31ce b2be 15e6 e4bd 94c8 b2bd 7baa 5cbe
00000270: 6c21 06be 883b bdbe 456a 5fbe 27f2 d5be
00000280: 7803 50bd c37f 5dbe 81e4 213d d3cf 7dbf
00000290: e539 76be ca1a 16be 89e0 cfbe 7a75 9abe
000002a0: ead0 dcbe 7fd5 c7bd 68d9 85be e604 4cbf
000002b0: 5f14 19bf a8a3 e6be 333c d1be 9c5d d7be
000002c0: 41d7 eabd c005 d7be 9b78 36bd c196 1bbf
000002d0: ae7c 95be 353b c8be 8d78 f5be b995 09bf
000002e0: a413 13bf fa3b 8bbc 75d0 02bf f086 1cbf
000002f0: 133f 8bbe 46d6 70be a5f6 1ebf df6c 75be
00000300: 306e 35bf 24b3 0abf 0e19 adbe 26a0 2fbf
00000310: 4f51 ecbe b3d0 01bf 28cc 9fbe 2195 0cbf
00000320: 3d69 dcbe ccd7 a5be 34b8 78be 4062 2fbf
00000330: 545e 68be e176 92be c66e 9bbe aa10 2dbe
00000340: 6a04 c6be ade6 5fbe 7dd4 8bbe 916f 19bf
00000350: 1ee4 a6be 3e55 bcbe d332 bcbe 74a5 a0be
00000360: e1a3 c3bd 70f6 5fbe 4bc5 e1bd 9883 10bf
00000370: cc5d 94be 4bef a7be 3d3e 53be 93c4 cfbe
00000380: b58c 34be fddf 88be 4d97 6dbe de3e d7be
00000390: 6131 bcbe 6536 4abe 3f9b 3fbe ad91 70be
000003a0: c8da d3bd b655 35be d1e0 e0bd f8ae a5be
000003b0: 732b 97be 84d4 72be ddb5 85be 593e 90be
000003c0: e2b9 77be 11df 97be 9a3b 93be d373 f7be
000003d0: 7ea5 bdbe 6f08 f6be 6e22 dfbe 8624 b9be
000003e0: 483d a2be 16ed 05bf 802d 91be f402 f4be
000003f0: 7564 ccbe 1559 a0be fab8 efbe fc0e d4be

fc1.bias f4 [128]
-0.7886971 -1.9531031 -0.46691456 -1.0231524 -1.5070659 -1.5968484 -0.79331094 1.0427114
-0.96758384 -1.0460864 -0.37023073 -1.1456301 -2.2396271 -0.4461224 -0.23492701 -0.67175233
-1.0007441 -1.4980124 -0.62698 0.82830644 -1.2936884 -1.0776438 -1.7593495 -1.1126493
-0.7079431 -0.80053335 -0.9336683 -2.2533853 -0.5628752 -0.6041151 -0.80376893 -0.8184186
-1.1651738 -1.0145772 -1.693603 -1.0563664 -1.1658875 -0.71561885 -1.3601043 -1.7050357
-1.504568 -0.4842248 -1.4564857 0.3464271 -0.6262551 -1.8496512 -0.68896776 -0.61752903
-1.0415875 -1.4723644 -0.6163911 -0.5375405 -1.3948828 -0.8415635 -0.28961813 -1.305855
0.61006665 -1.3292823 -0.58436227 -0.5926867 -0.27420786 -0.08781728 -0.8600023 -0.48000044
-1.4497079 -0.88888985 -1.1614698 -0.5916386 -1.4824151 0.2353704 -0.622144 -0.6461448
-1.2828045 -0.46639934 -1.0025419 -0.7988714 0.10171259 -0.80736405 -1.3745956 -1.3597589
-0.8605183 0.0103913415 -0.96994245 -0.8134312 -1.443744 -0.7451627 -0.86236686 -0.62925076
-0.12971376 -0.7200393 -0.7058628 -0.33031607 -0.5920511 -1.3057435 -0.7436716 -1.499866
-0.5671203 -1.5185244 -0.4399065 -0.62904775 -1.5702817 -1.5837743 -1.1837045 -1.7036847
-1.1039797 -1.7468729 -0.8974838 -1.2387897 -1.2420566 0.31980813 -0.74600977 -1.1449671
-0.5659401 -0.43821523 -1.8297377 -0.9695877 -1.1028138 -0.93106335 -1.5021017 -0.6339278
-0.38456053 -0.48251972 -0.5594979 -0.8267719 -0.62706983 -1.1909381 -0.4076559 -0.5802695
00000000: 0ee8 49bf 48ff f9bf 6d0f efbe a8f6 82bf
00000010: 89e7 c0bf 8765 ccbf 6d16 4bbf 9177 853f
00000020: 93b3 77bf 29e6 85bf e28e bdbe 02a4 92bf
00000030: 0d56 0fc0 286a e4be b590 70be f6f7 2bbf
00000040: 6218 80bf dfbe bfbf c381 20bf e40b 543f
00000050: 9597 a5bf 3bf0 89bf 5d32 e1bf 4b6b 8ebf
00000060: c23b 35bf c1ef 4cbf e304 6fbf 7737 10c0
00000070: 9718 10bf 4aa7 1abf cdc3 4dbf e283 51bf
00000080: 6a24 95bf aadd 81bf fcc7 d8bf 0437 87bf
00000090: cd3b 95bf cc32 37bf e617 aebf 9c3e dabf
000000a0: af95 c0bf 50ec f7be 206e babf e55e b13e
000000b0: 4152 20bf 5fc1 ecbf 3160 30bf 6216 1ebf
000000c0: bd52 85bf 7076 bcbf cfcb 1dbf 419c 09bf
000000d0: 858b b2bf b570 57bf d448 94be 4226 a7bf
000000e0: 542d 1c3f ec25 aabf c498 15bf 51ba 17bf
000000f0: f964 8cbe 8cd9 b3bd 1c29 5cbf 9ec2 f5be
00000100: 0790 b9bf 498e 63bf 0bab 94bf a175 17bf
00000110: c7bf bdbf f004 713e d444 1fbf bf69 25bf
00000120: f032 a4bf e5cb eebe 4b53 80bf d682 4cbf
00000130: b14e d03d 69af 4ebf c0f2 afbf 940c aebf
00000140: ed4a 5cbf 7240 2a3c 264e 78bf 073d 50bf
00000150: 9acc b8bf fcc2 3ebf 13c4 5cbf 9416 21bf
00000160: afd3 04be 7f54 38bf 6db3 34bf 301f a9be
00000170: a990 17bf 9a22 a7bf 4361 3ebf 9cfb bfbf
00000180: cc2e 11bf 025f c2bf 6d3b e1be 4609 21bf
00000190: fefe c8bf 1eb9 cabf a183 97bf 5712 dabf
000001a0: 354f 8dbf 8899 dfbf 80c1 65bf a990 9ebf
000001b0: b6fb 9ebf e4bd a33e 7ffa 3ebf 488e 92bf
000001c0: 73e1 10bf bf5d e0be d834 eabf e636 78bf
000001d0: 0129 8dbf 2b5a 6ebf de44 c0bf 1849 22bf
000001e0: 1ee5 c4be d30c f7be 413b 0fbf 53a7 53bf
000001f0: a687 20bf a970 98bf 46b8 d0be 8b8c 14bf

fc2.weight f4 [1, 128]
-0.15548967 0.11546193 -0.11527267 -0.14475043 0.18568406 0.37745515 1.9183224 -0.26590034
0.13229796 -0.17118873 0.1613415 0.13525379 -0.1540367 0.5992795 0.34319523 -0.14771943
0.15633503 0.14733185 0.13205023 0.34511083 -0.14048854 -0.23054746 -0.40848783 0.22890288
0.14472811 -0.15011166 0.5652886 -0.12648799 0.12658182 0.663527 1.4213798 -0.52389026
0.11237062 -0.1368869 0.12740564 0.09905638 0.16544087 -2.0336385 -0.12285608 -0.16287722
-0.17949247 -0.52979106 -0.13186312 -0.16221763 -0.13344988 -0.11370618 -0.20685105 -0.15802868
-0.14416546 -0.18539989 -0.16080181 0.13777144 -0.11701172 -0.7089844 -0.35465878 -0.10489771
0.21285498 -0.67937464 -0.8655637 -0.503674 0.3299823 1.6004562 -0.13112587 -0.17808726
-0.18317445 -0.7435465 -0.14592889 0.11851746 -0.15033391 -0.12574898 0.18701258 0.1309139
0.16194591 0.6097994 -0.33382076 0.1511854 0.09651939 0.18429297 0.17316835 0.114221185
0.14503409 0.08616456 0.1593016 -0.7322442 0.105280496 0.15597518 0.25331548 0.17401753
-0.10033138 0.15093492 0.73860085 0.5892188 -0.55855167 -0.24367046 0.5290711 0.11403787
-0.11955517 -0.113274164 -0.11074461 -0.10416346 0.4265813 0.11097254 0.15983792 -0.48506087
-0.14931296 -0.11278222 -0.56859994 0.9712741 -0.10892487 -1.2349705 -0.12188637 -0.16686375
0.24777244 -0.72060263 0.1816123 -0.15144347 0.32065004 0.1644892 -0.42314813 0.18234576
-0.41200015 -0.17413662 -0.19115213 0.1597437 0.14149816 0.19629598 0.7531803 0.38955975
00000000: af38 1fbe 4e77 ec3d 1414 ecbd 7539 14be
00000010: f623 3e3e cd41 c13e 978b f53f 1724 88be
00000020: 1e79 073e 194c 2fbe b536 253e f87f 0a3e
00000030: ccbb 1dbe 626a 193f 49b7 af3e c343 17be
00000040: 4a16 203e 29de 163e 2d38 073e 5eb2 b03e
00000050: 3adc 0fbe a214 6cbe 5125 d1be 8465 6a3e
00000060: 9b33 143e dfb6 19be c1b6 103f 1186 01be
00000070: aa9e 013e e8dc 293f c6ef b53f ac1d 06bf
00000080: 9122 e63d 142c 0cbe a076 023e 12de ca3d
00000090: 5569 293e 2227 02c0 f89b fbbd 49c9 26be
000000a0: e0cc 37be 63a0 07bf 2007 07be 611c 26be
000000b0: 16a7 08be c9de e8bd c3d0 53be 45d2 21be
000000c0: 1ca0 13be 78d9 3dbe 3ba9 24be f513 0d3e
000000d0: d7a3 efbd 0080 35bf d695 b5be 9cd4 d6bd
000000e0: a8f6 593e 7feb 2dbf 9595 5dbf c7f0 00bf
000000f0: 71f3 a83e c0db cc3f dc45 06be 825c 36be
00000100: 1592 3bbe 1059 3ebf 626e 15be 48b9 f23d
00000110: 22f1 19be 57c4 00be 3a80 3f3e 4b0e 063e
00000120: 26d5 253e d01b 1c3f 8eea aabe 58d0 1a3e
00000130: f5ab c53d 4cb7 3c3e 0b53 313e ccec e93d
00000140: d183 143e 0b77 b03d f51f 233e 5b74 3bbf
00000150: 4d9d d73d f5b7 1f3e 91b2 813e a731 323e
00000160: 8a7a cdbd af8e 1a3e f214 3d3f 0bd7 163f
00000170: 3efd 0ebf c084 79be 3471 073f b08c e93d
00000180: 57d9 f4bd 49fc e7bd 12ce e2bd a753 d5bd
00000190: dd68 da3e 9245 e33d 8dac 233e e659 f8be
000001a0: 7fe5 18be 5dfa e6bd c48f 11bf 6ba5 783f
000001b0: 0114 dfbd 8313 9ebf 909f f9bd 55de 2abe
000001c0: 0fb8 7d3e 6a79 38bf 93f8 393e ff13 1bbe
000001d0: 3e2c a43e db6f 283e dfa6 d8be d9b8 3a3e
000001e0: aff1 d2be df50 32be 62bd 43be da93 233e
000001f0: e5e4 103e d001 493e 6dd0 403f 6074 c73e
