resources/models/Player-256.pth (torch, 791035 bytes, 3 tensors)

fc1.weight f4 [256, 768]
00000000: bdc5 acbc 30b9 7fbc f3e1 39bc 1562 b2bc
00000010: afe3 bf3c 77a5 323c f901 2ebc 7072 dcbb
00000020: bee4 093f afa9 c3c0 06f3 713f 7c95 b7be
00000030: 5c6b 193f f1d0 9c3e fc7d 3b3f 8871 943e
00000040: 3033 a73f c9f4 ff3d 2d94 1f3f 6524 9a3f
00000050: 681c e8be 0c09 573e 7ae9 933e 6397 bf3e
00000060: 8ecd 1f3f f1a3 34bf 7ef9 bb3e 9a9f edbc
00000070: 8b2d 533e 93b1 9f3d e37b 1e3f f475 553e
00000080: f733 4a3f 2f20 1f3f 1044 84bf 920b 353f
00000090: 6480 52be 19ba 103f 4506 2f3c 2656 e43e
000000a0: 79c2 c83f 55b3 253d 9535 4e3f 85b7 4f3e
000000b0: 0e35 123f 6fbc b83e af39 b13e e610 303f
000000c0: 8c86 c63f 6cfd a53f 7269 c73e a0f8 aa3d
000000d0: 2579 8bbe 68c8 943c 6482 9a3b 4883 36bf
000000e0: 4d46 bf39 542b bfbb 61e9 9abb ca14 edba
000000f0: 223f 663b ccf1 fa3b 88d4 b53c d0d1 b83c
00000100: 0447 a8be 53a9 383d d85c 26be b92e c0be
00000110: ce28 f93d 7e9f a4be e748 bbbe 96f1 0bbe
00000120: af2b b13e 31ad 1f3f ca4b d6bd e324 0bbf
00000130: 0b21 96be f2a3 683c df6c cc3e 0c8b 033e
00000140: d51b 0b3f ca82 8fbf 28a2 563e ec49 3abf
00000150: 5b2d 0abf 9034 34bf 4984 1cbf a5fb 933e
00000160: 5ae5 e7be 11a2 21bf 5d45 5ebf ea03 ecbe
00000170: 9f3b 9abf d4ab ad3c f1dc e7be 8564 20bf
00000180: 112b 0b3f e81a 3cbf 4dae 70bf 687c d9bf
00000190: d001 22be 73a2 6cbf c536 78be 0671 2e3f
000001a0: c716 4fbf 7d0f 2ebf 8b71 31bf e697 8cbe
000001b0: faee 06bf a010 58be 7043 1dbf bb31 00bf
000001c0: f79b 383f 2ce4 1cbf 4633 d3be 5c54 73bf
000001d0: 241b 1ebf 4484 f6be 4f1f b1bf ed8f 1d3f
000001e0: f87f 873f fd26 053f 6e87 0ebe aa2b 83be
000001f0: 85b0 bebd e731 97bf ed9b 2ebf 1ef3 b83e
00000200: 6e9d 49bf 70f0 0540 e484 0cc0 9a8f f83e
00000210: 6612 b2bf 84c0 933f f021 3ebf 874e a6be
00000220: 5d75 9f3f 4549 dabf 2ddc 323f 24b9 e4bf
00000230: 7cf0 5d3f 4cab f3bf 8025 22bd be16 363e
00000240: 671a 27c0 da01 fb3d c98c 92bf 8cfa 933e
00000250: c247 f1bf 9df4 fcbc 323a 27bf 31bf b53e
00000260: 1131 0240 7d2d 21c0 7d7e 733f c380 0ec0
00000270: cc6b 1fbf 233d 6abf 0504 0c3e ee4a 43bf
00000280: f5ea 0dc0 c212 943f 31b1 07c0 c396 823e
00000290: 7083 a2bf 5f79 14bd 357c a4bf 1991 0c3f
000002a0: be6a c63f fed9 edbf b2bc 2d3e 331f 92bf
000002b0: a364 b43e fe39 86bf aede 8e3e 2e55 5fbf
000002c0: 58fe 34c0 c341 a0bd 4b98 79bf 1ce5 0f3f
000002d0: 3f2d f4bf 069b ed3e 5ec1 bfbf 481b 1a3e
000002e0: 5481 c93e ab6b dcbe 447e 80be 5be3 debf
000002f0: fff4 c73e df3b 0cc0 bd9b cb3e 805a 9bbf
00000300: 494c 56be a50b babf 10c5 c0be 13b8 0cbf
00000310: 0e2d 26bf 2e74 1fbf 4285 a23e 47d0 c33d
00000320: f594 f1be 5d37 08bf 5190 eabe 1b5f 51be
00000330: f8a8 25bf ead9 03bd f7a5 183f 0677 113f
00000340: 4ab9 e93e ea3a a4bf d18c c3be 60d5 9bbf
00000350: 494b 75bf 84ee 16bf ed8f e3be 0bad 313d
00000360: efec 3ebf dd03 b1bf 7eca 8fbf e02e 74bf
00000370: a9cd 44bf 1cd6 bdbe 0322 11be 6d8a 6bbd
00000380: 1426 6a3e 539e aebf a07b 66bf cf91 a4bf
00000390: 46f0 93bf 3b8a 7ebf fd47 18bf cd7d 05bf
000003a0: 89bb 49bf 0100 8fbf 354c c4bf 93ce 82bf
000003b0: 63ab 84bf 28a0 09bf bbaf 73bf bb05 e2be
000003c0: be91 15bf ee62 e4bf 8037 97bf 3d26 abbf
000003d0: 5267 88bf 8ad1 36bf 7d48 3dbf 098a 06bf
000003e0: 8ae7 2ebf 7cb4 b3bf 53b9 9bbf 1ae5 5fbf
000003f0: bf35 92bf 8d92 61bf 9b1e a6bf 259e 61bf
-0.021090383 -0.015608117 -0.011345374 -0.021775285 0.023423998 0.010903708 -0.0106205875 -0.006727509
0.5386466 -6.1144633 0.9451145 -0.35856235 0.5992944 0.3062816 0.7323911 0.28992867
1.3062496 0.12497861 0.62335473 1.2042357 -0.45334172 0.20999545 0.28889066 0.37420186
0.62423027 -0.70562655 0.36713785 -0.029006768 0.20622842 0.077975415 0.61907786 0.20845777
0.7898554 0.62158483 -1.0333271 0.7072078 -0.2055679 0.5653396 0.010682647 0.44596976
1.5684348 0.040454227 0.8055051 0.20284851 0.57112205 0.36081263 0.34614322 0.68775785
1.550981 1.2967963 0.38947636 0.08348203 -0.27240863 0.018161967 0.004715251 -0.7129407
0.00036482737 -0.0058340225 -0.004727528 -0.0018087861 0.0035132845 0.007658219 0.02219607 0.022560984
-0.3286668 0.045083355 -0.16246355 -0.37535647 0.12165986 -0.32152933 -0.36579058 -0.13666376
0.3460364 0.62373644 -0.10463674 -0.5435316 -0.29322085 0.014199244 0.39926812 0.12846011
0.54339343 -1.1211789 0.20960295 -0.72769046 -0.53975457 -0.70392704 -0.6113935 0.28902927
-0.4529217 -0.6313792 -0.8682459 -0.46096736 -1.2049445 0.021200098 -0.45285752 -0.6265338
0.5436259 -0.73478556 -0.9401596 -1.6991091 -0.15821004 -0.9243538 -0.24239643 0.6814121
-0.8089413 -0.67992383 -0.6931388 -0.2745964 -0.527084 -0.21100092 -0.61431026 -0.5007588
0.72112983 -0.6128566 -0.41250056 -0.950506 -0.61760163 -0.48147786 -1.383768 0.6154774
1.0585928 0.52012616 -0.1391885 -0.2561925 -0.09311012 -1.1812104 -0.68206674 0.36122984
-0.78755844 2.0928001 -2.195611 0.4854706 -1.3911865 1.1543126 -0.74270535 -0.32481787
1.2457691 -1.705361 0.6986721 -1.7869 0.86695075 -1.9036651 -0.039586544 0.17782113
-2.6109865 0.122562125 -1.1449214 0.2890209 -1.8850024 -0.03087836 -0.65323174 0.3549743
2.0342448 -2.5184014 0.9511488 -2.226609 -0.6227386 -0.9149954 0.13673408 -0.7628621
-2.2174656 1.1568224 -2.12019 0.25505647 -1.2696362 -0.03624856 -1.2850405 0.549089
1.5501325 -1.8582151 0.16966513 -1.1415771 0.3523303 -1.0486448 0.27904266 -0.8723935
-2.828024 -0.07825043 -0.97498006 0.5620897 -1.9076308 0.46407336 -1.4980886 0.1504947
0.39356482 -0.43050894 -0.25096333 -1.7413133 0.39054105 -2.1911542 0.39767256 -1.2136993
-0.20927538 -1.4534804 -0.37650347 -0.54968375 -0.649125 -0.6228665 0.31742293 0.0956121
-0.47183958 -0.5320948 -0.4581323 -0.20446436 -0.6471095 -0.03219024 0.5962824 0.5682224
0.45649177 -1.2830479 -0.38193372 -1.2174492 -0.95818 -0.58957696 -0.44445744 0.043377917
-0.7458028 -1.3829304 -1.1233671 -0.95384026 -0.7687631 -0.37077415 -0.1417313 -0.05750506
0.22866088 -1.3642067 -0.90032387 -1.2856997 -1.1557701 -0.9942967 -0.59484845 -0.5214508
-0.7880178 -1.1171876 -1.5335757 -1.0219291 -1.0364803 -0.53760004 -0.9519002 -0.44144997
-0.5842551 -1.7842691 -1.1813812 -1.3371044 -1.0656531 -0.7141348 -0.73938733 -0.52554375
-0.6832205 -1.4039454 -1.2165931 -0.87458956 -1.1422652 -0.88114244 -1.297809 -0.88131934

fc1.bias f4 [256]
00000000: 76c9 53c0 7dd0 06c0 0d1a 2dc0 e307 d5c0
00000010: 2cfa 68c0 5ac5 a6c0 80e8 71c0 318f 85c0
00000020: f844 3ec0 a532 51c0 95c5 f6bf 18b4 42c0
00000030: 27bd 28c0 754e 72c0 37bb 45c0 2880 45c0
00000040: 5189 12c0 c2d2 3ac0 6adc c3bf 4d79 41c0
00000050: 95d8 55c0 3243 2ec0 182d 0dc0 3ef7 b93e
00000060: 2471 38c0 8ecd 4cc0 cbb3 45c0 a921 b2bf
00000070: b893 efbf 0c08 aa3e cdf3 15c0 b62f 57c0
00000080: 9e22 4cc0 5fc4 40c0 846e 11c0 ebd2 1cc0
00000090: a51d 44c0 140f 94c0 658a 1fc0 32e4 c0bf
000000a0: 1d35 1c3e 3d62 f9bf f916 fabf 755a c6bf
000000b0: 47da 2cc0 05b8 51c0 e082 2ac0 c1c4 20c0
000000c0: eb74 9ac0 d3e8 ddbf c3f6 46c0 b6a2 a6c0
000000d0: 9171 aec0 09ab 63c0 ff62 4cc0 40b6 38c0
000000e0: 58e1 87c0 db69 0dc0 053e a8c0 5649 66c0
000000f0: 500c f3bf 7150 48c0 decc e5bf 3c24 30c0
00000100: 04cb 9ac0 b642 64bf 12ce 3fc0 9920 30c0
00000110: ab59 a9bf 3d98 5ec0 6fda c4bf 75ac 90c0
00000120: bb8a 07c0 5244 dabf 775a 08c0 68d2 9dc0
00000130: a6a7 61c0 767f b6c0 0c3c 2bc0 a623 32c0
00000140: 4c13 d7c0 8976 9dc0 f981 ffbf ac3c 21c0
00000150: 303d 50c0 23b3 45c0 624b 0cc0 7157 febf
00000160: 49f6 05c0 2ed1 6dc0 6b46 1cc0 af2e 17c0
00000170: d348 c8bf af30 50c0 2f8a 2ec0 d425 3ec0
00000180: a7a5 5ac0 9827 76c0 7bfc 84c0 34d1 18c0
00000190: 7658 32c0 a2f3 f8bf 30b8 84c0 4405 94bf
000001a0: 684b 94c0 45c6 67c0 56a3 3fc0 34f7 35c0
000001b0: 2d9e 41c0 97d0 9ac0 ea1b 46c0 a0d3 2dc0
000001c0: 1e0b 95c0 961f e4bf ba6c 3dc0 e89c 9ac0
000001d0: 1c85 59c0 066a 21c0 a0ea 49c0 ad4a 60c0
000001e0: 8baf abbf 60f5 66c0 0bce 30c0 e56a 7bc0
000001f0: f95d 2ec0 e72f 15c0 f85f 61c0 58e5 b5c0
00000200: 0653 4ac0 5955 4ac0 fb1f efbf d512 88c0
00000210: a752 69c0 e817 dbbf 85f2 40c0 8d92 36c0
00000220: f555 6bc0 7eee 32c0 d7ed 0fc0 602e 2dc0
00000230: 0337 8ac0 0dcf 40c0 bbdd 2fc0 e902 71c0
00000240: 6094 65c0 b7a5 62c0 df6e 2dc0 2595 76c0
00000250: a6f4 11c0 04f2 a2c0 81b3 6fc0 a3f0 d7bf
00000260: 2a1d a3c0 c805 ecbf 251a 6cc0 f116 1cc0
00000270: 935a 6ec0 0cc7 febf 4ec0 13c0 c3f0 13c0
00000280: 20dd aac0 5665 36bf 8283 a8be 6805 9cc0
00000290: ef76 27c0 370e 43c0 2559 83bf 4a25 33c0
000002a0: 1722 31c0 4b7d 41c0 603e ce3e c1dd 0dc0
000002b0: d63d d8bf 0276 76c0 d8cb 6cc0 ce9e 72c0
000002c0: d69e 67c0 44c4 b9bf a80f a1c0 f657 3ac0
000002d0: 782c 10c0 b291 8bc0 87bb a0c0 b379 71bf
000002e0: a9ff 2bc0 0a9f 52c0 dadf 47c0 a646 03c0
000002f0: 1dc2 46c0 6680 16c0 302b 26c0 60f2 cdc0
00000300: de64 6fc0 083b d6c0 0889 82c0 7bd9 22c0
00000310: 2ce3 27c0 75a6 ffbf b152 45c0 b2fb e0bf
00000320: dd0c a4bf d6df 8ac0 1740 b4c0 c443 9ec0
00000330: 749f 8dc0 88c9 85c0 d0f2 63c0 32c8 83c0
00000340: 3793 80bf b811 28c0 b4b8 61c0 ca37 91bf
00000350: 1c66 22c0 72b2 f9be 368a f4bf 3410 f8bf
00000360: 6539 52c0 db36 52c0 807b 68c0 0f4a 91bf
00000370: fb81 93c0 4a33 70c0 6df7 08c0 2801 25c0
00000380: 4e1d 9bbf 75f8 1ac0 875e d6bf 8e6f 063f
00000390: 4353 12bf 67d5 0dc0 067d 3bc0 ee21 7bbf
000003a0: b4b7 06c0 99bc 51c0 a3ac 99c0 f29c 4ac0
000003b0: 656e 93c0 e93d 72bf 5cc3 0cc0 f12d 90c0
000003c0: 1896 02c0 38f5 20c0 e6a8 88bf 5253 52c0
000003d0: b059 83c0 2170 05c0 3192 42c0 a171 12c0
000003e0: 5476 91bf 3674 e63e 2d2c 95c0 dd13 90c0
000003f0: d6ed 72c0 f675 6dc0 896e 92c0 7ff4 21c0
-3.3091712 -2.106475 -2.704715 -6.6572127 -3.6402693 -5.211591 -3.7798157 -4.1737294
-2.9729595 -3.268716 -1.9279047 -3.042242 -2.636545 -3.7860386 -3.0895517 -3.085947
-2.2896311 -2.9191136 -1.530164 -3.0230286 -3.341344 -2.7228513 -2.2058773 0.36321443
-2.8819056 -3.200046 -3.0890987 -1.3916522 -1.8716955 0.33209264 -2.3430054 -3.362287
-3.1896129 -3.0119855 -2.2723703 -2.4503734 -3.0643094 -4.6268406 -2.492822 -1.506964
0.15254636 -1.9483105 -1.9538261 -1.5496355 -2.7008226 -3.2768567 -2.664238 -2.512009
-4.826772 -1.7336677 -3.1088111 -5.207362 -5.451363 -3.5573142 -3.1935422 -2.8861237
-4.246258 -2.209586 -5.2575707 -3.598226 -1.8988132 -3.1299098 -1.7953146 -2.7522116
-4.837282 -0.8916429 -2.9969525 -2.7519896 -1.323049 -3.478042 -1.5379161 -4.521052
-2.1178424 -1.70521 -2.1305215 -4.9319344 -3.5258574 -5.703059 -2.67554 -2.7834258
-6.7211056 -4.9207196 -1.996154 -2.519328 -3.2537346 -3.0890586 -2.192101 -1.9870435
-2.093157 -3.7158923 -2.441798 -2.3622243 -1.5647224 -3.2529714 -2.727184 -2.9710588
-3.4163606 -3.8461666 -4.1558204 -2.3877687 -2.7866492 -1.9449351 -4.147484 -1.1564107
-4.634205 -3.6214764 -2.9943442 -2.843213 -3.0252793 -4.8379626 -3.0954537 -2.7160416
-4.657607 -1.7822139 -2.9597611 -4.8316536 -3.3987494 -2.5220962 -3.1549454 -3.5045578
-1.3412946 -3.6087265 -2.7625759 -3.9283993 -2.7244856 -2.3310487 -3.5214825 -5.684246
-3.1613173 -3.1614592 -1.8681635 -4.252299 -3.6456697 -1.7116671 -3.0148022 -2.8526947
-3.6771214 -2.7958064 -2.2488916 -2.7059555 -4.3192153 -3.0126374 -2.7479084 -3.7658026
-3.587181 -3.5413644 -2.709892 -3.852853 -2.2805572 -5.092043 -3.745331 -1.6870311
-5.09731 -1.8439264 -3.6890957 -2.4389002 -3.7242782 -1.9904494 -2.3086123 -2.31157
-5.339493 -0.71248376 -0.32912832 -4.87566 -2.6166341 -3.0477426 -1.026158 -2.799151
-2.7677057 -3.0232723 0.40281963 -2.2166598 -1.6893871 -3.8509526 -3.6999416 -3.7909427
-3.6190696 -1.451302 -5.033161 -2.9116187 -2.2527142 -4.361535 -5.0228915 -0.94326323
-2.6874793 -3.290957 -3.1230378 -2.051187 -3.1055977 -2.3515868 -2.596386 -6.435837
-3.7405314 -6.694706 -4.0792274 -2.544524 -2.6232405 -1.9972674 -3.083172 -1.7576811
-1.2816426 -4.3398237 -5.6328235 -4.945772 -4.4257145 -4.180851 -3.561695 -4.118188
-1.0044926 -2.6260815 -3.5268984 -1.134515 -2.5374823 -0.48768955 -1.9104679 -1.9379945
-3.284753 -3.284598 -3.6325378 -1.1350726 -4.6096168 -3.7531304 -2.1401017 -2.5781956
-1.2118318 -2.4214146 -1.6747597 0.5251397 -0.571583 -2.21615 -2.9295058 -0.9809865
-2.1049623 -3.277136 -4.802324 -3.1658292 -4.607226 -0.9462572 -2.1994238 -4.505608
-2.040411 -2.514967 -1.0676544 -3.2863355 -4.104698 -2.0849688 -3.0401728 -2.2881854
-1.1364236 0.45010537 -4.6616426 -4.5024247 -3.7957664 -3.7103248 -4.575993 -2.5305479

fc2.weight f4 [1, 256]
00000000: 80d8 1fbd a1ae 7dbd cf7d 78bd 8c50 2a3d
00000010: 1107 28bd 06f4 5abd 2fa6 0c3d 3c54 39bd
00000020: 05cb 443e f168 83be ee30 723d 128e 293d
00000030: 00c4 60bd 3a45 b4bd f920 60bd 0b02 503d
00000040: 6a8a d6be 58ef 06bd 4ca0 853d 042f 453d
00000050: 6e96 343d 5722 943e 1480 9a3d 0b34 683d
00000060: 07a9 84bd 1356 4ebd 6729 4cbd dccc 713d
00000070: 9a1a 89bd c9e8 79bd cb04 4c3d c362 4fbd
00000080: 8c34 79be eda9 22bd 5b28 093e f59a 4fbd
00000090: f8c2 593d 559f 6ebd 1034 88bd 8487 723d
000000a0: 128d 92bd 5f8b 493e 643c 8d3d 67bd 59bd
000000b0: 7471 303e eaaf 393d a907 ed3d 264d 93bd
000000c0: 64b2 7ebd bc42 943d 2ab1 2fbe b20f df3d
000000d0: cadb 273e 14c5 8c3e a9b0 9cbe aa60 c63d
000000e0: f7a6 52bd 37a0 cabd 4d8e 663d 57b6 993d
000000f0: 4993 743d c4a0 58bd 6b60 033e 4a26 89bd
00000100: 6180 c1bd 3460 863d f432 553d 8961 493d
00000110: eddb f13d 713e 433d 60bb 8d3d 777e 8a3d
00000120: 6f69 833d e571 b6bd 18a3 293d 0bde 0d3d
00000130: f7e0 0e3d 2e82 27bd 4a56 5ebd d16a 503d
00000140: 8d0d 84bd 571d d63d debf c23d d8b1 a8bd
00000150: 76e2 22bd 8966 57bd 63e0 acbd 1481 eabd
00000160: c118 ae3d b350 19bd 2c79 603d d4f3 6d3d
00000170: 0f16 abbd b15b 2fbd b4b7 44be 5d3b e3bd
00000180: 8d38 293d a0af 67bd bc6c 6b3d 0642 5abd
00000190: 6bf0 8bbe 799c fc3d 65aa 11bd b3af c43d
000001a0: 81f3 54bd e5c5 9e3e 076a 3c3d d529 0dbe
000001b0: 2c99 39bd ac44 5fbd 0eea 673d 60b4 773d
000001c0: 803e 0cbd cb6b 53bd 3015 87bd 8902 c0bd
000001d0: aa38 32bd eaeb 933d db0c 19be 6fa8 4f3d
000001e0: ef31 43bd 2a2a 343d 882b 82bd f4c6 07bd
000001f0: b707 4f3d a20e 5abd 502b ebbd 21d8 7abd
00000200: a33e 02bd c9b7 5ebd fff8 7e3d e0bb 95bd
00000210: 2ecc 3ebd c946 943e 0eb4 d63d bad1 513d
00000220: cd2d 803d 4448 6abd d809 8fbd b1c8 29bd
00000230: e7aa 3abd 039c 483d 14b5 6cbe 47d3 46bd
00000240: d9bb 7b3d ef26 37bd 0c65 ec3d c073 2cbd
00000250: f37b 653d bf54 40bd 07e8 9abe cdf7 9abd
00000260: 6678 9a3d e497 fe3d 354b aa3e be15 7bbd
00000270: ff93 16bd 7b32 7f3d 5c8a f93d 42dd 9dbd
00000280: 70ae 073d af77 a0bd 3436 9f3e 5905 d8bd
00000290: 97f1 573e 6b90 4bbd 83e4 f3bc 0b9c 8abd
000002a0: 36f3 7abd aaab 2b3d edce 5c3d bf5a 233f
000002b0: 86e8 943d ad79 43bd 1cca 37bd 2787 5c3d
000002c0: 6891 253d eca3 593d e24e cb3d c016 0b3d
000002d0: 59e8 b43d 57f5 1f3d d7d1 05bd 5221 b0bd
000002e0: 8a96 19be a167 9cbe 5aff 403d 6cf2 8e3d
000002f0: f3fe 42bd cafc 083e 2314 54be 9439 0bbd
00000300: 304b d7bd 313a b03f 7b49 463d 1419 46bd
00000310: 0e9a 4a3d 22c7 6c3d 2bc7 743d a413 643d
00000320: 9bec a4bd e243 8abd 4b51 86bd 0305 a6bd
00000330: 897d 943d e09f 463d ecca 3d3d da71 4a3d
00000340: e13c bf3d 4d17 b03e 617e 48bd b021 c03d
00000350: bca8 5f3e 28ad 87bd e872 e3bd 4ec6 873d
00000360: 7d99 393d b0e3 543d 24b8 01be ebd4 a7bd
00000370: 2ffa e8bd ae55 95bd c228 693d 536a 69be
00000380: 1d44 973d 1692 97bd c50f f6bd b2d1 0ebd
00000390: 0037 85bd 6775 18bf 7574 4f3d ed56 873d
000003a0: a1de 573d 7793 4dbd ff19 d6bd 1a44 393d
000003b0: 0b1a 423d 3d18 fdbd f0e2 853d 7eaa 7a3d
000003c0: 607c ca3d e0ba 47bd 1335 b6bd f1df 52bd
000003d0: 50e5 35bd aae5 08be d92c 8fbe 8765 89bd
000003e0: ac74 b7bd ba62 503d a5bb 19be 9217 19bd
000003f0: bbbd 29bd 8a51 16bd 31f1 10bd e4dd 473e
-0.03902483 -0.061934117 -0.060666855 0.04158072 -0.041022364 -0.053455375 0.034338173 -0.045246348
0.19218071 -0.25666 0.059128694 0.041395254 -0.05487442 -0.088022664 -0.054718945 0.0507832
-0.41902477 -0.0329431 0.06524715 0.04814054 0.044088773 0.2893245 0.0754396 0.056690257
-0.06477552 -0.050375056 -0.04984417 0.05903326 -0.06694527 -0.061013017 0.04980926 -0.050631296
-0.24336451 -0.039712835 0.133943 -0.050684888 0.053164452 -0.05825742 -0.06650555 0.05921127
-0.07155813 0.19682072 0.06896284 -0.053159144 0.17230779 0.04533378 0.11573727 -0.07192449
-0.062181845 0.07239291 -0.17157426 0.108916655 0.16392437 0.2749411 -0.3060353 0.09686406
-0.05142876 -0.0989384 0.056288052 0.07505482 0.059710775 -0.052887693 0.1282975 -0.06696756
-0.094483145 0.06561318 0.052050546 0.049165282 0.11809526 0.04766697 0.069205046 0.067624025
0.06416594 -0.089084424 0.041415304 0.034635585 0.034882512 -0.040895633 -0.05428151 0.050883118
-0.06447897 0.10454815 0.09509252 -0.08237046 -0.03976675 -0.05258802 -0.08441236 -0.11450401
0.08500815 -0.037430476 0.05480306 0.05809386 -0.08353817 -0.042812053 -0.19210702 -0.11095307
0.041313697 -0.056563973 0.057476744 -0.05328562 -0.27331862 0.12334532 -0.03556289 0.096038245
-0.051990036 0.31010357 0.045999553 -0.13785489 -0.04531209 -0.05450885 0.056619696 0.060474753
-0.034239292 -0.05161647 -0.06595838 -0.093754835 -0.04351107 0.072227314 -0.1494631 0.05069774
-0.047655042 0.043985523 -0.06355959 -0.03314872 0.050544467 -0.05323661 -0.114828706 -0.061241273
-0.031798016 -0.05437449 0.06224918 -0.07311225 -0.04658144 0.28960255 0.104835615 0.0512254
0.06258736 -0.057197824 -0.069842994 -0.04145116 -0.04557314 0.04897691 -0.23115951 -0.048541334
0.061458442 -0.044714864 0.11542711 -0.042102575 0.05602641 -0.04695582 -0.30255148 -0.075667955
0.075424954 0.124313146 0.33260503 -0.06130003 -0.036762234 0.062304 0.12184593 -0.07708217
0.03312534 -0.07835328 0.3109604 -0.10547895 0.21088253 -0.049698275 -0.029772049 -0.06768044
-0.0612671 0.04191176 0.053908277 0.6381034 0.07270913 -0.04772346 -0.04487048 0.05383983
0.040421873 0.053134844 0.09927155 0.033957243 0.08833379 0.039052334 -0.032670822 -0.08600105
-0.14998832 -0.30547813 0.047118522 0.06979832 -0.04760642 0.13377681 -0.20710807 -0.033990458
-0.10512388 1.3767759 0.04840992 -0.04836376 0.049463324 0.057807095 0.059760254 0.055682793
-0.080529414 -0.06751229 -0.06558474 -0.08106425 0.072505064 0.048492312 0.0463361 0.049424984
0.093377836 0.34392777 -0.04894865 0.093814254 0.21841711 -0.06624824 -0.11105901 0.066296205
0.045312393 0.051974952 -0.126679 -0.08194908 -0.11375844 -0.07291733 0.056923635 -0.22794466
0.073860385 -0.074009106 -0.120147265 -0.03486795 -0.06504631 -0.5955414 0.05064817 0.06608377
0.05270255 -0.05018946 -0.10454177 0.045230962 0.047388118 -0.12358139 0.065374255 0.06119775
0.09887004 -0.048762202 -0.08896842 -0.0514831 -0.044408143 -0.1336886 -0.27963904 -0.06708818
-0.089578 0.050875403 -0.15012987 -0.037375994 -0.041440707 -0.036698855 -0.035386268 0.19518238
